Task1/lightning_logs/version_4/checkpoints/epoch=0-step=8749.ckpt (torch, 847891 bytes, 45 tensors)

model.network.0.conv1.weight f4 [64, 27, 3]
00000000: acc2 c43c 03c1 f53c cb00 8ebd 0520 413d
00000010: 6317 e53c 337e 423d 73d7 62bc 03b8 fdbc
00000020: eb10 b2bd 692c 6dbd ac9e d5bd 73a9 d9bd
00000030: d941 923d 0f34 b6bd 6769 7f3c f781 db3c
00000040: 5be1 85bd db82 093e 89ee 993d 3cff acbc
00000050: a3de 9bbd 7c41 02bc 3201 be3d 3650 b13d
00000060: 8649 7dbc 62e0 3e3c e3ee 713c 925a e3bd
00000070: 9fc8 ba3c 910c 83bc 63ac 3fbc faec 773d
00000080: 3a59 643b e26e 9b3c ef11 a4bd cc32 9cbc
00000090: ca54 bc3b 83aa ffbd ad9e a7bd fced 8ebd
000000a0: d5d2 b9bc 47cf dcbd 9f6d e6bc 52ec 1dbe
000000b0: 1afa bfbd 85e0 13bd 5f58 b9bd 28f7 153d
000000c0: 2cc5 2c3d 1c8c b8bd a56a 07bd c34f f4bc
000000d0: 1fa4 cbbd 1ceb 2dbe 3052 e1bd b90b f7bc
000000e0: 4e86 bb3c d045 5dbc 9d5e 7bbd e1ce 053c
000000f0: 06fc 2cbd 60cd 7fbd 5e38 22be 0875 8f3d
00000100: 12a4 253e d198 183c 5dba d9bc dd13 d03d
00000110: 2287 7dbd 70f9 a3bd b59a c5bd b16d 993d
00000120: 1a9a fcbb e933 3b3a af7c 0d3e 5708 223a
00000130: e0df 193b f79a 4b3a d98e 61bd 2515 7f3d
00000140: 55be 023e 76dc b5bd 5090 143c 0b8f 50bd
00000150: 7059 06ba fa48 8fbd 8a29 bb3d b9c6 dabb
00000160: b48c 8abc 854e dd3d e5bf 843d a886 b5bd
00000170: cf63 d7bc 59a7 b1bd dda1 febd 5b90 be3d
00000180: 38fe 0abe 021e 15bd c340 72bd 6f13 1fbe
00000190: e976 9b3c fba1 a6bd 3698 cd3d 508e 6538
000001a0: b076 b43c 3795 8b3a 7f1f f3bd 5a60 5cbe
000001b0: 0e68 8ebc 34cf e33d a9b5 8bbd b858 73bb
000001c0: fe98 65bd d8ec 1fbe a394 ed3c dc06 793c
000001d0: 1870 c53d 1db3 11be 15c2 23bd b0c7 bb3c
000001e0: 82d9 9fbd 5ffc e0bb 1024 fe3d 6453 053d
000001f0: 3d17 07be de85 fd3d eadd 99bd be93 17be
00000200: 4484 823d 01e1 eabb 527d b6bd f92d b63d
00000210: a447 3abd 1999 1a3d afaa d43d 721f 553c
00000220: b0b6 d93c 6436 e53c 77a8 72bd 8126 3ebe
00000230: 533c da3d 873f f7bd 025e 42be 1828 d93d
00000240: b583 91bd 9298 09be dc41 88bd c32c 05be
00000250: d903 88bd 2da4 02bd 178c b7bd d77b 9fbd
00000260: 627b 5d3d 2c9b d5bb c2f9 81bd caa5 2ebc
00000270: 0196 08bd ea4c c9bd 326e 393d c0bc 31bd
00000280: 7a2d c93d 2e07 bb3d d606 07be 823f 7dbd
00000290: b73b b53c 848e 78bd 9ef5 cfbb 6463 bfbd
000002a0: bffd c2bd a1f2 613d 100d c8bc 5256 ebbd
000002b0: 7ef4 9dbd 7b63 f8bc 73dd ddbd 53d4 dbbc
000002c0: cd26 9eba ed7f 33be bf88 0dbe 58fa 9cbd
000002d0: afe2 94bc 6916 36bd 3503 953d 9258 ab3b
000002e0: 38c3 92bb 9c3d 9a3d 661f 773c bfd8 edbd
000002f0: 2a39 903d 399b 09be c172 ce3a 0323 e23b
00000300: 11ee a0bd f252 56be 6f2c 263d fccc bcbd
00000310: c49d 7cbd 951c 633d bede 00be 9813 1fbd
00000320: b4de 583b 269d 57bc 026f 0c3d f624 7c3d
00000330: bcd5 0dbe 2749 f13c a822 58bc f24a 033e
00000340: feea 553c 121b a13c 2d89 7d3d 7999 b5bd
00000350: 1822 c9bd 7535 aabd 874d 883d e8e5 e33d
00000360: 1609 873d e020 cbbd 59a8 e03c d849 06be
00000370: 710b 533d c46b 8dbd 1c03 aebd f744 e33c
00000380: 9a4c 3e3d 817e 4dbd d9cb 343d 95db 9e3c
00000390: b5d6 8abd 2292 6a3d ea66 123d 5cba ac3c
000003a0: 8064 623a eff6 a23d 0db7 4ebc 9bda 33bc
000003b0: f046 1c3d a4ea b83d fa3d 65bd 2b56 d83d
000003c0: 47cc 253d 3077 6e3d 8bd2 5b3d cfde 2bbd
000003d0: eaf2 15bc 1e11 9d3d 4800 4dba 146b 093c
000003e0: fe88 58bd f0c5 dbbd fa1a 543d 7e34 963d
000003f0: d08b f4bd 16fd f5bb 0b33 2e3d a9fb 11be
0.024018608 0.029999262 -0.06933745 0.047149677 0.027965253 0.047483634 -0.013845312 -0.030971533
-0.08694633 -0.05790368 -0.10430655 -0.10628023 0.07141466 -0.08896648 0.015589095 0.02679537
-0.06537124 0.13428824 0.075162 -0.021117799 -0.07610824 -0.007950183 0.09277572 0.08657877
-0.015459424 0.011650177 0.014766428 -0.11101259 0.022800742 -0.015997203 -0.011698815 0.060528733
0.0034843222 0.018973771 -0.08011233 -0.01906719 0.0057474123 -0.124836944 -0.08184562 -0.06978986
-0.02268354 -0.107817225 -0.028128443 -0.1542218 -0.09373875 -0.03610279 -0.090500586 0.03661266
0.042180225 -0.09011099 -0.03306069 -0.02982319 -0.09943413 -0.16984218 -0.11002004 -0.030156957
0.02289119 -0.013505414 -0.061369527 0.008167 -0.042232536 -0.06245172 -0.15841815 0.07004744
0.16175869 0.009313778 -0.026578123 0.101600386 -0.06189645 -0.08006561 -0.09648649 0.07491625
-0.0077088 0.0007141219 0.13817094 0.00061810523 0.0023479387 0.0007766927 -0.05506787 0.062276024
0.12767918 -0.0887994 0.00906761 -0.050917666 -0.00051250216 -0.06996341 0.09138782 -0.0066765216
-0.016912796 0.10805992 0.064819135 -0.08863574 -0.02629271 -0.08674497 -0.12433217 0.09304877
-0.1357354 -0.03640557 -0.059143793 -0.15534757 0.0189776 -0.08136364 0.100387976 5.4730393e-05
0.02202925 0.0010649328 -0.11871242 -0.2152113 -0.017383602 0.11123505 -0.06821758 -0.0037131738
-0.056054108 -0.15617692 0.02900154 0.015199389 0.09640521 -0.14228483 -0.039980013 0.022922367
-0.07805158 -0.0068660225 0.12409222 0.03255023 -0.13192458 0.12379049 -0.0751303 -0.14802453
0.06372884 -0.007167936 -0.08910622 0.08895487 -0.045478478 0.03774366 0.10384118 0.013007985
0.02657637 0.027980037 -0.05924269 -0.18569376 0.10656037 -0.12072664 -0.18981174 0.106033504
-0.07105199 -0.13437107 -0.06653187 -0.13005356 -0.06641359 -0.03189485 -0.08962267 -0.077872925
0.054072745 -0.006518742 -0.06346466 -0.010659644 -0.03334618 -0.09829123 0.045271106 -0.043392897
0.09823127 0.09132229 -0.13186201 -0.061828144 0.0221232 -0.06068279 -0.0063464185 -0.09345129
-0.095210545 0.05516303 -0.024420291 -0.11491074 -0.07712649 -0.030320873 -0.10833254 -0.026834643
-0.0012066007 -0.17529269 -0.13821696 -0.07664937 -0.018174497 -0.044454966 0.07276002 0.0052290643
-0.0044788383 0.07531282 0.01508317 -0.11613607 0.07042153 -0.13438119 0.0015750752 0.0069011464
-0.078579076 -0.20930079 0.04056972 -0.09218785 -0.061673895 0.05544718 -0.1258497 -0.038837045
0.0033091726 -0.013160026 0.034285553 0.061558686 -0.13851064 0.029453827 -0.013191856 0.12821558
0.013056515 0.019666228 0.0618984 -0.08867163 -0.09820956 -0.08310977 0.06655412 0.111278355
0.0659353 -0.0991838 0.027424024 -0.13114107 0.051524583 -0.0690532 -0.08496687 0.027742846
0.04645977 -0.05016947 0.044139717 0.019391814 -0.06779233 0.05726827 0.035742678 0.021084957
0.00086361915 0.07957255 -0.012616885 -0.010977413 0.03815359 0.09029129 -0.05596731 0.1056331
0.040478017 0.058219135 0.053667586 -0.041960534 -0.0091521535 0.076692805 -0.00078201713 0.008387346
-0.05286502 -0.10731113 0.05178354 0.07334231 -0.119407296 -0.007506977 0.042529147 -0.14256157

model.network.0.conv1.bias f4 [64]
00000000: 760d 9e3c 9d21 0e3d ecf4 843d 96e9 6e3d
00000010: ca4c 6d3d 1e9c 723d 792a d63d 1ea4 623d
00000020: dc7f cdbd 3a9f f9bd 03d7 5cbd 602c 3f3d
00000030: 398d e1ba 2494 363d 3b51 28bd 06cd ce3d
00000040: 34e8 2b3c 1af2 19be e505 813d 4c2c cfbd
00000050: 4cb2 8fbc 0467 2ebd a1fb e03d bf81 f2bd
00000060: e400 ad3d cc4f a1bd 04c7 643d fae6 783d
00000070: 117e 7dbd 8543 8d3d 757e 123d d8e0 6abd
00000080: 1aed d3bc fb8e 1c3d 6219 e1bb 662e ca3c
00000090: 6280 21ba e96b 163d fce0 9dbd abae cb3d
000000a0: 0957 a6bd 1a98 1fbe d592 82bd 5c70 d23d
000000b0: 2931 cebc b757 6f3d 2e5b 37be 81d5 32be
000000c0: 47d2 f1bd 89a9 8bbd 8219 283d fe58 d5bd
000000d0: 6660 d8bc 88c3 c53d 5aa6 d53d be1c b0bd
000000e0: 6fd4 803c 3b14 9b3d e896 d43d ad38 c53c
000000f0: e3fb a1bd 651e f0bd 7410 fdbc acb6 863d
0.019293528 0.034700025 0.06492028 0.058328234 0.05793456 0.059230916 0.1045732 0.055332296
-0.10034153 -0.12188573 -0.05391599 0.04667318 -0.0017208225 0.04457487 -0.041093092 0.10097699
0.010492373 -0.1503376 0.062999524 -0.10115871 -0.017541073 -0.042578712 0.109854944 -0.11841153
0.084474355 -0.07876548 0.05585386 0.06076715 -0.061887804 0.06897644 0.03576513 -0.057343334
-0.025869895 0.038222294 -0.006869481 0.024680328 -0.0006160793 0.036724005 -0.07708928 0.09945425
-0.081220694 -0.15585366 -0.06375662 0.10275337 -0.025169926 0.05843326 -0.17905876 -0.17464258
-0.11807685 -0.06819446 0.04103995 -0.104173645 -0.026413154 0.09656435 0.1043212 -0.08599232
0.015726296 0.07572218 0.103803456 0.024074877 -0.07909372 -0.11724547 -0.030891635 0.06577811

model.network.0.conv2.weight f4 [64, 64, 3]
00000000: cb24 983c 84be f93b 1b32 f13b 11f6 b63c
00000010: 5359 4bbc b4e5 203d 1b02 08bb 9073 42bd
00000020: c70f 02be c72e 083d c07a 4abd fc74 81bd
00000030: 53c2 523d 259f 4bbc 6c80 8e3d 7008 fa3c
00000040: 921b 23bb 7ce2 42bc 9187 1f3d 0b6e cf3b
00000050: b34a 40bd a816 bf3c ced7 edbc 35b9 36bc
00000060: bb06 bb3c a03d a43c 244b d33c 21d0 4abd
00000070: 78f2 7fbd b30f 54bd d95d 293d 98cc 2d3d
00000080: 161a 40bd 75ca b83c 242f 82bd ce3a 95bd
00000090: 1440 40bd d50e e6bc cc57 e53c 13b6 883d
000000a0: e5cd 70bd 78e3 903c 98a6 c7bd cd3f d6bb
000000b0: 4d7e 3e3a 5dd2 32bd 088d 85bd ec2d 3fbd
000000c0: 53c1 23bb 90bf 75bd 1766 91bd f078 2cbc
000000d0: e567 94bd 8c91 73bb b9d0 83bd 7a1f 9bbc
000000e0: a976 90bd c807 653c 21f2 503d 94fb 00bd
000000f0: 70b0 cfbd 250e ed3c 9b89 bf3c 3229 013c
00000100: b33d 413d c7b1 95bd b5da 993c a08e b03c
00000110: b321 f83b c7d1 03bd b45a c63c 1376 88bc
00000120: ad5f 76bd 4cfd 87bb 1264 a7bd b81e d6bc
00000130: c1e0 163d 984d d23b b99c 3b3d d442 cbbc
00000140: a44f 90bd 555b 0d3d dcf7 04bd 84cb 133d
00000150: f235 cd3c 0cc9 a0bd b3da 343b 570a 59bc
00000160: 283b 91bd ca05 c6bd 75d7 023d 9df6 03bc
00000170: a10b 7cbd 535d 14bd 393d 0f3c 7fb4 d83b
00000180: 5f4e 45bd 08ad a4bc 83ab 933d aced 7bbd
00000190: bdf0 7bbc 5e76 05bd dd87 30bd 5bd8 723b
000001a0: 375c 843d aa6d 043d e5bc 86bc 1663 b1bd
000001b0: 6c7e b53c b3c4 fbbc d00e f63c 0422 c83c
000001c0: b7c2 66bd f27a d33c 74f3 223c 3a7d 8ebd
000001d0: ad28 323d 5be7 81b9 bc68 18bd 7af2 0bbd
000001e0: 71bb 74bd 9be6 b43b d42e 3abd 220e 0bbd
000001f0: c8dc debc f51d 7e3d a2d3 ccbd 7dc9 72bc
00000200: 1e4a 18bd e7fd 26bd b6ae 9cbd 2a12 8bbd
00000210: d305 c3bd c699 ef3b 1e80 2a3d f73d b1bd
00000220: e170 c2bd 0a4f 83bd 8ec4 9c3d 3c5a 64bd
00000230: c352 3fbd 8ca0 073d ff63 c7bd b608 0ebd
00000240: e68f 4dbd fac2 3a3d 8041 763d 8283 a2bd
00000250: 4d3d b7bc 85c5 48bd 3e66 373c af6d 63bd
00000260: 209d 7fbd 4d76 3fbd e543 93bc 4169 6d3b
00000270: db2b 053d a7d2 093c a679 d9bc 66cd 4abd
00000280: 6db3 bc3c df80 3bbd f1fc 1cbc ce2b abbc
00000290: 5471 03bd 859d 35bd 8ac8 8abd 46f8 a23b
000002a0: a0f5 693b 9b04 56bd b6c6 05bd a1f1 063d
000002b0: f790 283d 41da 1d3b b117 32bc c8a1 7e3c
000002c0: 2932 143c 410a 253d badc 27bd 04a7 82bd
000002d0: 9c8d 283c 9a14 263d f831 f2bb f866 13bd
000002e0: 115b cbbd 5a27 243d 444a e23c 81fc 9dbd
000002f0: f437 c63b ee81 75bc 2370 e0bd 0df8 90bc
00000300: ac22 16bd 4056 56bd f17d 07bd 41d1 363b
00000310: a296 9a3c a4e0 ec3c 88d9 903b cfc8 913c
00000320: 2b21 af3d 2834 96bd 0273 a6bd cd0e 89bd
00000330: 38de 813d 6c0b 2e3d 0c65 8a3d 371c 703d
00000340: 470f 32bd 6e75 bfbd 8504 41bd 96fa 50bc
00000350: 5c97 bbbd ee68 8bbd bdb0 e8bc 1945 c23c
00000360: 7962 d4bc 6c2a 34bc 5e98 2b3c b60d 933b
00000370: de15 41bd 415f 203c 1f44 a5bd 95c1 f3bd
00000380: d2b1 d6bd 8031 b6bb 8f7e e43c d58b 80bd
00000390: 7fe1 093e 4f96 973d 734c 033e 6dad f9bd
000003a0: 6f2c 15be bb69 183c 3df6 c43c 9ff4 ba3d
000003b0: 7303 bf3d dcaa dc3c 39fa df3c f0a9 6fbd
000003c0: c0a8 b7bd df6c 38bd e0dc 69bd c3ac 9cbd
000003d0: 185f bebc 0b5b 713c 337e 9cbd 9e9c 9fbd
000003e0: 1c66 353c 4856 a4bc 63a3 28bd fde9 b9bd
000003f0: 0c5c f6bd 20da c0bd 2694 17bd a8fe 4ebd
0.018572232 0.007621588 0.0073607094 0.02233413 -0.012411433 0.039281562 -0.0020753208 -0.04747349
-0.12701331 0.033247735 -0.04943347 -0.06321141 0.051454853 -0.01242808 0.06958088 0.030521601
-0.002488826 -0.011894818 0.038947646 0.006330257 -0.04694624 0.023326233 -0.029033568 -0.011152555
0.022830358 0.020048916 0.025792666 -0.049514893 -0.062487096 -0.051772784 0.041349266 0.042431444
-0.046899877 0.022557477 -0.063566476 -0.07286607 -0.04693611 -0.028083244 0.027995966 0.06675353
-0.058790106 0.01768659 -0.09748572 -0.0065383674 0.0007266745 -0.04365765 -0.0652104 -0.046674654
-0.0024987056 -0.05999714 -0.0709955 -0.010526881 -0.07246379 -0.003716561 -0.06436295 -0.018935908
-0.07053883 0.013978906 0.051012162 -0.031489924 -0.10141075 0.028937409 0.023381045 0.007883357
0.04717798 -0.07309299 0.018781045 0.021552384 0.0075723766 -0.03218248 0.024213172 -0.016657865
-0.060149837 -0.0041500684 -0.08173384 -0.026137695 0.036835436 0.0064179413 0.04580376 -0.02481214
-0.0704644 0.03451093 -0.03246294 0.03608276 0.025050137 -0.07850847 0.0027596175 -0.013247094
-0.07091361 -0.09669073 0.031943757 -0.008054403 -0.061534528 -0.036221813 0.008742624 0.0066133137
-0.048170444 -0.020102039 0.07210448 -0.06150596 -0.015377221 -0.032583587 -0.04309832 0.0037055227
0.06462901 0.032331146 -0.016447494 -0.08661477 0.02215501 -0.030733442 0.03003636 0.024430282
-0.05633804 0.02581546 0.009945739 -0.06957479 0.043495823 -0.0002477717 -0.037209257 -0.03416679
-0.05974907 0.0055206544 -0.045454815 -0.033949025 -0.027204886 0.062040288 -0.10001303 -0.014818546
-0.03718006 -0.040769484 -0.07650511 -0.06790574 -0.09522595 0.0073120324 0.04162609 -0.08654397
-0.09494186 -0.0641156 0.07654677 -0.055750117 -0.046709787 0.033112094 -0.097358696 -0.034676276
-0.05018606 0.0455961 0.06012106 -0.079352394 -0.022368098 -0.049016494 0.01119381 -0.055524524
-0.062405705 -0.04674368 -0.01797671 0.0036226066 0.032512527 0.00841204 -0.026547264 -0.04951229
0.023034776 -0.045777198 -0.00958179 -0.020894911 -0.0320905 -0.044339675 -0.06776531 0.004973444
0.0035699382 -0.052250486 -0.03266021 0.03294528 0.041153874 0.0024086388 -0.010869906 0.015541501
0.009045162 0.040292982 -0.040981986 -0.06379512 0.010287669 0.04054699 -0.0073912106 -0.03598687
-0.09929479 0.04007659 0.027623303 -0.07714177 0.0060491506 -0.014984591 -0.109588884 -0.017696405
-0.03665416 -0.05232835 -0.03307909 0.002789572 0.018870655 0.02891571 0.004420463 0.017795948
0.08551248 -0.07334167 -0.08127405 -0.06692276 0.06341213 0.04249136 0.067575544 0.058620658
-0.0434716 -0.0934857 -0.04712345 -0.012755057 -0.09159729 -0.06807123 -0.028404588 0.023714589
-0.025925862 -0.010996442 0.010473339 0.0044877185 -0.047139995 0.009788335 -0.08069634 -0.11902157
-0.10483135 -0.0055601 0.02789238 -0.06276671 0.13464926 0.07401716 0.12822132 -0.121912815
-0.14567731 0.009302552 0.024043197 0.09128689 0.0932683 0.02693694 0.027340995 -0.058511674
-0.089677334 -0.045025703 -0.05709541 -0.07650139 -0.023238704 0.014731179 -0.07641258 -0.07793544
0.011071708 -0.020060673 -0.041171443 -0.09077833 -0.12029275 -0.09416604 -0.03700652 -0.050535828

model.network.0.conv2.bias f4 [64]
00000000: eb8f bb3c 6b42 013d 4ca9 053d bd8a a5bd
00000010: 8ecf 973d 6d29 41bd b464 8bbc abc9 d83d
00000020: 0598 ccbd 608d 9a3b e957 50bd 09ad 6bbd
00000030: 3649 f2bc 301b 53bd 7d4f d7bc 1331 21bc
00000040: 3b8a f9bb 0474 afbd edbd d3bc 3876 d9bd
00000050: b927 2ebd ea5a eabd 0d4a 6fbd d1de 48bc
00000060: 6b84 ef3c b6b7 253a 9a38 8ebd 0379 afbd
00000070: 4d04 99bc e2b5 0c3d 2db0 dabc 3ce7 64bd
00000080: b7b7 d9bd 8fa1 96bd 48ca 013d 48cc 2a3b
00000090: 0189 67bd 49ea afbd a825 55bd 7959 18be
000000a0: cca5 e43d 3b79 883d 3b06 16bd 4386 8dbd
000000b0: dd22 9dbd af79 8e3d fdc3 6bbd e0b4 c53b
000000c0: 7d29 c0bd 886b ee3c ff99 82bd 9051 87bd
000000d0: 0700 8d3d 07bc 4abd daee c5bd e7e4 aabc
000000e0: 8503 11be 14ff da3d aeea bc3d 8bbf a93d
000000f0: 3a84 6abd d413 033d de44 8bbd 36db 513c
0.022895774 0.03155748 0.032632157 -0.08083103 0.07412635 -0.047158647 -0.017015792 0.1058534
-0.09989933 0.0047165602 -0.050865088 -0.057538066 -0.029575925 -0.0515396 -0.02628302 -0.00983836
-0.0076153553 -0.0856705 -0.0258474 -0.106182516 -0.04251835 -0.11443122 -0.05842023 -0.012260155
0.029237946 0.00063216256 -0.0694439 -0.08568003 -0.018678809 0.034353144 -0.026695335 -0.055884585
-0.10630744 -0.073550336 0.03168705 0.0026061703 -0.05652714 -0.08589608 -0.052037865 -0.14877881
0.11164436 0.06663748 -0.036627036 -0.06910374 -0.07672665 0.06956803 -0.057559956 0.006033525
-0.09382913 0.02910401 -0.06377029 -0.06607354 0.06884771 -0.049495723 -0.09664698 -0.020861102
-0.14161499 0.106931835 0.09224449 0.08288487 -0.057255007 0.03200133 -0.06800245 0.012808612

model.network.0.downsample.weight f4 [64, 27, 1]
00000000: 35b9 003e e78c 4cbe e99b a6bd 56d7 37be
00000010: 830b 2cbe dcb0 dfbd 0a70 223d 9476 9d3c
00000020: 1de7 2bbd 7a23 b53d 6763 503d 6e05 3cbe
00000030: ca8e f83c f5ed 36be 381f 093d ac2e 4d3e
00000040: 6a78 78bd fc07 3e3d af0d 54bd 610c 58bd
00000050: ef36 1cbe fc20 81bd 7077 aabd 8ede 853d
00000060: da2a 9bbd a046 a33d eae0 40bd c1cd 263e
00000070: a6f3 903d 8bc6 21be 76ee 40bd 0d8e 96bd
00000080: 666a 01bd ee6e c5bd b6fe dfbd 76ae 063e
00000090: 96c9 863d b214 3abe b63a f5bd c762 2fbe
000000a0: 5cc1 f6bd 0675 0cbd 21e7 d8bd f91e c83c
000000b0: b5c0 013e 0646 f73d 7534 d2bc 9ae3 c6bc
000000c0: 5a89 0f3e 56ab 82bc 424b d8bd 8635 073e
000000d0: c2ed adbd 4470 60bc 1f0b b23d 9ed0 893d
000000e0: ae87 87bd 3286 7bb9 25d3 1a3d 7804 2c3e
000000f0: 63f7 803c 158d f8bc a6da c8bd 7053 453c
00000100: 2746 0abe 5521 de3c f0c1 e43d aaaa 0c3e
00000110: 93b0 4bbe 8bea 08be a11e ccbd 5acf 783d
00000120: d200 46be 7a16 d73d d593 123d ef30 5bbd
00000130: d625 45be 9f43 423e 6588 03be 7e19 8fbd
00000140: e1bc 0bbd d0c2 dcbd 31a6 edbd cdda 233e
00000150: 0441 113e 8cee 463e 9478 9a3d c611 473d
00000160: 0106 30bd 92f5 edbd 06ea 7f3d aa80 923d
00000170: 059d 10be 856e df3c 1c4f 63bc a40c febc
00000180: e4ef 17be 59d4 e4bd ee14 15bc c57f 793c
00000190: d90f e73b 6dae 563d e66c f53d eea8 1fbd
000001a0: 3fc2 383e ca28 9c3b 0d1a 903d dfe1 dfbc
000001b0: 98b2 d33d 73f0 1cbd 9061 193d 6eb8 bebd
000001c0: b66f aa3d e93e 6b3d f801 10be 1a2d 7e3d
000001d0: 0a26 be3d 6237 c3bd e928 26bc d0ef e8bd
000001e0: 4ebc 54bb 7e04 c4bd b169 573e 5cde 973d
000001f0: d71c 833d e313 153e cf99 37bd f01e 6ebe
00000200: a220 053e a0b7 79bd 2113 d5bd d5fe bcbd
00000210: 0474 d339 5684 7c3d 4c39 8bbc 6695 83be
00000220: 0e70 7d3d f2cf 00be ac91 6fbe e64b 7abe
00000230: b735 b6bd 1b3b 40be 85f5 e9bd 96f9 a7bd
00000240: bd99 1e3e 4c01 ecbc b407 25be e2e0 eabd
00000250: d25d 69bd bbd5 eabd 9cd4 83bd 6fef 38be
00000260: c2e6 96bd 4ddb 14be 14a6 083e 9a2a 71bd
00000270: 597c 3b3e 6076 0ebe 2227 cd3d b06a ecbc
00000280: 5265 093d af7d ab3c 9afb ca3c f082 55be
00000290: 810d 49be 7ba0 a9bd c225 3abe 25cc 213d
000002a0: dfbf 26be 3e85 d43d f240 23be 6ac9 c5bd
000002b0: f0f3 67be f70c 0abe 4ec1 01be 985a fbbd
000002c0: bf1e 4cbe 4b2b 12be e0c9 913d d5ac 58be
000002d0: cfdb 71bd 4189 a53d 4766 51bc fd52 4dbd
000002e0: 78ac fa3d 6704 253e 4b06 45bc f691 cabc
000002f0: a5cd e3bd b3a1 603e 37f1 683e 85e0 99bd
00000300: ad75 503c 31b3 61bd aa7a 25bd 052d 753e
00000310: 0889 0f3c 41a0 dfbb 3066 a7bd 9f8a 33bc
00000320: a6cc 12bc 6781 503d 63fd e53b 8190 24be
00000330: 5a23 1ebe 4226 0a3d 7b59 dbbd a326 663d
00000340: 1f47 273e 821f 5dbc 5f6e fbbd 0000 bc3d
00000350: e561 423e d619 a2bd 498d 36be 60e5 e4bd
00000360: e9f4 923c 2bd5 c43d 2338 063e 6e00 fa3d
00000370: 4e8f f03d 9abe 84bd 501f beba 0818 653d
00000380: 989c 0e3e e283 ea3c 41d2 04be cdde 39be
00000390: b0ce 703d 36db 5dbb 7b39 a83d 0af4 7d3d
000003a0: 3715 aa3d f649 2ebe bdde 923d 90a1 e13d
000003b0: 5018 acbd 66ac f8bc d927 94bc 36d0 0dbe
000003c0: 2d30 adbd 4165 8abc d1ee bd3d 3c2a 3f3a
000003d0: 7ffb 94bc dba4 85bd 0adc 553e 5032 3a3e
000003e0: 8f3a 163e 7ac1 133e 858b ae3d ffb9 ecba
000003f0: a207 f4bd 011a 2f3e a4cf 473e 2e56 673e
0.12570651 -0.19975625 -0.08135206 -0.17953238 -0.16801266 -0.10922405 0.03965763 0.019221582
-0.041968454 0.08844657 0.050876047 -0.18361446 0.030341525 -0.17864211 0.03347704 0.20037335
-0.06066171 0.046394333 -0.051770862 -0.05274618 -0.1525533 -0.063051194 -0.08323562 0.065365896
-0.07576533 0.07972455 -0.047089495 0.16289426 0.07077722 -0.15798394 -0.047102414 -0.07351313
-0.03159561 -0.09640299 -0.10937254 0.13152489 0.06581418 -0.18171957 -0.11974089 -0.17127524
-0.12048599 -0.03429129 -0.10590959 0.024428831 0.12671168 0.12073903 -0.02565978 -0.02427845
0.14017239 -0.01595084 -0.10561229 0.13204011 -0.08492614 -0.013698641 0.086935274 0.06729244
-0.06617676 -0.00023987217 0.03779902 0.1679858 0.015742963 -0.03034071 -0.09807329 0.012043819
-0.13503323 0.027115503 0.11169803 0.13736978 -0.19891576 -0.13370721 -0.099667795 0.06074462
-0.1933625 0.10502334 0.035785515 -0.053513464 -0.19252715 0.18971108 -0.12844999 -0.06987284
-0.034115676 -0.10779345 -0.11603964 0.16001435 0.14184958 0.19426936 0.0754253 0.048600934
-0.042974476 -0.116191044 0.06247904 0.07153447 -0.14122398 0.02727438 -0.013873842 -0.031011887
-0.14837605 -0.111733146 -0.009099228 0.015228217 0.0070514497 0.05241244 0.11983661 -0.038979463
0.18042849 0.0047656046 0.07036219 -0.027329383 0.103367984 -0.038315248 0.03744656 -0.09312521
0.083220884 0.057433043 -0.14063251 0.06205473 0.09284599 -0.09532048 -0.01014159 -0.113738656
-0.003246087 -0.09571169 0.21036412 0.074154586 0.06401985 0.14558367 -0.044824418 -0.23253989
0.1300073 -0.060966134 -0.10404039 -0.09228293 0.00040331495 0.061649643 -0.016995095 -0.2569992
0.06187444 -0.12579325 -0.23395413 -0.24443015 -0.08896964 -0.18772547 -0.11423782 -0.082019016
0.15488334 -0.028809212 -0.1611622 -0.11468674 -0.05697424 -0.11466547 -0.064370364 -0.18060087
-0.07368232 -0.14536782 0.13344604 -0.05887852 0.18309154 -0.13912344 0.100172296 -0.028859466
0.033543892 0.020933954 0.024778176 -0.2085073 -0.19634058 -0.08282562 -0.18178466 0.039501328
-0.1628413 0.103769764 -0.15942743 -0.09657557 -0.22651649 -0.13481508 -0.12671396 -0.12273139
-0.19933604 -0.14274327 0.07118583 -0.2115968 -0.059047516 0.0808282 -0.0127807325 -0.050127972
0.12239927 0.1611496 -0.012025426 -0.024727803 -0.11123208 0.21936683 0.22748266 -0.07513527
0.012723369 -0.05510253 -0.040400185 0.23942955 0.008760698 -0.0068245237 -0.081737876 -0.010958343
-0.008959925 0.050904658 0.0070187314 -0.16070749 -0.15443173 0.03372789 -0.107104264 0.05618919
0.16335724 -0.013496282 -0.12276911 0.091796875 0.18982656 -0.07915084 -0.17827334 -0.11176562
0.017939048 0.09610971 0.13107352 0.12207113 0.11746083 -0.06481667 -0.0014505181 0.05593112
0.13926923 0.02862734 -0.1297083 -0.18151398 0.058790863 -0.0033852584 0.082140885 0.062000312
0.08304828 -0.17020401 0.0717139 0.11017144 -0.08403075 -0.030355643 -0.018085407 -0.13848957
-0.084564544 -0.016893985 0.09274066 0.0007292365 -0.018186329 -0.06525584 0.2088472 0.18183255
0.14670776 0.14429274 0.08522705 -0.0018060802 -0.11915518 0.17099763 0.19512802 0.22591469

model.network.0.downsample.bias f4 [64]
00000000: df66 bfbd 8e92 8c3e 8859 f03b ca02 76be
00000010: e6a3 2fbe f208 37be 39ff 69bd c5fd 993e
00000020: 7a33 05be 3914 ce3d 1366 913e ba56 87be
00000030: 032c 46bd 331e 90be 1605 8cbe 34ef 70be
00000040: 5884 31be 2ad0 6ebd eb8c 393e 9bd3 683d
00000050: 3ecb f1bd ee19 43bd f983 5e3e 3836 51be
00000060: c390 0f3d 981d 753e 3ebe 1b3e b4e2 223d
00000070: 6c39 4cbe dc18 6d3e d3a6 9dbd 9dca a2bc
00000080: d090 06be 755e 973e 1648 0c3d 9339 9bbd
00000090: 3707 83be 0181 a3be 17bf 55be c5f6 d73c
000000a0: 6fad 5d3e 3491 9b3e 7a58 4abe 1eea fdbe
000000b0: ca21 c2be 9b37 96bc 9453 643e f27c 69be
000000c0: 0dd0 253e cbef dcbc 5da8 60be b2bd 22be
000000d0: af73 9e3d 23bd 77be 8690 a73e 3cec e1bc
000000e0: 4a8c c83d e82d b03d ff15 d6bd 81dc 783e
000000f0: 9eea d0be 065e e7bc 6478 02bb 8b71 81be
-0.09345793 0.27455562 0.0073348917 -0.24024501 -0.17152366 -0.17874506 -0.057128165 0.30076423
-0.13007918 0.10062451 0.2839819 -0.26433355 -0.048381817 -0.2814804 -0.2734763 -0.23528749
-0.17335641 -0.05830399 0.18120162 0.056842428 -0.118063435 -0.04763215 0.21730031 -0.20430839
0.035050165 0.2393707 0.1520929 0.039766982 -0.1994378 0.23154014 -0.07697835 -0.019872004
-0.13141179 0.29564252 0.034248434 -0.07579341 -0.25591442 -0.3193436 -0.20873676 0.026362786
0.21648191 0.3038422 -0.19760314 -0.4959268 -0.37916404 -0.018337062 0.22297508 -0.22801569
0.16192646 -0.026969811 -0.21939225 -0.15892676 0.07736909 -0.24193244 0.3272745 -0.027578466
0.09792383 0.08602506 -0.10453414 0.24302866 -0.40804 -0.028243076 -0.0019908184 -0.2528194

model.network.1.conv1.weight f4 [64, 64, 3]
00000000: 033c 93bd a48f 86bd c87d 803d f7cc b3bd
00000010: 0a58 613c a6ab fb3c 2aa1 183c 97dd 19bd
00000020: 215f 12bd cff9 1ebd a3c4 e6bc 66c1 50bd
00000030: 3ff1 213d 71b4 033d 3bf9 b93c 8e89 173d
00000040: af3c bfbd ddb0 6d3d 0a8e 7dbc e9bf 0ebb
00000050: 4010 673d b037 02bd a8aa 84bd cbff 033d
00000060: 0749 95bd 7988 46bc 6b9c 013a 3e5c 30bd
00000070: e31e 4d3d bb05 a9bd 8172 23bc 54bf 3e3d
00000080: ff11 453d e969 3a3d 3ce5 833d f7e5 223c
00000090: cefc 513c bdfb 76bc d034 1f3c dd50 1b3b
000000a0: 80f7 3cbd 88ac ef3c f15a 0cbd 61ac 473c
000000b0: e62e 41bd b5bb 8fbc d2bf 5c3c f6b9 b9bd
000000c0: 27dc 143d 8a7b babc 7e29 c2ba 9a89 843d
000000d0: 21b0 03bc 3298 7dbd b879 7fbc 01e1 a73c
000000e0: dc80 013a 9695 d0bc 6f48 043d a5b8 0c3d
000000f0: 4150 cdbd 490f aebd f6d3 3c3d b133 ac3d
00000100: 1ed2 03bd 0e30 58bd 2e32 ff3c fc64 bcbc
00000110: 7f4f 1c3d f991 8bbd 7399 44bd 1298 973c
00000120: 8631 c8bc e775 edbc ce32 3ebd a9fb afbd
00000130: 02be 1b3d ca71 383c bdac 753c 818a 883c
00000140: f1ca dbbb 8da7 68bd 6ba6 18bc 35f1 2bbd
00000150: 82c9 d13a 8394 0bbd 1a65 bebd 97a2 a8bd
00000160: 3fe0 a63b 9a85 2b3d 4627 80bd 0d4f 3bbb
00000170: 96bc bcbc 7ed5 6fbc a8d7 803a c01b 73bc
00000180: a478 5fbc f8b5 cdba b07f 133d 5586 6fbd
00000190: 33e5 9e3c 27d2 6fbc 9bc4 1cbc 7d80 47bd
000001a0: f4eb 25bd 2c15 a3bd cbf9 5fbd 1304 1fbd
000001b0: f137 73bd 5b52 77bd 3e43 c03d 9823 07bd
000001c0: 35bf dcbb 89bc 91bd cdbb e03a 1799 82bd
000001d0: 9e3e 42bb 9a33 95bc 7ae6 483b 75de 52bd
000001e0: e35d 07bc 71a3 b8bc 1f42 85b8 32aa 1b3d
000001f0: 0723 a4bd 3e2e 68bd 6fe1 0839 26e0 593b
00000200: 7c02 263d a4b4 07bd 5a97 61bd 26bf 63bd
00000210: e690 c4bc 9553 26bd 3d2d aabd 3ed0 233d
00000220: 029a 083d 1c5d b9ba 4f28 c8bd b1ae f2bd
00000230: c27c 413d 0df3 15bd b4b6 f63c f31c 91bc
00000240: bf24 613d 62f7 80bd 886f bbbd ee23 44bd
00000250: b5e6 42bd 08b0 9ebd 6096 03bd b82b 93bc
00000260: 1e89 5a3d b270 0dbd 4fea 63bd 1fe8 0cbc
00000270: 30b7 95bd a852 833c 3a9f c4bc 8e31 4b3d
00000280: 212e c53c 1021 96bd c481 8a3c f933 37bc
00000290: 4b87 3fbd 5f9e 4d3b 7526 933d ffd7 683d
000002a0: 2634 8f3c 830c 62bd ead0 afbc f93a a7bd
000002b0: 24cf 36bd c075 4f3d d86d 30bd 9ee6 673b
000002c0: 360e a0bd 6283 e33c e59f 0abd 4ad4 9f3c
000002d0: b15c 553d 8997 503d c2c0 f2bc 9ebf 6e3c
000002e0: a179 97bc b4b7 b33c d23d a4bd 1abd eabc
000002f0: e5bd 653a b4ec 8abd 95b0 80bc ea93 31bd
00000300: 12bc 883c d43d a6bd 7813 7dbc 49a4 c2bd
00000310: a4ec 85be 8588 0bbe f9c5 1c3e 5213 7f3d
00000320: ba7b 5d3c a202 863d 09ee f63b 9724 56bd
00000330: d64c 343d a96f ecbd 22d5 363c 87bb 11bd
00000340: b987 1fbd b957 a4bd 53f9 33bd 126a d1bd
00000350: 0feb ffbc 9e3f 023e e0f4 dd3d 9fa1 8d3c
00000360: c257 173d a4f3 c7bc 3e9e 413a 8a8b a03b
00000370: ad0f 6c3c 48a6 d3bc 3dfb 203b 90e7 f4bc
00000380: 3864 8bbd dbed 06bd dec6 70bd 4ba4 bfbc
00000390: e86c 013d aee1 c8bd ec3f 29bc d557 4b3d
000003a0: 87a9 88bd c837 363d bafe e03c 18d8 acbd
000003b0: 0e32 863d 86dc 853c 136d 8abd cc98 82bd
000003c0: ab8a dfbc 8e6b b4bd 8055 e73c 70af 78bd
000003d0: d2c7 85bd 4a83 6abd d329 f4ba af1d 28bd
000003e0: 17c9 5abc 7864 803c 4fe8 9bbd 6a31 5b3c
000003f0: 0427 3dbe 9f3c 05be 3721 edbd d3ec 19be
-0.07189181 -0.06570366 0.06273991 -0.08779328 0.0137539 0.030721497 0.009315768 -0.03756484
-0.035735253 -0.038812455 -0.028169936 -0.05096569 0.03953671 0.032154504 0.02270185 0.036996417
-0.09337746 0.058029998 -0.015475759 -0.0021781868 0.05641198 -0.03179139 -0.064778626 0.032226365
-0.072893195 -0.012117499 0.00049442676 -0.04305672 0.050078284 -0.08253046 -0.00997603 0.046569183
0.048112866 0.04551116 0.06440207 0.009942523 0.012816621 -0.0150746675 0.009717181 0.0023699321
-0.046134472 0.029257074 -0.034266416 0.012187094 -0.047163866 -0.01754556 0.013473468 -0.09068672
0.036342766 -0.022763986 -0.0014813391 0.06471558 -0.008037598 -0.061912723 -0.015592985 0.020493032
0.0004940161 -0.025461953 0.03229564 0.03435578 -0.10025073 -0.08499009 0.04610058 0.08408297
-0.032182805 -0.052780204 0.031151857 -0.022997372 0.03816175 -0.068149514 -0.047997903 0.01850513
-0.024437677 -0.028986884 -0.04643517 -0.08592922 0.038023002 0.011257598 0.014994797 0.016667606
-0.006707542 -0.056800414 -0.009317021 -0.04197808 0.0016005489 -0.03407718 -0.09296627 -0.082341366
0.00509265 0.04187546 -0.06257491 -0.0028581053 -0.023039144 -0.014638303 0.0009829896 -0.014838159
-0.013639603 -0.001569449 0.036010444 -0.05847772 0.0193964 -0.014637507 -0.009568359 -0.04870652
-0.040508226 -0.079630226 -0.05468158 -0.038822245 -0.05937952 -0.060381275 0.093878254 -0.03299293
-0.006736661 -0.07116038 0.0017145813 -0.06376856 -0.0029639374 -0.018213082 0.0030654953 -0.051481683
-0.00826213 -0.022538872 -6.35425e-05 0.038004108 -0.080144934 -0.056684725 0.00013053951 0.0033245175
0.040529713 -0.033131257 -0.05507598 -0.055602215 -0.023994874 -0.040607054 -0.0830941 0.039993517
0.03335 -0.0014142129 -0.09773313 -0.11849726 0.04723812 -0.036608744 0.030116417 -0.017714
0.054966684 -0.062971845 -0.09152132 -0.047885828 -0.0475833 -0.07748419 -0.03212583 -0.017965183
0.05335342 -0.034531303 -0.055643376 -0.008600264 -0.07310331 0.016030625 -0.024001706 0.049607806
0.024069848 -0.07330525 0.01690758 -0.011181825 -0.046759885 0.0031374914 0.071850695 0.056846615
0.017480921 -0.055187713 -0.021461923 -0.08165545 -0.04463114 0.050649405 -0.043073505 0.0035385261
-0.078152105 0.02777261 -0.033843894 0.019510407 0.05209035 0.050925765 -0.02963293 0.014572052
-0.018490614 0.021938182 -0.08019604 -0.028654624 0.0008763953 -0.06783429 -0.0157092 -0.043353952
0.016691241 -0.081172615 -0.015446536 -0.09503991 -0.26157105 -0.13626297 0.15309896 0.062274285
0.013518268 0.06543471 0.0075357 -0.05228099 0.04401859 -0.11544735 0.011159213 -0.03557923
-0.038947795 -0.08024544 -0.043938946 -0.102253094 -0.031240014 0.1271958 0.10837722 0.017288981
0.036948927 -0.02440817 0.00073859456 0.004899447 0.014408034 -0.025836125 0.0024563812 -0.029895574
-0.068062246 -0.03294168 -0.058783405 -0.02339377 0.031598 -0.0980867 -0.010330182 0.04964431
-0.0667296 0.04448679 0.027465213 -0.08439654 0.06552516 0.016340505 -0.067590855 -0.063768
-0.027287802 -0.08809577 0.028239012 -0.060714185 -0.06532253 -0.057254113 -0.0018628187 -0.041043933
-0.013353608 0.015672907 -0.07612669 0.01337848 -0.18471915 -0.13011406 -0.11578601 -0.15031748

model.network.1.conv1.bias f4 [64]
00000000: 3569 93bd 1031 bb3d a1a3 5e39 18bd 003d
00000010: 2749 6c3e e2fb 673c 5a9c 053d 83b3 88bd
00000020: a681 ac3c d6fc cfbc dee4 083e cf33 b0bd
00000030: 0b33 debb 5347 93bc 28cc 873c fb6e 7e3b
00000040: 00fe 103d 93e7 9dbd 0e1b 79bd 9b6d f4bc
00000050: db5e a9bc 338f fe3d ceda cbbd 8bcf 5dbe
00000060: 8655 b13c 4441 3bbd 1487 babc c01d a53c
00000070: 2b39 0dbd 7d9f 1a3d be6a 4abd 5012 623d
00000080: 4af3 023d 3476 7abd d5a3 393e d20e 7e3d
00000090: dbdc b6bd 0a11 a5bd 6010 05bd 44cc 4dbd
000000a0: 9289 a53c fd6b 183d 6cc9 1fbd a07c a13c
000000b0: ecc1 27bd b187 58bd 3ee1 353b d80e acbd
000000c0: a56d 353b 45eb b03d a52c 123e fc78 45bc
000000d0: 3c65 a73c 6ee5 d73c b98c 84bd 1c92 903d
000000e0: eafe 4fbc 1861 51be 52dd a4bd 3def 6c3d
000000f0: 4305 2d3e 5f1e 31bd 8e63 04bd f8e1 cfbd
-0.07197801 0.09140217 0.00021232526 0.031430334 0.2307478 0.014159175 0.03261981 -0.06674864
0.021057915 -0.025389116 0.13368556 -0.08603632 -0.006780987 -0.017978346 0.016576841 0.0038823474
0.035398483 -0.07710185 -0.060816817 -0.02983742 -0.020675113 0.12429657 -0.09953843 -0.21661203
0.021647226 -0.04571654 -0.022769488 0.020155787 -0.034478348 0.037749756 -0.049418204 0.055193245
0.0319703 -0.061147884 0.18128903 0.062025853 -0.089288436 -0.080598906 -0.03248632 -0.05024363
0.0202072 0.03721236 -0.03901045 0.019712746 -0.040956423 -0.05286378 0.0027752663 -0.08401269
0.0027683761 0.08638624 0.14274843 -0.012052771 0.020434014 0.026354518 -0.06472153 0.07059118
-0.012695054 -0.20447195 -0.08050026 0.057845343 0.16896538 -0.043241855 -0.032321505 -0.10150522

model.network.1.conv2.weight f4 [64, 64, 3]
00000000: ad9c 533c 84d9 8cbb 8214 3b3c aa6d 5abd
00000010: 069f ee3c 20e1 fe3c bd9b 52bd 794c c53c
00000020: 14fd 203d 516a 58bb dacb 94bd 84e6 bbbd
00000030: 563f 9bbc 35b0 87bd 2992 b6bb 4a2a a0bc
00000040: ec77 983c a1bb a8bd 425a bf3c 8f66 a73c
00000050: 3113 23bd 1bea 0a3d afa6 ccbc 2b1f 75bd
00000060: 49a2 0abd a4bd a93b 507a 943d e1a8 65bd
00000070: f86e 3abc b8ad 183d 6640 86bd 72ed 303d
00000080: 32d7 86bc 2889 c7bc c0c8 f73c 8c33 17bc
00000090: a02c de3c 3ba3 acbd 7db2 2abb 7299 5e3d
000000a0: 5f29 013d a5a2 aabd 8f1c f7bb 1421 e93a
000000b0: 49ee 6fbd 1e8a a1bc 1886 27bc fd2b 3b3d
000000c0: b4d4 75bc 32bb 803d d643 7a3d a3fe 693c
000000d0: 985f d0bc c716 c13b 81b2 1a3d f068 74bd
000000e0: 93ef 503c ba3c 02ba 6999 b23c 3a33 f43c
000000f0: 65c5 43bd 96d6 8dbb f63a 8cbd 6128 3abd
00000100: b6bd b63b af04 86bd a84b 7c3d a704 a03c
00000110: e70c 4b3d ea2e 3b3c 205d 66bd c226 55bd
00000120: 8f0f aebc 9b81 abbd 6789 3f3d 2c5f e1bb
00000130: 5c34 893d 643f eebc 3a60 a4bd 096d 44bc
00000140: 639a 5c3d 10f0 a83c 98bc 0fbb 6dc9 98bd
00000150: eb8a 3fbd 34cc 86bb 4d1a 95bc d0fb 91bc
00000160: ea2e 8bbd 434a cdbb 1d88 4cbc 3a78 70bd
00000170: ca07 993d b926 0c3d fb0c a8bc 19f7 063c
00000180: 64de 8dbd 1c96 a1bd 01ff 9ebb 7701 883d
00000190: 880c d9bb 6288 2ebd 6c63 1d3d dd09 0cbd
000001a0: bf08 cebb fc92 3a3d c179 313d 53b4 2fbc
000001b0: 07c3 643d 5d7b 203d ebae 88bd 497e 04bd
000001c0: 60d7 663c 4f5f cb3c 6e4e a23c 03ae 88bd
000001d0: 29c8 9cbd dec7 4a3d 06a2 1dbd e032 50bc
000001e0: 0bbd 84bd 9dad e23b 0e6d 57bd 2d4d f53b
000001f0: c7ba c7ba 7351 83bd 903b 88bc 5ab9 153d
00000200: 5b87 c73c b99e a5bd e54f 7d3d 237c 77bc
00000210: db3e 14bc 1e1a 1f3a a8c8 2cba c45e ce3c
00000220: 7aac 4a3c 3431 db3a 3938 613d 1754 d1bc
00000230: d246 a43c 5944 103d 0d3e d4bc cbba 00bd
00000240: 02f8 833d 54b8 39bd 5472 6dbd caf2 e8bc
00000250: bce7 f6bc 54cd a7bb b137 cbbc 4a6c cabd
00000260: 912d 133d 9141 abbc d48c 80bc f8e6 413b
00000270: 34c4 87bd 95c2 37bd 447f 59bb 9d47 02bd
00000280: 1f06 9d3c af9a ab3c bdc7 703d b488 123d
00000290: 7c8c 9bbd 3607 9fbc 7c20 da3b b119 a7bc
000002a0: f687 363b 1da0 b2bb 53ab 853d ff03 b2bd
000002b0: cf4a 9abd 266d 96bd dde0 7f3d 2c67 9ebc
000002c0: 6d7e 6fbc e3c0 77bc e21c 38ba 1bf8 e3bb
000002d0: 7335 0ebd c438 b4bc 5f6d 983b 8e8f 78bb
000002e0: 68bd 97bd 2d29 bbbc 8b10 7e3d e932 06bd
000002f0: 8f76 87bd 0f29 fcbc 2cea 263d ac75 b53d
00000300: bf72 d73c b709 71bd 8d1c 88bd e824 263c
00000310: dd96 03be b1d7 0fbd 5ba8 a33c 9ea5 2abd
00000320: 5059 a8bc 65f0 9cbc da7c 9bbd a651 403e
00000330: 4e4b 463d 5798 653d a215 b33d 605d 16bc
00000340: d867 343d af86 84bd 3065 79bc 582d 36bd
00000350: fe15 d33c 2769 483c b0e7 92bd ede2 53bd
00000360: e158 2dbd f2c6 58b7 5d90 60bd c503 a6bd
00000370: 763f cfbd b6c8 8abb ae59 973d 640d 0c3e
00000380: e3c5 f4bc d026 99bd 3a3e 8e3c c80a 81bd
00000390: 5011 99bb fa09 cbbc 4f1c 2839 047b 8f3d
000003a0: 053d 183c 9f12 a3b9 8b8d 05bc 91ab d73c
000003b0: a12b 4fbd 7adf c2bc 4915 033d 4758 41bd
000003c0: a60e 08bd 8096 98bd c88a d43c 3915 673d
000003d0: a0eb 5fbd cdf1 6a3d 59d1 04bd 9ebe e7bc
000003e0: 036b 46bd af1a 12bd f051 3b3c 65b2 183d
000003f0: e51c 213d 97f2 2abd 6646 a8bc 14b1 fcbc
0.012915772 -0.004298391 0.011418464 -0.05332724 0.029128563 0.031113207 -0.051418055 0.024084317
0.039303854 -0.0033022354 -0.07265444 -0.09174827 -0.0189511 -0.06625406 -0.005571623 -0.019551415
0.01861187 -0.082389124 0.023358468 0.020434646 -0.039813224 0.033914667 -0.024981825 -0.059844177
-0.033846173 0.0051800776 0.07249892 -0.05606926 -0.011378996 0.037275046 -0.06555252 0.043195195
-0.016460035 -0.024357393 0.030247092 -0.009228598 0.027120888 -0.08429571 -0.0026046329 0.054345556
0.031533595 -0.08331803 -0.0075412462 0.0017786347 -0.058576856 -0.01971918 -0.010224842 0.045696247
-0.015004326 0.06285705 0.06109985 0.0142819015 -0.025436208 0.005892608 0.03776789 -0.05967039
0.012752431 -0.00049681554 0.021801667 0.029809583 -0.047795672 -0.004328559 -0.068471834 -0.045448665
0.0055768145 -0.06543862 0.06159559 0.019533468 0.04957285 0.011424759 -0.056241155 -0.052038915
-0.021247653 -0.0837433 0.046761896 -0.0068778004 0.0669944 -0.029082961 -0.08026166 -0.011988887
0.053858172 0.020622283 -0.002193248 -0.07460294 -0.046763342 -0.0041136984 -0.018201018 -0.017820269
-0.067960575 -0.006264956 -0.012483624 -0.058708407 0.07472189 0.034216616 -0.020514002 0.008237624
-0.06927183 -0.07889959 -0.004852176 0.066409044 -0.0066238083 -0.042610534 0.038424894 -0.034189094
-0.0062876637 0.04555033 0.043329004 -0.010724145 0.055850055 0.03918015 -0.06673988 -0.032346997
0.014089435 0.02482572 0.019812789 -0.06673815 -0.07655365 0.049507014 -0.038484596 -0.012707442
-0.064813696 0.006917669 -0.052594237 0.0074860067 -0.0015238159 -0.064120196 -0.016629964 0.03655372
0.024356535 -0.080869146 0.06184377 -0.01510528 -0.009048189 0.00060692604 -0.00065911794 0.025191672
0.012370223 0.0016723038 0.05498526 -0.025552792 0.020053301 0.03522143 -0.025908494 -0.03142814
0.06443788 -0.045341805 -0.05797036 -0.028436083 -0.030139796 -0.0051209126 -0.02480683 -0.09883936
0.035932127 -0.020905288 -0.015692152 0.002958713 -0.0662922 -0.044863302 -0.0033187428 -0.031806577
0.019167958 0.020947782 0.058784235 0.0357749 -0.07595155 -0.019412618 0.0066567045 -0.020397993
0.0027852035 -0.005451216 0.06526818 -0.086921684 -0.075338 -0.07345037 0.062470306 -0.019336306
-0.014617545 -0.015121671 -0.0007023347 -0.0069570667 -0.034718942 -0.021999724 0.00465171 -0.0037927362
-0.07409173 -0.022846783 0.062027495 -0.032763395 -0.0661441 -0.030781297 0.040750667 0.08860335
0.026299832 -0.058847155 -0.06646071 0.010140635 -0.12850519 -0.03511781 0.01997774 -0.04166185
-0.0205504 -0.019157598 -0.07592173 0.18781146 0.04841166 0.056053486 0.087443605 -0.009177536
0.044044346 -0.06471001 -0.015221879 -0.044476837 0.025767323 0.0122321015 -0.07173097 -0.051730085
-0.04232109 -1.2920924e-05 -0.054825176 -0.08106188 -0.10119526 -0.0042353524 0.07390152 0.13676983
-0.029879516 -0.07478106 0.017363656 -0.063008845 -0.0046712533 -0.02478503 0.00016032274 0.07005885
0.009291892 -0.00031103657 -0.008151422 0.026326926 -0.050578717 -0.023788203 0.03200272 -0.04720333
-0.033217095 -0.074505806 0.025945082 0.056416724 -0.05466807 0.057359505 -0.032426212 -0.028289136
-0.048441898 -0.03566998 0.01143311 0.037279505 0.039334197 -0.041735258 -0.020541381 -0.030846156

model.network.1.conv2.bias f4 [64]
00000000: f729 b7bd 6baa a13c 1582 b4bd 3d91 1c3e
00000010: 8bb1 f43c ca14 50bc 9a12 67bd 0304 833d
00000020: 7262 d3bc 5c05 ff3d 90cb b6bd 123a 8b3d
00000030: 6acf 583d ca61 07be ba74 8ebd 0913 15bd
00000040: 49e7 073d 0c09 1ebe 7e81 523d d41d f8bc
00000050: 7749 e53b a350 34bd 1a17 f23d 8d98 5b3d
00000060: c601 f73d b484 c4bc e3d6 0a3e c530 b53c
00000070: 12b0 adbc 3c7a 87bd 46ff 61bd 6a97 d53d
00000080: 4411 e63b 4084 373e 2229 0a3c d812 82bd
00000090: 81b9 69bc 11e1 91bd e874 073e b838 89bd
000000a0: 975d d93d c34b 783c e0ef 9dbc 9573 f0bd
000000b0: 3240 02be 5dbc d33c 5230 5fbd 3dec 523c
000000c0: d8b7 bcbd 1719 7cbd abe2 db3c f65e 34bd
000000d0: 4409 d6bd 68c9 ddbd 5a48 aebd 70bf 91bd
000000e0: 3954 9abd 441e 043e 2e9f b73d d78a 533d
000000f0: f2c5 f83c 7c4a c2bd 1bd4 c4bd 2d8e acbd
-0.08943551 0.019734582 -0.08813874 0.15289779 0.029869815 -0.012700269 -0.056414224 0.063972495
-0.025803778 0.12452194 -0.08925545 0.067981854 0.05293218 -0.13220897 -0.069558576 -0.036395106
0.033179555 -0.15433139 0.051393025 -0.03028766 0.006997283 -0.044022214 0.118208125 0.05361228
0.12060885 -0.023989059 0.13558535 0.022117982 -0.02120212 -0.06615111 -0.05517509 0.104292706
0.007021101 0.17921543 0.008432658 -0.063512504 -0.014265419 -0.07123006 0.1322819 -0.06700271
0.10613554 0.015154782 -0.01927942 -0.117407955 -0.12719801 0.025846655 -0.05448944 0.012873706
-0.09214753 -0.061547365 0.026841482 -0.044035874 -0.10450986 -0.10829431 -0.08509894 -0.07116592
-0.075355954 0.1290217 0.08965908 0.05164608 0.030367825 -0.09486863 -0.096107684 -0.084255554

model.network.2.conv1.weight f4 [64, 64, 3]
00000000: b1a2 10bc 2c9c ff3b 787d 1b3c 4e2a 92bd
00000010: 87cc 573d 6712 e2bc 2fbc 90bd 3d2b c2bc
00000020: d7f4 90bc ab42 cbbc 2b6c 0b3d 17a6 a63c
00000030: 486d 2c3d 3425 893d fc41 0dbd 24e2 4fbd
00000040: 8135 983d 6626 e0bd d740 19bc 45d0 94bd
00000050: d1fd 62bd 9999 903b 2f6a 203d 16d6 b2bd
00000060: dc9e 1d3d f8c3 033d 1be1 48bd 2327 80bd
00000070: bf24 7138 f8b1 3a3d 804d a7bd 19b5 8dbd
00000080: b377 a7bd e9ea 523d 65eb c2bc 20df 91bb
00000090: dec7 29bd 57da b7bc 2b11 9d3d f78c 09bd
000000a0: 8351 fc3c 23ed 2dbd 65b1 01bd 8b68 693d
000000b0: 306d 91bd 6efb 6dbd 84d5 16bd f7cf 0f3e
000000c0: e058 88ba aefb d13a da6a 92bd 844b 673c
000000d0: 955d e43b 0a56 423d a796 d6bb 22f6 09bd
000000e0: 2b3c 503c e635 eabc 5110 0ebd 07ca 8dbd
000000f0: e134 04bd 2372 e13c a8d3 2c3c 90f2 51bc
00000100: 0048 c2bd bd2c 043c 0b24 a4bd fc48 083d
00000110: 0e3e 333d 580f 123c b028 5bbd a97a a1bd
00000120: 3d73 c539 c3f6 103d cc8f 283d c822 1cbd
00000130: 30bb 72bc 2fe8 edbd 9212 003d 6e60 82bc
00000140: ec94 c53c 7624 b8bd 319e 853c a76d 1fbd
00000150: 5033 66bc ede5 253d ef5d 4e3c d710 acbd
00000160: 0b04 e5bc fd96 3abd 5ab2 04bd a55f 29bd
00000170: 9a12 e53c 9013 03be c431 ddbd 5a54 a1bc
00000180: e631 093c 339c 71bd c140 74bd e783 6cbd
00000190: d648 523d cae4 82bd ab5b 63bd 08f5 23bc
000001a0: 25da 78bd 15c8 23bd 738f b33d d2c2 9dbc
000001b0: aeb9 0fbc 107d 423c 8dd9 873c e8d8 0c3d
000001c0: d505 713d cf4a 77bd 863b c53c 446d 0abd
000001d0: 0c7d 01bd 6d85 44bd 68a0 a9bd 34cc 3ebd
000001e0: cb33 8abc 264f 863d 1f9b 443c aa76 8ebd
000001f0: db6d 443d 57ba aebd 4122 4fbd 41c2 003d
00000200: e38d 983d 7d9a edbc eb2f 153d b70f 653d
00000210: caf7 9ebb 7a2a de3b ee96 9bbd b871 44bd
00000220: c25f 3fbb d23b 81bc 9b8a 34bc 739b 933d
00000230: 49bc c9bd cd01 30bd 0277 aebb 5687 e8bd
00000240: 4054 6abd e5ae babc 327b 423c 326b a8bd
00000250: 8154 91bc 9e94 82bd 3391 123d 4be3 2d3d
00000260: 822c 89bd 977e 623d 349e 68bc ac7f bdbc
00000270: 45a7 e23c eded 0abd 4ad6 8f3d a667 3abd
00000280: cf56 293c a45f 8ebd 397c 6cbd 7215 36ba
00000290: cc3c d33c 0098 dd3c 7efc e0bc 0afb e9bb
000002a0: 4c1c c8bd 2de6 a93d 1297 14bb 8631 e7bd
000002b0: 3936 f9bc a2e4 5f3c 57ad 41bc 9e25 aa3d
000002c0: 5c6f 80bd 4b5c 273d 9ac3 13bd 9b9e fe3c
000002d0: f88e fe3c 6761 d23d feab cbbd 041f 9dbd
000002e0: 1205 693d b84b 643b 3008 72bd 655f 8e3d
000002f0: 50b7 b33b 778c 503c 5a19 0c3e f278 f73b
00000300: bc0c 2b3b 5754 a9bd ba36 0cbc 800b 76bd
00000310: ddf0 683d 0c1a 5cbd 1d29 6cbd 3fc2 f3bd
00000320: 2a53 d3bc 48a6 b23c cb58 62bd 3f03 413d
00000330: 4928 69bc 1107 8bbd 60d5 323d 5059 463d
00000340: b116 6dbc cfb5 1dbd 8822 633d 5e27 59bb
00000350: e7c4 88bc 3b24 823d 216c 103c 8fc9 5bbb
00000360: 4abb babd 27bd dbbd b431 74bc 89fa babd
00000370: cebe 0bbd c01d d3bc 653d 4c3d 3fae 55bd
00000380: f189 d0bb 8cc9 db3c 7032 343d 5a08 34bb
00000390: d2dc fe3c 04e4 a8bd f645 3d3d 5622 4e3d
000003a0: 6ad4 56bd 4f40 34bb 136a 183d 4a9f f4bc
000003b0: 4dda 06bd a802 0ebc 8b7c 3ebc d5d7 dfbd
000003c0: 4d18 9c3c 7127 70bc d0fe e43c 52ce 6fbd
000003d0: 68ca c6bc 454f ac3c ca4d 963b e47b 81bd
000003e0: f39b 423c 026c ff3b f76c 90bd ee93 48bd
000003f0: feb3 8fba 510c 37bd 35cf d2bc 8d98 893b
-0.008827851 0.0078005996 0.009490363 -0.07136975 0.052685287 -0.027596666 -0.07067143 -0.023702258
-0.017694874 -0.024812063 0.034038704 0.02034287 0.042096406 0.06696549 -0.034486756 -0.050752774
0.0743208 -0.10944824 -0.009353838 -0.07266287 -0.05541784 0.0044128415 0.039163765 -0.0873224
0.03848158 0.032169312 -0.049042802 -0.06257465 5.74931e-05 0.04557988 -0.08169079 -0.06919307
-0.08177128 0.05149356 -0.023793885 -0.0044516474 -0.041450374 -0.02244298 0.0766929 -0.0335817
0.030800587 -0.04246248 -0.031663317 0.056984466 -0.07100904 -0.05810111 -0.036824718 0.14044176
-0.0010402463 0.0016020441 -0.071492866 0.014117125 0.0069691637 0.047445334 -0.006548721 -0.033681996
0.012709658 -0.028590154 -0.03468353 -0.06923299 -0.03227699 0.027520245 0.01054851 -0.012814179
-0.09486389 0.008067307 -0.08014687 0.03327273 0.04376035 0.008914791 -0.0535056 -0.07884724
0.00037660627 0.03539158 0.04115276 -0.038119107 -0.014815137 -0.11616551 0.03126771 -0.015915122
0.024118863 -0.08991329 0.016310783 -0.038922932 -0.01405032 0.040502477 0.012595638 -0.084016494
-0.02795603 -0.04555415 -0.03239665 -0.04135098 0.027962971 -0.12800431 -0.10800508 -0.019693542
0.008373713 -0.058986854 -0.059632067 -0.05774298 0.051338993 -0.06391294 -0.055507343 -0.0100071505
-0.060754914 -0.039985735 0.08767595 -0.019257937 -0.008772297 0.011870638 0.016583228 0.034386545
0.058843452 -0.060374077 0.024076235 -0.03379561 -0.031613395 -0.047978807 -0.08282548 -0.046581462
-0.0168704 0.06558065 0.011999874 -0.06956227 0.04795633 -0.08531635 -0.050569776 0.031435255
0.07448938 -0.02900433 0.03642265 0.05592319 -0.004851316 0.006779966 -0.07597147 -0.047960013
-0.0029201363 -0.015775595 -0.011019374 0.07207384 -0.09850366 -0.042970467 -0.0053242454 -0.11353938
-0.057209253 -0.022788474 0.011870192 -0.08223571 -0.01774049 -0.06376003 0.035783004 0.04245309
-0.06697942 0.055296507 -0.014197875 -0.023132168 0.027667651 -0.03391831 0.07023294 -0.045509003
0.010335638 -0.06951836 -0.057735655 -0.00069459446 0.025785826 0.027050018 -0.027464148 -0.007140522
-0.09771022 0.08295856 -0.0022673053 -0.11288743 -0.030421363 0.01366535 -0.011821113 0.08307956
-0.0627124 0.0408595 -0.036075212 0.031081488 0.031074032 0.10272484 -0.09944914 -0.076719314
0.0568896 0.003483517 -0.05908984 0.06951789 0.005484499 0.012728802 0.13681546 0.0075522596
0.002610012 -0.0826804 -0.00855797 -0.06006956 0.05687033 -0.053735778 -0.057656396 -0.11902284
-0.025796492 0.021807805 -0.05526046 0.047122236 -0.014230796 -0.06788457 0.04366052 0.04842502
-0.014470742 -0.038503464 0.055452853 -0.0033135037 -0.016695453 0.06354567 0.008814842 -0.0033536886
-0.09117754 -0.10729437 -0.014904428 -0.09129817 -0.034117512 -0.025771022 0.049863238 -0.052168127
-0.0063641 0.026829503 0.043993413 -0.0027470798 0.031111155 -0.082466155 0.046209298 0.050325714
-0.052448668 -0.0027504151 0.037210535 -0.029861111 -0.03292303 -0.0086676255 -0.011626373 -0.109298386
0.019054556 -0.014657841 0.027953535 -0.05854637 -0.024266437 0.021033892 0.00458691 -0.063224584
0.0118780015 0.007794858 -0.070520334 -0.0489692 -0.0010963676 -0.04468948 -0.02573357 0.0041990937

model.network.2.conv1.bias f4 [64]
00000000: 07d0 1bbd d1db a53c c261 58bd 12c4 9abd
00000010: ec29 093d d8d7 9b3c 1862 633e 14ba 283d
00000020: 050b f839 a4e5 6a3d 2592 9cbd d5c0 e43d
00000030: a8f3 143e 3ef1 4f3d ac3f 67be 6ae1 113e
00000040: da0d fdbb ac01 43bd 78b7 1f3e 67fd acbc
00000050: 37f3 43bd 747d c0bd 6cc1 bfba 8054 a4bd
00000060: be46 bcbd 84d6 9dbc 27d5 bcbd ea94 67bd
00000070: 6c40 a83d 24f2 debc 390d f0bb 8a5d 87bc
00000080: d49f acbc 8afd a2bd 13b4 dd3c c74f acbc
00000090: 9cb6 8cbc b173 21bc 4b34 b5bd 372c dfbc
000000a0: d1ca 2e3c 6d48 45bd 866b db3d 5c07 dc3d
000000b0: ec9b e9bd bbb5 19bd 4969 17bd 538b 06bd
000000c0: 6e7f 81bd 402c e8bc 067a 8b3d 3986 99bd
000000d0: ea23 16be 68f2 7fbc f0c4 acbd c500 88bd
000000e0: 0a80 1e3d b546 fcbd b25d 85bc 6234 a3bd
000000f0: 804a 69bd d6c6 68bc f59c 723c d09e 45bd
-0.038040187 0.020246418 -0.052827604 -0.07556929 0.033487245 0.01902382 0.22205389 0.041193083
0.00047310456 0.05734791 -0.07645062 0.11169592 0.14546072 0.050767176 -0.22582883 0.14246145
-0.0077225985 -0.047609016 0.15597332 -0.021116925 -0.04783937 -0.09398928 -0.0014629788 -0.080239296
-0.091931805 -0.019267328 -0.09220343 -0.0565385 0.082154125 -0.027215071 -0.007325795 -0.016524095
-0.021072306 -0.07958515 0.027063405 -0.021034135 -0.017176919 -0.009854243 -0.08847865 -0.027242763
0.010668472 -0.048164774 0.10713868 0.10743591 -0.11406693 -0.037526827 -0.036965642 -0.032847714
-0.063231334 -0.028341413 0.068103835 -0.07496304 -0.14662138 -0.015621759 -0.08436 -0.06640772
0.038696326 -0.12318174 -0.016280029 -0.079689756 -0.056955814 -0.014207562 0.014807929 -0.04824716
