Task1/lightning_logs/version_3/checkpoints/epoch=2-step=52491.ckpt (torch, 168147 bytes, 45 tensors)

model.network.0.conv1.weight f4 [25, 27, 3]
0	0xbe098e62	-0.13433221
1	0xbd061dfe	-0.032743447
2	0x3c6dc438	0.014512114
3	0xbe433dc3	-0.19066529
4	0xbe6c2191	-0.2305968
5	0x3e365d62	0.1780906
6	0xbe213752	-0.1574376
7	0xbe749363	-0.23884349
8	0x3decf3c7	0.11569934
9	0xbdcb40a4	-0.099244386
10	0xbe5d8223	-0.21631674
11	0x3dfe1004	0.124053985
12	0xbe443f37	-0.1916474
13	0xbe80dc88	-0.25168252
14	0x3db79417	0.08963793
15	0xbe726044	-0.23669535
16	0xbe218c2b	-0.15776126
17	0x3d039d25	0.032132287
18	0xbdabd326	-0.08389883
19	0xbe761a78	-0.24033535
20	0x3e81ff4a	0.25390083
21	0x3ccb3979	0.024807679
22	0x3df46236	0.11932795
23	0x3c507170	0.012722358
24	0xbe119980	-0.14218712
25	0x3d712eb4	0.05888243
26	0x3deeafec	0.11654648
27	0x3d984cb0	0.07436502
28	0x3de01f01	0.109434135
29	0x3dee8583	0.11646559
30	0xbcc036f0	-0.023463696
31	0x3e1d0c96	0.15336832
32	0xbdc87365	-0.09787635
33	0xbe1de731	-0.15420224
34	0xbd5e6257	-0.054293003
35	0x3c898f14	0.016791858
36	0xbdc610f5	-0.09671203
37	0xbe634854	-0.2219556
38	0x3e1ea4fb	0.15492623
39	0xbcb2bd98	-0.021818921
40	0x3c5f0f35	0.0136144655
41	0xbd8571ff	-0.06515884
42	0x3dd4dba8	0.103934586
43	0x3de2bdfe	0.110713944
44	0x3e3d4640	0.1848383
45	0x3ea976f0	0.33098555
46	0x3ea67360	0.325099
47	0x3eea8513	0.45804653
48	0xbe36e24d	-0.17859764
49	0xbe840050	-0.25781488
50	0x3dc4e5f4	0.096141726
51	0xbdb249e7	-0.08705502
52	0x3de67edc	0.11254665
53	0xbe26865b	-0.1626219
54	0x3bd0cb03	0.006371857
55	0x3e3cc1dd	0.18433328
56	0xbd9c3774	-0.07627764
57	0xbe85702e	-0.2606215
58	0xbe9a7655	-0.30168405
59	0xbedb87d3	-0.42877063
60	0xbdced85e	-0.100998625
61	0x3dbd631c	0.09247419
62	0x3d103601	0.035207752
63	0xbd91d8e7	-0.07121449
64	0xbde1a9b1	-0.11018694
65	0x3cc9a13b	0.024613013
66	0xbed4e51e	-0.41581053
67	0xbedbd6ef	-0.4293742
68	0xbf08e469	-0.53473526
69	0xbde303a4	-0.11084679
70	0x3d6ae542	0.057347544
71	0xbd4abe95	-0.04949816
72	0xbde74571	-0.11292542
73	0xbc9b1326	-0.01893003
74	0xbe699080	-0.22809029
75	0x3e671367	0.22565995
76	0x3dcef806	0.101059005
77	0x3df60291	0.12012208
78	0xbc556c03	-0.01302624
79	0x3e024a65	0.12723692
80	0x3d44c02d	0.048034836
81	0xbe039f90	-0.12853837
82	0xbd2329fc	-0.03983496
83	0xbe8bf35c	-0.27334106
84	0xbdf417b3	-0.11918583
85	0xbe07fdd5	-0.13280423
86	0xbed38719	-0.4131401
87	0xbcd7c009	-0.026336687
88	0xbbc39841	-0.005969078
89	0xbe842e0e	-0.25816387
90	0xbbd90bae	-0.006623707
91	0xbd888164	-0.06665304
92	0xbecc7e3b	-0.39940056
93	0xbf016af6	-0.50553834
94	0xbeaebe97	-0.34129784
95	0xbee4e29f	-0.44704148
96	0xbc480346	-0.012207812
97	0x3ce6a4f3	0.028154826
98	0xbd7e67d2	-0.06211073
99	0xbd2ee4ab	-0.042698544
100	0xbd804b16	-0.062643215
101	0xbe9e12b7	-0.30873653
102	0x3d954c7f	0.07289981
103	0x3d4aa245	0.04947116
104	0x3d97033b	0.07373663
105	0x3df2150e	0.11820422
106	0x3c214e88	0.009845383
107	0x3dc02335	0.09381715
108	0xbd8bf310	-0.0683347
109	0x3df26439	0.11835522
110	0x3ce4d2dc	0.027932577
111	0x3d9ae62c	0.07563433
112	0x3de3a560	0.11115527
113	0xb9d0d99e	-0.0003983499
114	0x3cfb1930	0.030651659
115	0xbd8290c0	-0.06375265
116	0xbeb66e0d	-0.35630837
117	0xbde27e72	-0.11059274
118	0xbda87058	-0.08224553
119	0xbec4c032	-0.38427883
120	0xbd91bfdd	-0.07116673
121	0xbda43f19	-0.080198474
122	0xbe5e92f6	-0.21735749
123	0x3dccafa2	0.09994437
124	0x3dde7dc0	0.10863829
125	0xbe1d1d54	-0.15343219
126	0xbe3c20bf	-0.18371867
127	0xbe69e075	-0.2283953
128	0xbe9d9ded	-0.3078455
129	0xbe0393e1	-0.1284938
130	0x3d07b88b	0.03313498
131	0xbcbec38c	-0.023286603
132	0xbed0eb09	-0.40804318
133	0xbebe2502	-0.3713761
134	0xbf2590f8	-0.6467433
135	0xbd3d07f5	-0.046150167
136	0xbe846d62	-0.25864702
137	0xbee4c0a2	-0.44678217
138	0x3d4b02b9	0.049563143
139	0xbe1242a1	-0.1428323
140	0xbeb4fb48	-0.35347962
141	0xbeb91342	-0.36147505
142	0xbed3f051	-0.41394284
143	0xbf39b3f5	-0.7254022
144	0x3de07e3d	0.10961578
145	0x3d1b6778	0.037940472
146	0xbea6d007	-0.32580587
147	0xbdef9ae9	-0.11699469
148	0xbd9e26ea	-0.07722266
149	0xbe2e4d08	-0.17021573
150	0x3d487d0e	0.048947386
151	0x3c169c38	0.009192519
152	0x3da52ad7	0.08064812
153	0xbe3a2226	-0.18177089
154	0xbd8ce6fc	-0.06879994
155	0xbdc5a384	-0.09650329
156	0x3d6ece20	0.058302045
157	0x3b3b785a	0.002860567
158	0xbc32cea4	-0.010913525
159	0x3e184849	0.14871325
160	0x3d3f04d1	0.046635453
161	0x3ddcd674	0.10783091
162	0xbd8ba8ee	-0.0681933
163	0x3c76c0c7	0.01506061
164	0xbe429f1d	-0.1900601
165	0x3cbd143e	0.023080941
166	0x3d2dbbc1	0.042415384
167	0xbe5005f2	-0.20314768
168	0xbe132720	-0.14370394
169	0x3ca0e5d5	0.019640842
170	0xbdcaf727	-0.09910422
171	0x3dc6e1a0	0.09711003
172	0x3e2733fc	0.16328424
173	0xbdb79510	-0.08963978
174	0xbc89cef6	-0.01682232
175	0x3d0f48e5	0.034981627
176	0xbd9d4265	-0.076786794
177	0xbe81a747	-0.25322935
178	0xbd3c5152	-0.04597599
179	0xbea34e3f	-0.31895635
180	0xbbbea33c	-0.005817799
181	0x3d6f02fb	0.05835245
182	0xbd9afdf1	-0.07567967
183	0x3d9b6908	0.075883925
184	0xbd536575	-0.05161043
185	0xbd2a2a6a	-0.041544355
186	0xbd028ff0	-0.03187555
187	0xbdbe686d	-0.092972614
188	0x3e13ea05	0.1444474
189	0x3b686eb4	0.0035466375
190	0x3d56443b	0.052311163
191	0x3c827713	0.01592592
192	0x3cd82bc0	0.02638805
193	0x3e5fd1ed	0.21857424
194	0x3d63a1a0	0.05557406
195	0xbd949666	-0.07255249
196	0x3dc10a58	0.09425801
197	0xbde97911	-0.11400045
198	0xbd2499ff	-0.040185925
199	0x3d50f0e9	0.051011
200	0xbd1cb80d	-0.038261462
201	0xbe176f4e	-0.14788553
202	0xbda05848	-0.07829338
203	0xbd2fdc04	-0.042934433
204	0xbdc3eb9d	-0.09566424
205	0xbd0c663d	-0.03427719
206	0xbdedd481	-0.116127975
207	0xbe6c36ca	-0.23067775
208	0xbc812adf	-0.015767513
209	0xbde94aeb	-0.113912426
210	0xbe23cab6	-0.15995297
211	0xbd6c8da7	-0.057752278
212	0xbe927cc0	-0.28610802
213	0xbe3c36f9	-0.18380345
214	0xbe4ca794	-0.19985801
215	0xbdb5b465	-0.08872298
216	0xbcee0137	-0.029053314
217	0xbd20b0ea	-0.03923122
218	0xbe290086	-0.16504106
219	0xbd2e8cfa	-0.042614914
220	0xbe43a384	-0.19105345
221	0xbe44a316	-0.19202837
222	0x3d290d6c	0.041272566
223	0x3d9f9cca	0.07793577
224	0xbe0837a3	-0.13302474
225	0xbe29b8e2	-0.16574433
226	0x3dab1523	0.08353641
227	0xbee4526d	-0.44594136
228	0xbca49c80	-0.020094156
229	0x3d4f15f2	0.050558038
230	0xbe34304b	-0.17596547
231	0x3d46db0e	0.04854875
232	0xbc57bb70	-0.013167247
233	0x3dd2b613	0.10288634
234	0xbde8034c	-0.11328754
235	0xbdca1977	-0.09868138
236	0x3d51e3c8	0.05124262
237	0xbe076af3	-0.13224392
238	0x3d538e27	0.05164924
239	0x3d373ec3	0.04473759
240	0x3dd42ee6	0.10360508
241	0x3ddfecef	0.10933863
242	0x3abac265	0.0014248608
243	0xbd6d7215	-0.057970125
244	0xbdc79012	-0.09744276
245	0x3e7b7a2d	0.24558325
246	0xbe7c7b22	-0.24656346
247	0xbe0a2a09	-0.13492598
248	0x3e5eac35	0.2174538
249	0xbe0120aa	-0.12610117
250	0x3dbcaf98	0.09213179
251	0x3e339849	0.17538561
252	0xbe08b70a	-0.13351074
253	0xbd0328bd	-0.032021273
254	0x3e1f7b55	0.15574391
255	0xbeff98cd	-0.49921265

model.network.0.conv1.bias f4 [25]
0	0xbcff27b2	-0.031146858
1	0xbe84f156	-0.25965375
2	0xbe7b3cbb	-0.24534886
3	0x3e10de72	0.14147356
4	0x3e370fe2	0.17877153
5	0x3dc3bec1	0.09557868
6	0xbe1fafe5	-0.15594442
7	0xbd2f0d6e	-0.042737417
8	0xbe3638fb	-0.17795174
9	0x3e996d72	0.29966313
10	0xbe6074c9	-0.2191955
11	0xbe1f2199	-0.1554016
12	0xbe5c74da	-0.2152895
13	0x3e94bb1c	0.29049003
14	0xbdbfc4f3	-0.09363737
15	0xbe8a1856	-0.26971692
16	0xbe87624d	-0.26442185
17	0xbf05d903	-0.5228426
18	0x3d77c582	0.060491093
19	0xbe7cfced	-0.24705859
20	0xbe62b3ab	-0.2213885
21	0xbe9279ab	-0.2860845
22	0x3e8617d6	0.2619006
23	0xbea8d224	-0.32972825
24	0xbea5202f	-0.32251117

model.network.0.conv2.weight f4 [25, 25, 3]
0	0x3da61cac	0.081109375
1	0x3e064563	0.13112406
2	0x3ddcb2d7	0.107762985
3	0xbdfbebd9	-0.12300844
4	0xbe33eca0	-0.17570734
5	0xbef6b2b2	-0.4818321
6	0x3d304b81	0.043040756
7	0x3dce59ee	0.100757465
8	0xbdbbc7c2	-0.0916896
9	0x3db22651	0.086987145
10	0x3c84a81e	0.016193446
11	0x3d88bb2d	0.06676326
12	0x3d15f3df	0.036609527
13	0x3d827178	0.06369299
14	0x3deffe21	0.11718393
15	0xbd1b7843	-0.037956487
16	0xbd59b9b5	-0.05315562
17	0x3de3eaff	0.11128806
18	0xbe11b536	-0.14229283
19	0xbd746c7c	-0.05967377
20	0xbeec2c04	-0.4612733
21	0xbd0f10d6	-0.034928165
22	0xbd20bdc7	-0.039243486
23	0x3d86bba8	0.06578761
24	0xbd13d06b	-0.036087435
25	0xbb9a36db	-0.0047062463
26	0xbec8d875	-0.39227644
27	0x3c842b9d	0.016134078
28	0x3dce1c72	0.10064019
29	0x3e191a6e	0.14951488
30	0xbb71b4e1	-0.0036881494
31	0xbdf0539c	-0.11734697
32	0xbe05a4ad	-0.130511
33	0xbe8da43f	-0.27664372
34	0xbebd1566	-0.36930388
35	0xbe7fa6f0	-0.24966025
36	0xbcf2a812	-0.029621158
37	0xbe1cdfd9	-0.15319766
38	0xbea47310	-0.32119036
39	0x3c556d16	0.013026496
40	0xbb6c4ed5	-0.003605773
41	0x3e564913	0.20926313
42	0x3d6a58d1	0.05721361
43	0x3da8a02c	0.08233675
44	0xbe13d459	-0.14436473
45	0x3d1160fb	0.03549288
46	0xbe0b3e41	-0.13597967
47	0xbd724018	-0.059143156
48	0xbd5feb6f	-0.054667886
49	0xbe151a37	-0.14560781
50	0xbe62c6ed	-0.22146197
51	0xbdf575be	-0.11985348
52	0xba97b3fe	-0.0011574028
53	0xbe851b38	-0.2599733
54	0xbd3f8e10	-0.04676634
55	0x3d62627a	0.055269696
56	0x3ac906e6	0.0015337139
57	0x3e08befa	0.13354102
58	0x3d9f9ef4	0.0779399
59	0x3d7294cb	0.05922393
60	0xbe2c04e6	-0.16798744
61	0xbe29eefe	-0.16595075
62	0xbed898d0	-0.42304087
63	0xbe49d3ea	-0.19709745
64	0xbdf04ec7	-0.117337756
65	0xbd26585f	-0.04061162
66	0x3d944c29	0.07241089
67	0x3da5614d	0.08075199
68	0x3ec44293	0.38332042
69	0xbdd1d443	-0.10245564
70	0x3cf7cd09	0.030249136
71	0xbec46620	-0.38359165
72	0x3e4d8ca7	0.20073186
73	0x3e0b5c87	0.13609515
74	0x3e2d405c	0.16919082
75	0xbc8f2500	-0.017473698
76	0xbb2ea647	-0.0026649402
77	0xbd007012	-0.03135688
78	0x3d8d897d	0.069109894
79	0xbe104a9b	-0.1409096
80	0x3cccfd5b	0.025023153
81	0xbdce2dfa	-0.10067363
82	0xbd0960cf	-0.03353959
83	0xbc50df18	-0.012748502
84	0xbe035acd	-0.12827606
85	0xbdbe58e3	-0.092942975
86	0xbdf6731d	-0.12033675
87	0xbc5dedeb	-0.013545494
88	0xbde8b284	-0.11362174
89	0xbdf38afd	-0.11891744
90	0xbe32f171	-0.17474915
91	0xbdd1cbe0	-0.10243964
92	0xbe3c9a03	-0.18418126
93	0xbbc64e50	-0.006051816
94	0x3d9af6e5	0.07566623
95	0xbd8f45de	-0.06995748
96	0xbdb63a7e	-0.08897875
97	0xbd95aada	-0.07307978
98	0xbe07b4d7	-0.13252579
99	0xbd90a7a6	-0.070632264
100	0xbe1143d4	-0.1418603
101	0xbdfe2f34	-0.12411347
102	0xbe8ba05f	-0.2727079
103	0x3c743281	0.014904619
104	0xbe06c7d8	-0.13162172
105	0xbc3401b8	-0.010986738
106	0xbc2d54e6	-0.010579323
107	0xbdd0f2df	-0.10202574
108	0xbc2ca2e0	-0.010536879
109	0x3ca36ad6	0.019948404
110	0xbaeea9ee	-0.0018208602
111	0xbda09955	-0.07841746
112	0xbe1de696	-0.15419993
113	0xbe35c0b6	-0.17749295
114	0xbdddc068	-0.10827714
115	0xbe08a863	-0.13345484
116	0x3a36d836	0.0006974967
117	0xbbc0e88c	-0.0058870967
118	0xbd86ab90	-0.06575692
119	0xbe1a3b19	-0.15061606
120	0xbd4e2aee	-0.05033391
121	0xbd433748	-0.047660142
122	0x3c076542	0.008263888
123	0xbde2e608	-0.11079031
124	0xbd3e0630	-0.04639262
125	0xbe0129d8	-0.12613618
126	0xbc28eb84	-0.010310058
127	0x3cd69447	0.026193751
128	0xbe39d4e0	-0.18147612
129	0xbc647991	-0.013944999
130	0xbd7f0bb9	-0.06226704
131	0x3c64b169	0.0139583135
132	0x3d9cf577	0.07664006
133	0xbccd70fe	-0.025078293
134	0xbdad7a7d	-0.084706284
135	0x3ca31ed0	0.019912153
136	0xbdb440b1	-0.088014014
137	0x3d156bfe	0.036479943
138	0xbb9799e5	-0.0046265
139	0xbb25804f	-0.002525348
140	0x3a97ddb7	0.0011586462
141	0xbe0e4974	-0.13895208
142	0xbe6b8073	-0.22998218
143	0x3c212efa	0.00983786
144	0xbe156c99	-0.14592208
145	0xbcc12f77	-0.023582203
146	0xbbae0f58	-0.0053118877
147	0xbcc782f6	-0.02435444
148	0xbe0857ab	-0.13314693
149	0xbd108ee8	-0.035292536
150	0xbefbc099	-0.49170378
151	0xbe8c38b7	-0.2738702
152	0xbd0342ae	-0.032046013
153	0xbde3160e	-0.11088191
154	0x3d2573a4	0.040393487
155	0x3e00f25b	0.12592451
156	0xbdd1decb	-0.102475725
157	0x3d246c67	0.040142443
158	0x3dae6160	0.085146666
159	0x3e140cdb	0.14458029
160	0x3cc80063	0.024414247
161	0xbe4ce146	-0.2000781
162	0xbe3f85b9	-0.18703355
163	0xbe6d724e	-0.23188135
164	0xbe18731d	-0.14887662
165	0xbdf56d83	-0.11983778
166	0xbe7d42f7	-0.24732576
167	0xbea446ea	-0.32085353
168	0x3ba05974	0.004893476
169	0x3d755eda	0.05990491
170	0x3ca54240	0.020173192
171	0xbe96be21	-0.29441932
172	0xbd5a37d0	-0.053275883
173	0x3d6be442	0.05759073
174	0xbce95929	-0.028484898
175	0x3c9b8406	0.018983852
176	0x3d55a42b	0.052158516
177	0xbd82109e	-0.06350826
178	0xbdd77545	-0.10520414
179	0xbc99f2e3	-0.018792575
180	0xbe741d67	-0.23839341
181	0x3d14829b	0.036257368
182	0x3e2bfdb4	0.16795999
183	0xbecb8697	-0.3975112
184	0xbecf80aa	-0.4052785
185	0xbc8020cc	-0.015640639
186	0x3d918d8f	0.07107078
187	0x3d70e964	0.05881633
188	0xbd0fcffd	-0.035110462
189	0xbe864bea	-0.26229793
190	0xbe9027c8	-0.2815535
191	0x3dcf5d42	0.101252094
192	0xbe8d0ab7	-0.27547237
193	0xbe5bc9c8	-0.21463692
194	0x3e8e3633	0.27775726
195	0xbd70a4c0	-0.058750868
196	0xbd8e0732	-0.06934966
197	0x3e03d88e	0.12875578
198	0xbe0698a1	-0.13144161
199	0xbd5a5f1a	-0.053313352
200	0x3e8acc8b	0.2710918
201	0x3df222b6	0.11823027
202	0xbd8e2835	-0.06941263
203	0xbdd14d09	-0.102197714
204	0xbf229c61	-0.63519865
205	0xbf004a3f	-0.5011329
206	0xbd04fbe7	-0.032466795
207	0xbe848c67	-0.25888368
208	0xbe5e85c0	-0.21730709
209	0x3e07ec5d	0.13273759
210	0x3c39911f	0.0113261035
211	0xbd2311f9	-0.039812062
212	0x3d122d93	0.035687994
213	0xbc3c102a	-0.011478463
214	0xbe7f00b5	-0.24902613
215	0xbd4bca77	-0.049753632
216	0x3d78b1c2	0.060716398
217	0xbddf7dad	-0.10912643
218	0xbe1a9291	-0.15094973
219	0xbecad50e	-0.39615673
220	0x3d3296de	0.04360091
221	0x3d8683a8	0.0656808
222	0x3b8e410f	0.0043412517
223	0xbbe60fcb	-0.0070209256
224	0xbe84bd46	-0.25925654
225	0xbe13096c	-0.14359063
226	0xbdb6366e	-0.088971004
227	0x3cf61d1e	0.030043181
228	0xbe33a954	-0.17545062
229	0xbdb98cc0	-0.09060049
230	0x3cc0586b	0.023479661
231	0x3d099756	0.03359159
232	0xbc080367	-0.008301592
233	0xbda5a7a3	-0.08088615
234	0x3c09f3f2	0.0084199775
235	0xbdc257d6	-0.094894096
236	0xbdc20cba	-0.09475084
237	0xbd8b844a	-0.068123415
238	0x3cf6210c	0.030045055
239	0xbb1c618d	-0.0023861856
240	0x3caec66e	0.021334853
241	0xbda688e8	-0.081315815
242	0x3c93bae5	0.018033454
243	0xbd818901	-0.063249595
244	0xbd95fbd9	-0.07323427
245	0xbd4c5945	-0.04988982
246	0x3ba8e821	0.005154625
247	0xbe136def	-0.14397405
248	0xbdcb507f	-0.09927463
249	0xbbf89ff2	-0.0075874263
250	0xbdaf1837	-0.085495405
251	0xbe0bd279	-0.13654508
252	0x3b94e6ce	0.0045441156
253	0x3be636f8	0.0070255958
254	0xbc5eb9b4	-0.01359408
255	0x3d5e4411	0.054264132

model.network.0.conv2.bias f4 [25]
0	0x3f000898	0.50013113
1	0xbe31c437	-0.17360006
2	0xbe73d0d2	-0.23810127
3	0xbe962a3f	-0.29329106
4	0xbe35d13c	-0.17755598
5	0xbdf1f031	-0.11813391
6	0xbe5a5b15	-0.21323808
7	0xbe497a9c	-0.19675678
8	0x3ea52541	0.32254985
9	0xbecad9a5	-0.39619175
10	0xbd463610	-0.0483914
11	0xbdfe0f6a	-0.12405284
12	0xbea3bcb4	-0.31979907
13	0x3e250487	0.16115008
14	0xbd93b40a	-0.07212074
15	0x3e0a3092	0.1349509
16	0xbdce9253	-0.10086503
17	0xbe8c44d2	-0.27396256
18	0xbdd7f6d9	-0.10545129
19	0x3e1fe997	0.15616451
20	0xbd11f13f	-0.03563046
21	0x3ecef95c	0.4042462
22	0xbe16ea4c	-0.14737815
23	0xbe0a1c37	-0.13487326
24	0xbecb6a7e	-0.39729685

model.network.0.downsample.weight f4 [25, 27, 1]
0	0xbe44d1cc	-0.19220656
1	0xbe9288e7	-0.28620073
2	0xbd910abe	-0.07082127
3	0xbe426966	-0.18985519
4	0xbe2eb9af	-0.1706302
5	0x3c95c155	0.018280664
6	0xbecc6f28	-0.39928555
7	0x3d770047	0.060303
8	0xbc803574	-0.015650488
9	0xbdf27025	-0.11837796
10	0x3cea7c37	0.028623683
11	0xbd196434	-0.037449077
12	0xbe5e0c34	-0.21684343
13	0xbe67109e	-0.22564933
14	0xbe2a5b45	-0.16636379
15	0xbcae8c0d	-0.021307016
16	0x3dc2beeb	0.09509071
17	0xbdab0199	-0.08349914
18	0x3d83d57e	0.06437205
19	0xbe80f5bc	-0.2518748
20	0xbddd934a	-0.10819109
21	0x3e5694a2	0.20955136
22	0xbdfa8520	-0.12232423
23	0xbe3f8e4e	-0.18706629
24	0x3c4bff55	0.012451013
25	0xbcf6dec3	-0.030135518
26	0xbf6bdd28	-0.9213433
27	0x3c4c6441	0.012475074
28	0x3e810f67	0.25207064
29	0xbd8c5195	-0.06851498
30	0x3e6f22b5	0.23353083
31	0x3e14d071	0.14532639
32	0x3d8a4cdd	0.06752942
33	0xbeb0a436	-0.34500283
34	0xbd387b85	-0.045039672
35	0x3c937fe2	0.018005315
36	0xbc697616	-0.014249345
37	0x3cb91fb4	0.022598125
38	0x3e83022f	0.25587603
39	0x3e8180fc	0.2529372
40	0x3d89ed0e	0.06734668
41	0x3ea31a1f	0.31855866
42	0x3b20a7ba	0.0024514035
43	0x3cfd7b02	0.030942444
44	0xbe490d81	-0.19634058
45	0xbd309956	-0.043114983
46	0x3dc034fd	0.09385107
47	0x3ca4a82e	0.020099726
48	0xbe208e7a	-0.1567935
49	0xba9253f6	-0.0011163938
50	0x3dd5760e	0.10422908
51	0x3c9bc2e9	0.019013839
52	0x3d3777c2	0.044791944
53	0x3c5abbfa	0.013350481
54	0xbe3e4945	-0.18582638
55	0xbe3dc042	-0.18530372
56	0x3e48094f	0.19534801
57	0xbe0cf81d	-0.13766523
58	0xbe748ecc	-0.23882598
59	0xbd865fe3	-0.06561258
60	0xbe2437af	-0.16036867
61	0x3c9976ba	0.018733371
62	0x3cff01f9	0.03112887
63	0xbdb6e97d	-0.08931253
64	0xbd377261	-0.044786815
65	0x3dd910cf	0.10598909
66	0xbe675557	-0.22591148
67	0xbdbd4911	-0.09242452
68	0x3e831b67	0.25606844
69	0x3de17cfe	0.110101685
70	0xbe1cc564	-0.15309674
71	0x3e556f0d	0.20843144
72	0x3ee70241	0.45118907
73	0x3e140bc8	0.14457619
74	0x3cbacddc	0.02280324
75	0xbc8ff3b9	-0.01757227
76	0xbe228784	-0.15872008
77	0xb919c000	-0.00014662743
78	0x3c9faeb5	0.019492486
79	0xbded7807	-0.11595159
80	0xbcdd4f2b	-0.02701529
81	0xbe0b2584	-0.1358853
82	0x3dd28c68	0.102806866
83	0xbb3e32b7	-0.0029021928
84	0xbe5d9c9c	-0.21641773
85	0x3dbe0670	0.092785716
86	0x3e54ae80	0.20769691
87	0xbe249942	-0.16074088
88	0x3d9a3e31	0.07531393
89	0x3cefe901	0.02928591
90	0xbdd1c7f2	-0.10243215
91	0xbce0867e	-0.02740788
92	0xbd61ef55	-0.055159885
93	0xba820ac0	-0.0009921417
94	0xbd6ddccd	-0.0580719
95	0xbdafae2f	-0.08578145
96	0xbd33719b	-0.043809514
97	0xbd929811	-0.071579106
98	0xbe10f3b3	-0.14155464
99	0xbb9218c5	-0.004458519
100	0xbda60df1	-0.08108128
101	0x3c0d8afc	0.0086390935
102	0x3b55e1c5	0.003263579
103	0xbd543051	-0.05180389
104	0xbcb22078	-0.021743998
105	0x3b9833ce	0.0046448475
106	0x3cd567f7	0.02605055
107	0x3c3a5f96	0.0113753285
108	0xbde8abce	-0.11360894
109	0xbe0cf81c	-0.13766521
110	0xbe25988a	-0.1617147
111	0xbda1e525	-0.07905034
112	0x3da8791f	0.08226227
113	0x3bde363a	0.0067813667
114	0xbec1a441	-0.37820628
115	0xbcb8828d	-0.022523189
116	0xbf29d601	-0.6634217
117	0x3d4c99a2	0.049951203
118	0x3e08b25a	0.13349286
119	0xbde6be97	-0.11266821
120	0xbe16ea7d	-0.14737888
121	0x3dbf5525	0.09342412
122	0xbdb4afe2	-0.088226095
123	0xbd8f6688	-0.07001978
124	0x3d503f12	0.0508414
125	0x3d0da67a	0.034582593
126	0x3d493636	0.049123965
127	0x3ea6009e	0.32422346
128	0x3d4b383c	0.049614176
129	0xbe19a308	-0.15003598
130	0x3da87721	0.08225847
131	0x3e00c68b	0.12575738
132	0x3c4326b8	0.011911087
133	0x3c4cea3b	0.012507017
134	0xbce8c353	-0.02841345
135	0xbe3a26f3	-0.1817892
136	0x3e26fb85	0.16306885
137	0x3c395b07	0.0113132065
138	0x3e1fedfe	0.1561813
139	0xbd9f5c1c	-0.0778124
140	0x3dfcb4ec	0.123391956
141	0x3f2d4b97	0.67693466
142	0x3db96d73	0.09054079
143	0x3dbdf43c	0.092751
144	0xbcdeb73f	-0.027186988
145	0xbd9cf1e5	-0.07663325
146	0xbe293054	-0.16522342
147	0x3e5ba653	0.21450166
148	0x3e6eccc4	0.233203
149	0xbe0ab179	-0.13544263
150	0x3d8b3c21	0.06798578
151	0xbe1dcc3c	-0.1540994
152	0x3e313793	0.17306356
153	0xbd41d0a8	-0.04731813
154	0x3e1801a8	0.14844382
155	0xbe7af506	-0.24507532
156	0xbdaa6330	-0.083197
157	0xbd9a3c60	-0.07531047
158	0xbd88fde4	-0.06689051
159	0x3e71f736	0.2362946
160	0x3c1b5e5d	0.009482947
161	0xbe62265c	-0.22084945
162	0x3e4d5157	0.2005056
163	0x3c8993c3	0.016794091
164	0x3e0bc1c0	0.13648129
165	0x3ea5751d	0.32315913
166	0xbc474f4d	-0.012164903
167	0x3dc80b30	0.09767759
168	0x3ed00832	0.40631253
169	0xbd4aeae4	-0.049540415
170	0xbdc986e5	-0.09840182
171	0x3d0d9fbf	0.034576174
172	0x3d9d82ec	0.07690987
173	0xbcdb4b82	-0.026769403
174	0x3ea8f7e8	0.33001637
175	0x3b62efd5	0.0034627814
176	0x3d8c5505	0.06852154
177	0x3d708f07	0.05873015
178	0xbb84a834	-0.0040483717
179	0x3b8016b0	0.0039089546
180	0xbdbd7d28	-0.09252387
181	0x3c639362	0.013890119
182	0xbbd85ecc	-0.0066030975
183	0x3e1aa0b6	0.15100369
184	0x3c945664	0.0181076
185	0xbe003e39	-0.12523736
186	0x3e52d711	0.20589854
187	0xbcda8e6c	-0.02667924
188	0xbcb2a8bb	-0.021808973
189	0xbe894a87	-0.26814672
190	0x3db2a6e5	0.08723239
191	0xbdfaf2e4	-0.12253359
192	0x3e5e59ab	0.21713893
193	0xbe1604ac	-0.1465022
194	0xbcc03a5b	-0.023465326
195	0xbc81ac4a	-0.015829224
196	0x3d208f9f	0.039199468
197	0xb9f4e844	-0.00046712358
198	0xbd2ba586	-0.041905902
199	0x3a4ee001	0.00078916556
200	0x3d94aea0	0.072598696
201	0x3de3bd20	0.11120057
202	0xbe15b95d	-0.14621492
203	0x3e616241	0.22010137
204	0xbe36bc58	-0.17845285
205	0x3d5cfbec	0.05395119
206	0xbbcae0f0	-0.0061913654
207	0x3e20b84a	0.156953
208	0xbe749151	-0.23883559
209	0x3cdfc5ba	0.027315963
210	0xbef2695d	-0.4734601
211	0xbe78722e	-0.24262306
212	0xbd0f0044	-0.034912363
213	0x3ceab0c6	0.028648745
214	0xbc0aea98	-0.008478783
215	0xbc04fcec	-0.008116942
216	0xbe05877c	-0.13039964
217	0x3cf06890	0.029346734
218	0xbd89a704	-0.06721309
219	0xbb823c2f	-0.0039744596
220	0x3bfae9e1	0.007657275
221	0xbcbc3bc0	-0.02297771
222	0x3e90cf7a	0.28283292
223	0x3d184c85	0.03718235
224	0xbc58f2bf	-0.013241469
225	0xbd76552d	-0.060139824
226	0xbdfb7e65	-0.12279967
227	0xbb816694	-0.003948996
228	0x3d6ae4e5	0.057347197
229	0x3e01cc70	0.12675643
230	0xbea472a5	-0.32118717
231	0x3d1cc357	0.038272228
232	0x3d81338f	0.06308662
233	0x3e003200	0.12519073
234	0xbc9961c1	-0.01872337
235	0x3de0f758	0.10984677
236	0xbdb6fa44	-0.08934453
237	0x3d7a4b86	0.06110718
238	0xbe4afbfe	-0.1982269
239	0x3dfc3762	0.12315251
240	0xbd08c08b	-0.03338675
241	0xbab0e008	-0.0013494501
242	0xbb8f313a	-0.004369882
243	0x3d9f3bda	0.07775088
244	0x3e8c046c	0.27347124
245	0x3e214d88	0.15752232
246	0x3ea9c7b5	0.33160177
247	0x3d9b9f51	0.075987466
248	0x3a361de7	0.0006947205
249	0x3eb5d07b	0.3551062
250	0xbc91dfe4	-0.017806955
251	0xbce10c51	-0.027471693
252	0x3b9712a5	0.004610377
253	0x3ba16f1d	0.004926576
254	0xbca29d72	-0.019850466
255	0x3de03e51	0.10949386

model.network.0.downsample.bias f4 [25]
0	0x3f62c695	0.8858426
1	0xbf6202c4	-0.8828547
2	0xbe9bbd61	-0.30417922
3	0x3eb41774	0.35174143
4	0xbf105004	-0.56372094
5	0xbda56f79	-0.08077902
6	0x3e6fada1	0.23406078
7	0xbeed8f23	-0.46398267
8	0xbe578786	-0.21047792
9	0x3dfadf18	0.12249583
10	0xbf6bd872	-0.92127144
11	0xbf8456e1	-1.0339013
12	0x3ed6ae2e	0.41929764
13	0xbf195e90	-0.59909916
14	0xbce6f8b5	-0.028194765
15	0x3ce1e21c	0.027573638
16	0xbec76984	-0.3894769
17	0xbeaaf080	-0.33386612
18	0xbeba1b58	-0.36348987
19	0xbf12ee84	-0.57395196
20	0xbef09815	-0.4699103
21	0x3ca2dbbb	0.019880166
22	0xbf091df1	-0.5356131
23	0x3e6abfb2	0.22924688
24	0xbeee98d9	-0.46600989

model.network.1.conv1.weight f4 [25, 25, 3]
0	0xbdc97c84	-0.098382026
1	0x3cfc243f	0.030779002
2	0x3b851a9c	0.00406201
3	0x3bc4b124	0.006002562
4	0xbd54fb2e	-0.051997356
5	0xbd4fe304	-0.05075361
6	0xbe4f2700	-0.20229721
7	0xbe99f079	-0.3006628
8	0xbe110a2c	-0.14164037
9	0xbe55d6f0	-0.20882773
10	0xbe0b8027	-0.13623105
11	0xbe890c1c	-0.2676705
12	0x3cbfdaa1	0.02341968
13	0x3d1dc195	0.038514692
14	0xbce714df	-0.028208194
15	0xbe3d41dc	-0.18482155
16	0xbed65e77	-0.41868946
17	0xbea72a6d	-0.32649556
18	0x3e44411e	0.19165465
19	0xbe0e24a3	-0.13881163
20	0xbe8691d9	-0.26283148
21	0xbda1754a	-0.07883699
22	0xbd93801b	-0.072021686
23	0xbdfabd36	-0.1224312
24	0x3d7329b6	0.05936595
25	0xbc8b60ec	-0.01701399
26	0xbe534a22	-0.20633748
27	0x3e259515	0.16170152
28	0xbbb077ca	-0.0053853737
29	0xbe05f843	-0.13082986
30	0xbd605169	-0.05476514
31	0x3d6df0b1	0.05809087
32	0x3d91a247	0.0711103
33	0xba2a2c11	-0.0006491552
34	0xbe1b182c	-0.1514594
35	0x3d3605b9	0.04443905
36	0xbd4dc1c2	-0.05023361
37	0xbe2086e8	-0.15676463
38	0xbe6fbd36	-0.23412022
39	0x3d4de7e6	0.050269984
40	0xbe3df13c	-0.18549055
41	0x3cae744b	0.021295687
42	0xbe4930e1	-0.19647552
43	0xbd432995	-0.047647078
44	0xbe471608	-0.19441998
45	0xbd91d0c5	-0.07119898
46	0xbde50327	-0.11182242
47	0xbec17dc2	-0.37791258
48	0x3e19786a	0.1498734
49	0xbe3daf06	-0.18523797
50	0xbdeeb843	-0.11656239
51	0xbeb194e9	-0.34683922
52	0xbe9f036d	-0.310573
53	0xbe02d620	-0.12776995
54	0xbe2006f2	-0.1562765
55	0x39275cae	0.00015960887
56	0xbdf8c6a9	-0.121472664
57	0x3e14e9b7	0.1454228
58	0x3e2c244a	0.16810718
59	0x3d9338fb	0.071886025
60	0xbe600f18	-0.21880758
61	0xbde7496b	-0.112933
62	0xbe175f92	-0.14782551
63	0x3dc55486	0.09635262
64	0x3e00f47c	0.12593263
65	0xbe29c1b7	-0.16577803
66	0x3da12cc2	0.07869865
67	0xbdfea7d0	-0.124343514
68	0xbe8d24aa	-0.27567035
69	0xbe9574e3	-0.2919074
70	0xbeb4caa9	-0.35310867
71	0xbe24c857	-0.16092049
72	0x3e171a7e	0.147562
73	0x3dc2d479	0.09513182
74	0xbd7817ca	-0.060569562
75	0xbe94fba7	-0.29098246
76	0xbe58579c	-0.2112717
77	0xbe626269	-0.22107853
78	0xbca7e512	-0.020494971
79	0xbc3fb835	-0.011701633
80	0xbdd0f3d5	-0.10202757
81	0xbcab2fc0	-0.020896792
82	0xbcf4d03f	-0.029884456
83	0xbec010f8	-0.37512946
84	0xbe187501	-0.14888383
85	0xbdc1bb1f	-0.09459519
86	0xbd2384b7	-0.03992149
87	0x3cfeffc1	0.031127812
88	0xbe31aaca	-0.17350307
89	0xbbb24532	-0.0054403776
90	0x3d8467ba	0.06465097
91	0x3dfe4ba1	0.12416769
92	0xbe02d379	-0.12775983
93	0x3d6fbff0	0.058532655
94	0x3b7548b9	0.003742738
95	0xbe36cc86	-0.17851457
96	0xbe0bfab9	-0.13669862
97	0xbe727f17	-0.23681293
98	0xbcb359b7	-0.021893365
99	0x3de39297	0.11111944
100	0x3b0f9130	0.0021906607
101	0xbe884802	-0.26617438
102	0xbdf29cfe	-0.1184635
103	0xbd945558	-0.072428405
104	0xbdf1b9f8	-0.11803049
105	0xbd23a74e	-0.039954476
106	0xbd9c52d9	-0.076329894
107	0x3e5dab1b	0.21647303
108	0xbb5740da	-0.003284505
109	0x3d0d957e	0.034566395
110	0xbe9bf7e9	-0.30462578
111	0x390b84b7	0.00013305513
112	0xbd0ed5e0	-0.034871936
113	0xbd8ec085	-0.06970314
114	0x3d63eaed	0.055643965
115	0x3c6ad2df	0.014332502
116	0xbca9bbe6	-0.02071948
117	0x3d883bb1	0.0665201
118	0xbda37392	-0.07981028
119	0xbe818e95	-0.25304094
120	0x3dcec9d9	0.10097093
121	0x3b02495d	0.0019880154
122	0xbe28cecb	-0.16485135
123	0xbe71ed96	-0.23625788
124	0x3d5e1008	0.054214507
125	0x3e544971	0.2073114
126	0xbde6e5e4	-0.11274317
127	0xbe84641d	-0.2585763
128	0xbd55884f	-0.052131947
129	0x3d70b0d7	0.058762398
130	0xbcd8c986	-0.026463281
131	0x3d5b2a82	0.053507335
132	0x3b22b258	0.002482554
133	0xbd62895a	-0.05530677
134	0xbe7cd8a2	-0.24692014
135	0xbdb21fcb	-0.0869747
136	0xbe332445	-0.17494304
137	0xbd9311e0	-0.07181144
138	0x3ce316b9	0.027720796
139	0x3b759df6	0.0037478185
140	0xbe5ea33f	-0.21741961
141	0xbc9a1348	-0.018808022
142	0xbd008727	-0.03137889
143	0xbcc2e52e	-0.023790922
144	0xbc650e73	-0.013980496
145	0xbe600bb1	-0.2187946
146	0xbdfa4b54	-0.12221399
147	0x3dd35bac	0.103202194
148	0xbd0f120d	-0.034929324
149	0xbd9c6bec	-0.07637772
150	0xbe0e1f93	-0.13879232
151	0xbdfeaade	-0.12434934
152	0xbe2a1be7	-0.16612206
153	0x3da3bcd6	0.07995002
154	0x3d476fe8	0.048690706
155	0xbd632863	-0.055458438
156	0x3e60fa8d	0.21970578
157	0xbe0de283	-0.13855939
158	0xbe1405e3	-0.1445537
159	0x3c89f515	0.016840497
160	0x3dc0b0af	0.094087
161	0xbdc1c0d4	-0.09460607
162	0xbe0f8d32	-0.14018705
163	0xbddeeb5e	-0.108847365
164	0xbe86c320	-0.26320744
165	0xbd90670e	-0.07050906
166	0xbde04db1	-0.109523185
167	0xbd4b81b2	-0.049684234
168	0xbd320c9e	-0.043469064
169	0xbdbd854a	-0.092539385
170	0xbd40c98e	-0.047067218
171	0xbd389514	-0.045064047
172	0xbd8a767a	-0.06760879
173	0xbe37ff1f	-0.17968415
174	0xbd9cb92d	-0.07652507
175	0xbcce4719	-0.025180386
176	0x3cd1d971	0.02561638
177	0x3dd41463	0.10355451
178	0xbdf41a6a	-0.119191006
179	0xbdcbfbea	-0.09960158
180	0x3dac19ca	0.084033564
181	0xbd82f302	-0.06394006
182	0xbd0187ef	-0.031623777
183	0x3dbf4662	0.09339596
184	0xbcf38714	-0.029727496
185	0x3aa00140	0.0012207404
186	0xbd516f33	-0.05113144
187	0xbde93614	-0.11387268
188	0xbe1f15ec	-0.15535706
189	0x3c1d8784	0.009614829
190	0xbe4c4b1d	-0.19950528
191	0xbd82d826	-0.06388883
192	0x3cd29d97	0.02570991
193	0xbd8aedb6	-0.06783621
194	0xbd2caf33	-0.04215927
195	0x3d0e590d	0.034752894
196	0xbd9382a4	-0.07202652
197	0xbce7d226	-0.028298449
198	0xbcaf93a1	-0.0214327
199	0xbd61336d	-0.054980684
200	0x3cb6d3da	0.022317816
201	0x3d7b638a	0.061374225
202	0xbd16815f	-0.03674447
203	0xbd3885ca	-0.045049466
204	0xbd49a729	-0.049231682
205	0xbdef983a	-0.11698957
206	0xbe4e8daf	-0.20171236
207	0x3d025d7d	0.03182744
208	0xbe367b81	-0.1782055
209	0xbdab4eb5	-0.083646215
210	0xbe20e289	-0.15711416
211	0xbdd33755	-0.10313288
212	0xbc802b71	-0.015645714
213	0xbd7c40f2	-0.061585374
214	0x3d21e945	0.039529104
215	0x3d03a24a	0.032137193
216	0x3cd86d59	0.026419329
217	0xbe19c7a9	-0.1501757
218	0xbda9c7ca	-0.0829006
219	0xbd5a8b6c	-0.05335562
220	0x3ca6c80c	0.020359062
221	0xbe580ad4	-0.2109788
222	0x3d190b96	0.037364565
223	0x3c292485	0.010323648
224	0x3dad6887	0.08467203
225	0xbef1d6b6	-0.47234124
226	0xbeb7561e	-0.3580789
227	0xbcd1be23	-0.02560336
228	0xbdc2f87e	-0.095200524
229	0xbc51641a	-0.012780214
230	0xbca45117	-0.020058198
231	0xbe3be76e	-0.18350002
232	0xbe709c0f	-0.23497032
233	0xbddf4899	-0.10902519
234	0x3c7747dc	0.015092816
235	0xbe1196e9	-0.14217724
236	0xbe3a9531	-0.18220975
237	0x3d0dae3f	0.034590002
238	0xbc8bf3b9	-0.01708399
239	0xbd928a69	-0.07155306
240	0x3b20c208	0.0024529714
241	0xbd073198	-0.03300628
242	0x3b9c022a	0.004761
243	0xbd929978	-0.07158178
244	0xbda7fdf2	-0.08202733
245	0xbd63068d	-0.05542617
246	0x3d06621f	0.03280842
247	0x3d963672	0.07334603
248	0xbcbb5704	-0.02286864
249	0xbd131e2a	-0.03591744
250	0xbe1b024f	-0.151376
251	0x3dac5e6d	0.08416448
252	0xbe0f4b66	-0.13993606
253	0xbda2b460	-0.0794456
254	0xbc973956	-0.018459957
255	0xbe1526dd	-0.14565606

model.network.1.conv1.bias f4 [25]
0	0xbe132dcc	-0.14372939
1	0xbe19bf2a	-0.1501433
2	0xbe10e632	-0.14150313
3	0xbea7c53a	-0.3276766
4	0xbe205dd2	-0.1566079
5	0xbe2e47dc	-0.170196
6	0xbd18156c	-0.037129804
7	0x3e99f87b	0.30072388
8	0xbe279e7e	-0.16369054
9	0x3ec2f4a4	0.3807727
10	0x3ce2d00f	0.0276871
11	0xbe3d1402	-0.18464664
12	0xbdced297	-0.100987606
13	0xbeb3cb5a	-0.35116082
14	0x3e57f287	0.2108861
15	0xbef1c52f	-0.47220752
16	0x3efb7025	0.49108997
17	0xbe3b614f	-0.18298839
18	0x3e9a3cbc	0.30124462
19	0xbda72782	-0.081618324
20	0xbcfe1c2b	-0.03101929
21	0xbf0d9844	-0.55310464
22	0xbcf67d31	-0.030088993
23	0xbe1e8904	-0.15481955
24	0xbc24e229	-0.010063686

model.network.1.conv2.weight f4 [25, 25, 3]
0	0xbe069c89	-0.13145651
1	0x3c9df020	0.01927954
2	0xbc52cc73	-0.012866127
3	0xbe957d68	-0.2919724
4	0xbe724f1f	-0.23662995
5	0x3bc96a6f	0.006146721
6	0xbdf9cbc7	-0.121970706
7	0x3d5306ff	0.051520344
8	0xbd125d46	-0.035733484
9	0xbd62b1bc	-0.055345282
10	0xbdf0dfbe	-0.117614254
11	0x3a8fc2e8	0.0010968121
12	0x3c9f1653	0.019419825
13	0x3dff9177	0.12478917
14	0x3d6a8425	0.05725493
15	0x3ce0e47e	0.027452704
16	0xbd0dd40c	-0.03462605
17	0x3dd78b1d	0.10524581
18	0xbd2f066f	-0.042730745
19	0xbb384146	-0.0028115078
20	0x3dbb3bd3	0.0914227
21	0xbd112b82	-0.035441883
22	0xbe4094f8	-0.18806827
23	0xbde0e247	-0.10980659
24	0xbe0b0bf7	-0.13578783
25	0xbdaab413	-0.08335128
26	0x3c859271	0.01630518
27	0x3e577295	0.21039803
28	0x3d61da25	0.05513968
29	0xbd1b4330	-0.037905872
30	0xbda94b78	-0.08266348
31	0xbb818bf0	-0.0039534494
32	0xbe0c836a	-0.13722005
33	0x3d90c545	0.07068876
34	0xbb3b13c5	-0.002854572
35	0xbd2b6b5f	-0.041850444
36	0xbdad5bdb	-0.08464786
37	0x3c7d9b3d	0.015478906
38	0xbdd12b33	-0.10213318
39	0x3c97efa5	0.018546889
40	0xbd948d78	-0.072535455
41	0xbe046459	-0.12928905
42	0xbe1c5b8b	-0.15269296
43	0xbd720ec2	-0.059096105
44	0x3eb68b1e	0.35653013
45	0xbc04ef8a	-0.008113751
46	0xbcdd1112	-0.026985679
47	0x3e04e625	0.12978418
48	0xbe20837a	-0.15675154
49	0x3d3117c9	0.043235574
50	0x3dc5c550	0.09656775
51	0xbd6723b1	-0.056430522
52	0x3b686446	0.0035460158
53	0xbe2a8e6a	-0.16655889
54	0x3e47ba89	0.19504751
55	0x3cf4ba23	0.029873913
56	0xbe18705c	-0.14886612
57	0x3d0b230b	0.033968966
58	0xbbefde86	-0.007320228
59	0xbd8ec2f2	-0.069707766
60	0xbd95182b	-0.0728
61	0xbbd62da3	-0.006536202
62	0x3bb1e90d	0.005429393
63	0x3d979ccc	0.074029535
64	0xbd93c2c6	-0.072148845
65	0x3dd7a9f3	0.10530462
66	0x3d66b73f	0.0563271
67	0xbdc192eb	-0.094518505
68	0xbcf8d3ab	-0.030374369
69	0x3cf0f170	0.029412001
70	0xbcaf13d8	-0.021371767
71	0x3d4d784f	0.050163563
72	0x3db6c47b	0.089241944
73	0x3d66c703	0.056342136
74	0x3dd3302e	0.10311924
75	0x3de8cf48	0.11367661
76	0xbe0192e5	-0.12653692
77	0xbd0507b7	-0.03247806
78	0xbdb2f466	-0.087380216
79	0x3e035eed	0.1282918
80	0x3d56d8db	0.052452903
81	0xbd307832	-0.043083377
82	0xbd3497e9	-0.044090185
83	0x3dd40686	0.10352807
84	0xbdbe63a2	-0.09296347
85	0x3cf8ef22	0.030387465
86	0x3de2716b	0.11056789
87	0xbdc5502a	-0.09634431
88	0xbdd9958a	-0.106242254
89	0x3d6c77c4	0.057731405
90	0xbcaa15d4	-0.020762362
91	0x3d05f138	0.032700747
92	0xbccefc43	-0.025266772
93	0x3abb7aeb	0.00143036
94	0xbda43622	-0.080181375
95	0x3e03722c	0.12836522
96	0xbd74ef36	-0.05979844
97	0x3d4e0c02	0.05030442
98	0xbebafdb1	-0.36521676
99	0xbe055e22	-0.1302419
100	0x3e0b32ec	0.13593644
101	0x3e32b7f3	0.17452984
102	0x3d99d675	0.075116076
103	0xbdd9f303	-0.10642054
104	0x3e5527c9	0.20815958
105	0xbd6215c5	-0.055196542
106	0xbd44a479	-0.048008416
107	0xbe087c0d	-0.13328572
108	0xbcbf20ae	-0.023331013
109	0x3dde9691	0.10868562
110	0x3e1cbc58	0.15306222
111	0xbdd76e83	-0.10519125
112	0xbdb3402e	-0.08752476
113	0xbda4e8ca	-0.080522135
114	0xbe6be9b7	-0.23038374
115	0xbe2568fc	-0.1615333
116	0xbe791941	-0.2432604
117	0x3dc7a308	0.097478926
118	0x3d2f0b7a	0.042735554
119	0x3e181777	0.14852701
120	0xbdc0a4d0	-0.094064355
121	0xbec82c4c	-0.39096296
122	0xbe33f5d1	-0.1757424
123	0xbc5eaf23	-0.013591561
124	0x3e01f19c	0.12689823
125	0x3e04bca1	0.12962581
126	0xbb2a8633	-0.002601993
127	0xbdb59c6d	-0.088677265
128	0xba27760e	-0.0006388136
129	0x3c135ceb	0.008994321
130	0x3dc34d2a	0.09536202
131	0xbccfef55	-0.025382677
132	0x3b7f19c9	0.0038925281
133	0x3da017b8	0.07817024
134	0x3d71c7a1	0.05902827
135	0xbd3ebae4	-0.04656495
136	0xbda3600e	-0.07977305
137	0xbd28751e	-0.041127317
138	0xbf3d5fbd	-0.7397421
139	0xbe8c51f6	-0.2740628
140	0xbe1f86d0	-0.1557877
141	0xbc896c31	-0.016775222
142	0xbd03a471	-0.032139245
143	0x3c7b617e	0.015343068
144	0xbdc04eac	-0.093900055
145	0x3d8ce2ca	0.06879194
146	0xbd97eb1f	-0.07417893
147	0xbbc418c8	-0.0059843995
148	0xbc5f9d31	-0.013648317
149	0xbd81a467	-0.063301854
150	0x3d2fc87a	0.0429158
151	0x3e966b75	0.29378858
152	0x3e933126	0.28748435
153	0xbc7d0bc8	-0.015444703
154	0xbe1525c7	-0.14565192
155	0x3df21892	0.11821093
156	0xbda81ff1	-0.08209217
157	0x3d0d421c	0.034486875
158	0xbe282533	-0.1642044
159	0x3c167ce3	0.009185049
160	0xbc5baf4d	-0.013408494
161	0xbd86098b	-0.06544789
162	0x3da37442	0.07981159
163	0xbd1d9623	-0.03847326
164	0x3b293791	0.0025820474
165	0x3caf1730	0.021373361
166	0xbe07692f	-0.13223718
167	0xbd9130d3	-0.070893906
168	0xbdd4c78a	-0.103896216
169	0xbd0a9257	-0.033830967
170	0x3b7b9464	0.0038388008
171	0x3e4b4a6c	0.19852608
172	0x3d11520a	0.03547863
173	0x3e6c3a55	0.23069127
174	0xbd2468d2	-0.040139027
175	0xbe0a6dd4	-0.13518459
176	0xbe24fefa	-0.16112891
177	0x3da1db30	0.07903135
178	0x3e1309e0	0.14359236
179	0xbe303f8e	-0.17211744
180	0xbd793f22	-0.060851224
181	0x3de556ef	0.11198222
182	0x3e32e391	0.17469622
183	0xbdf62473	-0.12018671
184	0x3cc28477	0.023744805
185	0xbbdfc03b	-0.0068283356
186	0xbd6429be	-0.05570387
187	0xbd29d716	-0.041464888
188	0x3c2b9d65	0.0104745375
189	0xbde515b1	-0.11185778
190	0xbdc752b6	-0.09732573
191	0xbe599663	-0.21248774
192	0x3d8409f5	0.06447212
193	0xbca0eb77	-0.019643528
194	0xbe67a27d	-0.22620578
195	0x3d75fa7c	0.060053334
196	0x3c1fc415	0.009751339
197	0xbe1cd915	-0.15317185
198	0xbe6eb68f	-0.23311828
199	0xbe274061	-0.16333152
200	0xbf33ea53	-0.70279425
201	0x3ced2f83	0.02895332
202	0x3cf1d19f	0.0295189
203	0x3d5a095f	0.053231593
204	0xbe45ac69	-0.1930405
205	0xbe0b1248	-0.13581192
206	0xbeb9fdc4	-0.3632642
207	0x3d786746	0.060645364
208	0x3d170388	0.036868602
209	0xbc95deaf	-0.01829466
210	0x3d9d91f3	0.07693853
211	0x3db68179	0.08911414
212	0x3da7b6d2	0.08189167
213	0xbd424009	-0.04742435
214	0x3d6b0fc2	0.057388075
215	0xbdf95210	-0.12173855
216	0x3d0d923c	0.034563288
217	0xbdfdc850	-0.12391722
218	0x3ddc3a19	0.10753269
219	0x3d864e25	0.06557874
220	0xbcc84879	-0.02444862
221	0x3cfb5972	0.0306823
222	0xba6fd4b8	-0.0009148824
223	0x3d9a986c	0.075486034
224	0xbd936229	-0.07196457
225	0xbe0852e9	-0.13312878
226	0xbdd069e3	-0.10176446
227	0xbd84bcf1	-0.0648135
228	0xbd087ca7	-0.033322003
229	0xbe173a6e	-0.14768383
230	0x3c851b6b	0.016248425
231	0xbddbcdf2	-0.1073264
232	0xbdcd1d90	-0.10015404
233	0xbde13367	-0.10996132
234	0xbde14d67	-0.110010915
235	0xbde444b0	-0.111459136
236	0x3dd1061f	0.10206246
237	0x3be8694d	0.007092631
238	0x3db28011	0.08715833
239	0x3db3e5b1	0.087840445
240	0x3da9dafb	0.0829372
241	0x3dc4cf52	0.09609856
242	0x3e01f051	0.1268933
243	0xbe250412	-0.16114834
244	0x3da688da	0.08131571
245	0x3d2c3284	0.042040363
246	0xbe8e1e6f	-0.27757594
247	0xbde40244	-0.11133245
248	0xbe05e440	-0.13075352
249	0xbdaea9ba	-0.085284665
250	0xbe12564f	-0.14290737
251	0xbc616212	-0.013756292
252	0x3db13455	0.0865256
253	0x3e3258dd	0.17416711
254	0x3da9781f	0.082748644
255	0xbdff41d4	-0.124637276

model.network.1.conv2.bias f4 [25]
0	0xbe3a5c9a	-0.18199387
1	0xbdacc570	-0.08436096
2	0x3d100367	0.035159495
3	0xbd471099	-0.048599813
4	0xbe3fbb17	-0.18723713
5	0xbe844541	-0.25834087
6	0xbe00b55f	-0.12569188
7	0xbe55e1f7	-0.2088698
8	0x3c823386	0.015893709
9	0xbe219285	-0.15778549
10	0x3d5952f1	0.053057615
11	0xbe4a4c0b	-0.1975557
12	0xbcd7c9fb	-0.026341429
13	0xbea0fc99	-0.31442717
14	0x3d226280	0.03964472
15	0x3d9b82d3	0.07593312
16	0xbe238ed8	-0.1597246
17	0xbd825422	-0.06363703
18	0xbdcd668f	-0.10029327
19	0x3e14e37c	0.14539903
20	0xbd98e7c7	-0.07466083
21	0x3d9ff29f	0.07809948
22	0x3c94aca4	0.018148728
23	0xbe3802ae	-0.17969772
24	0xbe7a1b82	-0.24424556

model.network.2.conv1.weight f4 [25, 25, 3]
0	0xbd9d0ebc	-0.07668826
1	0xbdca2a47	-0.09871345
2	0xbd9c9297	-0.07645147
3	0xbadee367	-0.0017005027
4	0x3d636dfb	0.055524807
5	0x3c82ceff	0.015967844
6	0xbda70378	-0.081549585
7	0x3b6840b0	0.0035438947
8	0xbb8ddaf8	-0.0043290816
9	0xbde2f600	-0.11082077
10	0xbe00172b	-0.12508838
11	0xbe2b9192	-0.1675475
12	0xbdb1444f	-0.08655607
13	0x3d99fa83	0.075184844
14	0xbe1e931c	-0.15485805
15	0xbd63592d	-0.055504967
16	0x3d3d2ad1	0.04618341
17	0xbda796ac	-0.08183035
18	0xbddf9be0	-0.10918403
19	0xbd1afb60	-0.037837386
20	0xbd7aa8dc	-0.061196193
21	0xbdc6d450	-0.09708464
22	0xbe294321	-0.16529514
23	0xbd26d459	-0.040729854
24	0xbd79bc2f	-0.06097048
25	0x3d3999ef	0.04531282
26	0xbdf56643	-0.119823955
27	0x3d51ff80	0.051269054
28	0x3ccccbf1	0.02499959
29	0xbd8524b3	-0.065011404
30	0xbbb5d373	-0.0055488884
31	0x3dacf34f	0.08444845
32	0xbdbf975a	-0.0935504
33	0xbd368aef	-0.04456609
34	0xbc8b8414	-0.017030753
35	0x3dbc0b29	0.09181816
36	0xbdbfbae1	-0.09361816
37	0xbd284164	-0.041077986
38	0x3d8046c9	0.06263501
39	0xbe2b8d77	-0.16753183
40	0x3b4071a9	0.0029364622
41	0xbd31d763	-0.0434183
42	0xbdee6c6e	-0.11641775
43	0xbc5aa3f4	-0.0133447535
44	0xbd07f6d7	-0.03319439
45	0x3d82b7ce	0.06382714
46	0x3d971935	0.07377855
47	0xbd8fe363	-0.070257924
48	0xbe30e342	-0.17274192
49	0xbe06fcd3	-0.13182382
50	0xb8ae35cd	-8.306988e-05
51	0xbdaf56cf	-0.08561479
52	0xbd013354	-0.03154309
53	0xbe538ba9	-0.20658745
54	0x3c8d7dd0	0.017271906
55	0x3ca50573	0.0201442
56	0xbd803f71	-0.062621005
57	0x3d8006a7	0.06251269
58	0xbdf0d1b1	-0.117587455
59	0x3bc53986	0.00601882
60	0x3cb160c9	0.021652596
61	0xbe0ec653	-0.13942842
62	0x3b58d73d	0.0033087276
63	0xbdd5e1e3	-0.10443475
64	0xbe185e2b	-0.14879672
65	0xbe005092	-0.12530735
66	0x3cda64b8	0.026659355
67	0x3d675619	0.056478593
68	0x3d23b9b0	0.039972007
69	0xbdf7fffb	-0.12109371
70	0xbda1a2f6	-0.078924105
71	0xbdb9fd5a	-0.09081526
72	0xbd02110f	-0.03175455
73	0x3d3a6492	0.045506068
74	0x3dcf1ce7	0.101129346
75	0x3e544ad8	0.20731676
76	0x3e548480	0.2075367
77	0xbe87ff75	-0.26562086
78	0x3d8a6317	0.06757181
79	0xbcb50698	-0.02209787
80	0xbe80783b	-0.2509173
81	0x3ae717c0	0.001763098
82	0xbd68c608	-0.056829482
83	0x3dd71e5b	0.10503837
84	0x3deaae26	0.114589974
85	0x3d84009b	0.06445428
86	0xbe9218ac	-0.28534448
87	0xbe025069	-0.12725987
88	0x3d78bcff	0.060727116
89	0x3e840a7e	0.25789255
90	0xbe272531	-0.16322781
91	0xbe251db8	-0.16124618
92	0x3e19e076	0.15027031
93	0xbe4d9ffc	-0.2008056
94	0xbd92681e	-0.07148765
95	0x3ea93d22	0.33054453
96	0x3e30a53e	0.17250535
97	0x3d9380ae	0.07202278
98	0xbe4a1a99	-0.19736709
99	0xbdc9b29e	-0.09848522
100	0xbda1e0f3	-0.07904234
101	0x3e39de65	0.18151243
102	0xbe56b6b0	-0.20968127
103	0xbe110e1a	-0.14165536
104	0x3eca2f0e	0.39489025
105	0xbe31bb47	-0.17356597
106	0x3d8ba413	0.06818404
107	0x3e76a33f	0.24085711
108	0xbc2dca97	-0.010607383
109	0xbd8c3013	-0.06845107
110	0xbdae5c7f	-0.08513736
111	0x3e826de3	0.25474462
112	0x3e2d4789	0.1692182
113	0xbeffa979	-0.49933985
114	0x3db9e134	0.09076157
115	0x3e13a5ac	0.14418668
116	0xbe2cafe4	-0.16863972
117	0xbcb061b5	-0.021530965
118	0x3c5f5476	0.013630977
119	0x3dd94186	0.10608201
120	0xbdfc041b	-0.123054706
121	0xbe1a7ee8	-0.15087473
122	0x3e8e78c1	0.27826503
123	0x3d121af0	0.03567022
124	0xbd894c2b	-0.06703981
125	0xbdc1ac08	-0.094566405
126	0x3d9e9049	0.07742364
127	0x3baec3b1	0.005333387
128	0xbdca9747	-0.09892135
129	0x3e44558e	0.19173262
130	0x3e1db112	0.15399578
131	0xbee018bf	-0.4376888
132	0xbc65d1dd	-0.014027086
133	0x3d42e871	0.047584955
134	0x3edec137	0.43506786
135	0x3e3d0a17	0.1846088
136	0x3e1e85ae	0.15480682
137	0xbe54fc76	-0.20799431
138	0xbe42227e	-0.1895847
139	0xbda41415	-0.08011643
140	0x3ee220e4	0.4416572
141	0x3df6bfb1	0.12048281
142	0x3d69d6d4	0.05708964
143	0xbe358151	-0.17725112
144	0x3e2d7825	0.16940363
145	0x3db48714	0.088148266
146	0xbe2ef17a	-0.17084303
147	0xbe20c222	-0.15699056
148	0xbe1106f3	-0.14162807
149	0xbeabc775	-0.3355061
150	0xbd57c3a3	-0.052676808
151	0x3cc62673	0.024188256
152	0x3c9178be	0.01775777
153	0x3cc8aa31	0.024495216
154	0xbdcf8f75	-0.10134784
155	0xbdfd6642	-0.1237302
156	0xbd582c55	-0.052776653
157	0xba63bf62	-0.0008687881
158	0x3bbdadbb	0.0057885326
159	0xbe4aa095	-0.1978782
160	0x3ccbfdc0	0.02490127
161	0xbe36ffd5	-0.1787103
162	0xbe0a648b	-0.13514917
163	0xbc03174b	-0.008001159
164	0xbd408ba9	-0.04700819
165	0xbe0af8c9	-0.13571467
166	0xbdff9c4b	-0.124809824
167	0x3ce65e62	0.028121177
168	0x3d438e20	0.047742963
169	0xbe29734e	-0.16547891
170	0xbddbf954	-0.10740915
171	0xbc7582e9	-0.014984825
172	0xbd806394	-0.06268993
173	0xbe06a3b1	-0.13148381
174	0xbdca2588	-0.0987044
175	0xbd1e0c86	-0.038586162
176	0xbca046b7	-0.01956497
177	0xbd9516b1	-0.07279719
178	0x3d5e4f63	0.054274928
179	0xbb87c69e	-0.00414355
180	0x3dbb54bd	0.09147022
181	0x3d672ba8	0.05643812
182	0x3dc0a60c	0.09406671
183	0xbc5fc90f	-0.013658776
184	0x3ae15400	0.0017191172
185	0x3d041abc	0.03225206
186	0xbd8d6c89	-0.06905467
187	0xbdcaa31f	-0.09894394
188	0xbe074227	-0.13208829
189	0xbd0aaa77	-0.033853974
190	0xbdd24761	-0.10267521
191	0xbd5001b3	-0.05078287
192	0xbc0c8c81	-0.008578421
193	0xbe18d7d2	-0.14926079
194	0xbe55a08e	-0.20862028
195	0x3d3de24b	0.046358388
196	0xbb4d4de1	-0.0031326937
197	0xbe08972a	-0.13338915
198	0x3cbcf1ac	0.023064457
199	0xbde547c0	-0.11195326
200	0xbe048429	-0.1294104
201	0xbe39f5a3	-0.18160109
202	0xbdd47546	-0.10373931
203	0xbe388633	-0.18019943
204	0xbda046bc	-0.078259915
205	0xbdea8ff7	-0.1145324
206	0xbd7abf46	-0.06121757
207	0xbd26367e	-0.04057931
208	0xbe1729b7	-0.14762007
209	0xbdf1e534	-0.11811295
210	0xbde321e8	-0.110904515
211	0xbdd1c7fc	-0.10243222
212	0xbd79c87a	-0.060982205
213	0xbdb568c4	-0.08857873
214	0x3b72e89b	0.0037064913
215	0xbd6c7365	-0.057727236
216	0x3cfd950e	0.030954864
217	0xbe1ac385	-0.15113647
218	0xbe348424	-0.17628533
219	0xbe2536f9	-0.16134252
220	0x3b02e8f6	0.0019975281
221	0x3d37b683	0.04485179
222	0xbdfabe1b	-0.12243291
223	0xbd907fc0	-0.070556164
224	0x3d62a8a7	0.05533662
225	0xbde924d7	-0.1138398
226	0xbdb4d968	-0.088305295
227	0x3e05f977	0.13083445
228	0xbdab2c66	-0.08358078
229	0x3d6c16af	0.05763882
230	0x3d28a720	0.041175008
231	0xbdca513e	-0.09878777
232	0xbd942e42	-0.072353855
233	0xbd36c26f	-0.04461902
234	0xbe012880	-0.12613106
235	0xbe56ee28	-0.20989287
236	0x3d0fe525	0.03513064
237	0xbe48699c	-0.19571537
238	0xbdd9fc30	-0.10643804
239	0xbe097e8b	-0.13427179
240	0xbd52d988	-0.051476985
241	0xbcc7a850	-0.02437225
242	0xbe64f1cd	-0.22357865
243	0xbdd050f1	-0.10171688
244	0xbd0951fc	-0.033525452
245	0xbde313fa	-0.110877946
246	0xbd617d6f	-0.055051263
247	0x3de09c2b	0.10967287
248	0x3cbeb428	0.023279265
249	0xbd7af0b9	-0.061264727
250	0xbba52bc6	-0.0050406186
251	0xbe373ceb	-0.17894332
252	0xbd9d5b54	-0.07683435
253	0xbdb51232	-0.08841361
254	0xbeaca487	-0.33719274
255	0xbdc63c12	-0.09679426

model.network.2.conv1.bias f4 [25]
0	0xbcd40ff9	-0.025886523
1	0xbe00131b	-0.12507288
2	0xbd1385db	-0.036016326
3	0xbe3e1cb3	-0.18565635
4	0x3ea4254b	0.32059702
5	0xbe12c6e5	-0.14333685
6	0x3ded6dca	0.11593206
7	0xbd007930	-0.031365573
8	0xbe27ab83	-0.1637402
9	0x3e008eb4	0.12554437
10	0xbe611c04	-0.21983343
11	0x3ec0649d	0.37576762
12	0x3eeb1629	0.45915344
13	0xbe1ba7c5	-0.15200718
14	0xbe13670c	-0.14394778
15	0xbbfab00c	-0.007650381
16	0xbe87fe22	-0.26561075
17	0xbd904379	-0.070441194
18	0xbe8f60c0	-0.28003502
19	0xbe4e261f	-0.2013173
20	0xbe458031	-0.19287182
21	0x3ea85f87	0.32885382
22	0x3d751af4	0.059840158
23	0x3c29c961	0.010362954
24	0x3e4faa3c	0.20279783
