Task1/model/traffic_timesnet_model.pth (torch, 149858 bytes, 18 tensors)

model.model.0.conv.0.weight f4 [128, 64, 1]
-0.064475015 0.046908557 0.10633625 -0.028700411 -0.0867389 0.12483394 0.08134997 -0.08687124
-0.031869307 0.020068616 0.109841436 -0.053607658 -0.025539666 -0.0648824 0.051381275 -0.0054760724
0.0704125 -0.059829533 -0.121215075 -0.025306001 0.04385583 0.08201279 -0.115170404 0.05884534
-0.07002951 0.02945748 -0.028826848 -0.07486108 0.079633296 0.05992861 -0.014139205 0.07016273
0.10518755 0.028010473 0.08896352 -0.101375446 0.0068918616 -0.0025880039 0.09317881 -0.05377488
0.054363802 0.056968704 -0.08404316 -0.028732687 0.05169636 -0.10547288 0.024687529 -0.122559726
0.112288 -0.03270459 -0.118190885 -0.010462895 -0.087236196 0.030059323 0.09988628 0.100173086
-0.007782653 0.09730367 -0.017782092 -0.05327852 0.014641568 -0.09003201 -0.07391484 -0.089224875
0.08219555 -0.008470327 0.062428474 -0.036390886 -0.062846094 -0.090757996 -0.092003405 -0.06391144
-0.013180643 0.08956824 0.08061908 0.039870664 0.015994579 -0.108867586 -0.060970068 -0.06591451
0.0073703527 0.023674458 0.04520029 0.069900766 0.053544283 -0.05795829 -0.09469068 -0.09143457
-0.07673071 -0.09781164 -0.081952766 -0.006881684 0.04836893 0.09524123 -0.031192392 -0.11109659
0.08696285 0.03138648 0.112347856 -0.029487297 -0.114615485 -0.028029382 -0.08665423 -0.022094697
-0.07009432 -0.09286772 0.051631644 0.10456215 -0.022001222 -0.0761389 -0.02984503 -0.06618109
0.09918247 -0.0054206103 -0.006922677 -0.03271976 0.059133634 -0.06897655 0.055189 -0.09856054
0.023522139 -0.041583017 0.071303576 0.007597223 -0.02535373 -0.11189251 0.05032751 -0.10210779
-0.06336652 -0.017456174 -0.073352516 -0.081998125 -0.04166989 0.08244933 -0.029771969 -0.08434902
0.11279586 0.008616865 -0.014086768 -0.043558076 -0.08487794 -0.011979014 0.07406849 -0.11352807
0.06864071 -0.012592465 -0.004569575 -0.07258466 0.037898183 0.07517411 0.02703017 0.10929328
0.07655716 0.11324787 -0.102164075 -0.02307053 -0.042930976 0.086082175 0.10813686 0.05926618
-0.095533445 0.06498353 0.12190516 0.01524286 -0.03126657 -0.061029673 0.10855964 -0.024769425
-0.022838116 0.025653526 0.06589463 -0.051343083 -0.043550596 -0.005186856 -0.08666544 -0.075633526
0.10290511 0.051832795 0.0076223463 -0.06966846 0.1115285 -0.05089563 0.07368949 0.09677763
-0.00026534498 0.093869686 -0.025428072 -0.10814862 -0.041918844 -0.092063546 0.05910942 0.040051877
-0.110511556 0.02377756 0.044668213 0.031277806 0.098664865 -0.12060197 -0.066099 0.015980631
0.05732526 -0.055742323 0.0104748905 -0.063888416 -0.0567196 0.120579764 -0.038476452 -0.009738356
-0.030325264 0.04412426 -0.035900667 -0.05799535 0.0040118992 -0.042210653 0.09254697 0.1035451
-0.023082793 0.029225409 0.1002586 0.0015158057 -0.09654133 0.022385776 -0.07111505 -0.083523124
-0.040806055 -0.089604154 0.06130922 -0.12031123 0.11237727 -0.0017935783 0.08194864 -0.018266037
0.019624546 0.090681285 -0.044370577 -0.043485865 -0.061275825 -0.07134645 -0.07688822 0.11690061
0.027691096 -0.02824387 0.11146629 0.044913918 0.095155895 0.066363156 -0.030117065 -0.08831236
-0.03127195 0.09033993 0.038458586 -0.12042901 -0.11445737 0.12403567 0.0049285144 -0.0028744638
00000000: 7a0b 84bd 3023 403d d2c6 d93d 201d ebbc
00000010: 2aa4 b1bd f0a8 ff3d d09a a63d 8ce9 b1bd
00000020: 6489 02bd f066 a43c 8cf4 e03d b493 5bbd
00000030: 9038 d1bc 10e1 84bd 2c75 523d a070 b3bb
00000040: 6e34 903d d00f 75bd 9c3f f8bd 884e cfbc
00000050: 2ca2 333d 52f6 a73d 76de ebbd d007 713d
00000060: a26b 8fbd d050 f13c 4826 ecbc c450 99bd
00000070: c816 a33d b477 753d 20a8 67bc 7ab1 8f3d
00000080: 926c d73d 3876 e53c 8232 b63d ee9d cfbd
00000090: 20d5 e13b 809b 29bb 88d4 be3d 0c43 5cbd
000000a0: 94ac 5e3d 0458 693d d21e acbd d060 ebbc
000000b0: 90bf 533d 2a02 d8bd 803d ca3c 9800 fbbd
000000c0: 40f7 e53d 40f5 05bd 100e f2bd 906c 2bbc
000000d0: e4a8 b2bd f83e f63c 2e91 cc3d 8c27 cd3d
000000e0: a005 ffbb 2647 c73d c0ab 91bc 943a 5abd
000000f0: 30e3 6f3c b462 b8bd aa60 97bd 88bb b6bd
00000100: 2456 a83d 20c7 0abc 00b5 7f3d 9c0e 15bd
00000110: 74b5 80bd 54df b9bd 486c bcbd 00e4 82bd
00000120: a0f3 57bc 8e6f b73d 9e1b a53d 6c4f 233d
00000130: 1007 833c f8f5 debd c0bb 79bd 30fe 86bd
00000140: 0083 f13b f0f0 c13c f023 393d 2228 8f3d
00000150: 4051 5b3d ac65 6dbd 30ed c1bd 0c42 bbbd
00000160: fe24 9dbd 7851 c8bd dad6 a7bd c07f e1bb
00000170: 801e 463d d60d c33d 3087 ffbc 9c86 e3bd
00000180: 9419 b23d 1c8f 003d a216 e63d 588f f1bc
00000190: 86bb eabd e09d e5bc c677 b1bd f0ff b4bc
000001a0: 9c8d 8fbd 6e31 bebd b47b 533d ae24 d63d
000001b0: e83b b4bc b6ee 9bbd 907d f4bc f489 87bd
000001c0: 2e20 cb3d 609f b1bb a0d7 e2bb 2805 06bd
000001d0: 1c36 723d 9443 8dbd dc0d 623d 1cda c9bd
000001e0: 80b1 c03c f452 2abd 9c07 923d 20f2 f83b
000001f0: a0b2 cfbc e627 e5bd 3824 4e3d e41d d1bd
00000200: 4ec6 81bd 4000 8fbc d839 96bd a2ee a7bd
00000210: 0cae 2abd 32db a83d 58e4 f3bc 2ebf acbd
00000220: 8401 e73d c02d 0d3c 30cc 66bc f469 32bd
00000230: 7cd4 adbd a043 44bc 38b1 973d 6881 e8bd
00000240: 8093 8c3d a050 4ebc 60bc 95bb 44a7 94bd
00000250: 203b 1b3d e2f4 993d 606e dd3c 28d5 df3d
00000260: 00ca 9c3d 80ee e73d 663b d1bd 68fe bcbc
00000270: 64d8 2fbd da4b b03d dc76 dd3d 18c1 723d
00000280: 0aa7 c3bd 1616 853d 6aa9 f93d 30bd 793c
00000290: 6011 00bd 40fa 79bd 8454 de3d 40e9 cabc
000002a0: 0017 bbbc 5827 d23c c4f3 863d 204d 52bd
000002b0: 1c62 32bd 80f6 a9bb a67d b1bd c0e5 9abd
000002c0: eabf d23d a04e 543d e0c4 f93b 56ae 8ebd
000002d0: 0e69 e43d f077 50bd 84ea 963d 5a33 c63d
000002e0: 001e 8bb9 c03e c03d 884e d0bc 067d ddbd
000002f0: 18b3 2bbd d08b bcbd b81c 723d 700d 243d
00000300: e253 e2bd 28c9 c23c 04f6 363d 281d 003d
00000310: ce10 ca3d 2afe f6bd ea5e 87bd d0e9 823c
00000320: e4cd 6a3d 1052 64bd e09e 2b3c eed7 82bd
00000330: d052 68bd 86f2 f63d 7c99 1dbd a08d 1fbc
00000340: b06c f8bc a4bb 343d 940c 13bd 888c 6dbd
00000350: 4076 833b 14e5 2cbd 4489 bd3d 740f d43d
00000360: 2018 bdbc 206a ef3c 6254 cd3d 00ae c63a
00000370: 76b7 c5bd 6062 b73c c4a4 91bd 2c0e abbd
00000380: 4024 27bd 6282 b7bd 601f 7b3d bc65 f6bd
00000390: 0e26 e63d 8016 ebba b0d4 a73d a8a2 95bc
000003a0: a8c3 a03c 1cb7 b93d ecbd 35bd 3c1e 32bd
000003b0: 5cfc 7abd 161e 92bd 9277 9dbd 9669 ef3d
000003c0: 70d8 e23c b05f e7bc 7048 e43d a8f7 373d
000003d0: 18e1 c23d 68e9 873d 10b8 f6bc 1cdd b4bd
000003e0: 0417 00bd 2404 b93d c086 1d3d 7ca3 f6bd
000003f0: a068 eabd 6a06 fe3d 607f a13b 8061 3cbb

model.model.0.conv.2.weight f4 [64, 128, 1]
0.05433499 0.0207035 0.016269231 0.020303527 -0.010483944 0.02219218 -0.04102004 -0.05305229
-0.0650436 0.033422705 -0.08242243 0.009222342 -0.028512733 0.066949636 -0.020299934 -0.06620571
0.0141215855 0.015400437 0.05008508 0.07732954 0.04543287 0.08755459 0.028688254 -0.053541195
0.05846738 -0.04779676 0.07138121 -0.047649696 0.075826965 -0.07038252 0.009919693 0.03540017
-0.07143464 0.02333654 -0.07428501 -0.03578628 -0.05603082 -0.02880856 0.086511336 -0.047975007
-0.028874278 -0.039211646 0.08177058 0.05472095 -0.08604259 -0.041628927 0.08275351 0.054223344
-0.075657755 -0.078017876 0.08339558 -0.004288568 -0.063102156 -0.047598522 0.031777777 0.07742161
-0.0017422559 0.00609494 0.00096976734 0.041563757 -0.019426968 -0.06787173 -0.043911546 -0.072029114
-0.010862265 0.07102751 -0.02527127 -0.047751557 -0.059223697 -0.0077403 0.05834012 -0.03090128
0.076497585 0.040980708 -0.054801628 -0.017303547 -0.08322871 0.0103457235 -0.051014576 -0.06631886
0.062226545 -0.07412279 -0.031625383 -0.005229307 0.0006968033 0.025115486 -0.022493435 0.041484784
-0.039179068 -0.008645383 -0.054259263 -0.044464365 0.086572446 0.06741904 -0.07741402 -0.005462242
0.0771077 -0.031102361 0.0152729 0.026251808 0.01735838 0.02692484 -0.04536358 0.04009284
-0.018378764 0.0012981755 -0.010122735 0.062285677 0.07689381 -0.057615004 -0.06641817 0.03650998
0.021391759 0.07977467 -0.086096056 -0.00084890076 -0.047746446 -0.03390123 -0.06484178 0.037564885
-0.004725252 -0.03358228 -0.086513735 0.076973125 0.051780004 0.018882252 0.06937811 -0.053472444
-0.059920784 0.016932696 0.012575734 -0.06708105 -0.02887841 0.062444866 -0.010888301 -0.08145377
-0.0790875 0.030502496 -0.00079569034 -0.042669088 0.016565366 0.057495486 -0.07119578 0.06553938
-0.07022779 0.05514813 -0.051149994 -0.059701588 -0.016841449 -0.004502927 0.02468621 -0.05971411
-0.084576815 0.046258748 -0.027919294 0.059135538 0.086730994 0.045871492 -0.07380935 -0.048818145
0.0039209737 -0.024498792 0.0282712 -0.07005491 0.077095374 -0.0573754 -0.08430422 -0.0851498
-0.08379681 0.08342289 -0.0012445964 -0.075675964 -0.06343005 -0.08760177 0.079430245 -0.0062814294
0.07483054 0.01650871 0.061101772 -0.024280503 0.025055321 0.048366543 0.06507817 -0.047888704
0.048930194 0.005625382 -0.08359093 -0.027219519 0.084094554 -0.030926673 -0.04868884 0.059815627
-0.048514362 0.06933769 -0.055311196 0.042391807 0.025344416 -0.010683868 -0.07653107 0.077681765
-0.015443321 -0.04636245 -0.06970748 0.023311632 -0.054011628 -0.072704285 -0.03781663 -0.026842305
0.017522858 -0.080721036 -0.05596346 -0.03692297 0.04907145 -0.033498548 -0.06147279 -0.044516724
0.024702804 0.032688104 0.02819504 0.08411517 0.02118994 0.05335775 -0.06849662 -0.047935255
0.032265056 -0.006559746 -0.08717317 0.032861676 0.06412934 -0.035934962 0.05775512 -0.054486908
0.024119176 0.08467793 0.05447086 0.025742883 -0.08580074 0.039134495 -0.011204044 0.047844112
0.041044097 0.0134248035 -0.020393679 -0.043770354 0.06923506 0.07599943 0.06389242 0.06433099
-0.0874763 -0.06571229 0.036960814 -0.017761914 -0.044432364 -0.01974799 0.015300318 -0.08799007
00000000: 5e8e 5e3d 639a a93c 0d47 853c 9553 a63c
00000010: d9c4 2bbc 60cc b53c a104 28bd 5c4d 59bd
00000020: 9435 85bd 3fe6 083d 17cd a8bd 4e19 173c
00000030: 8993 e9bc e41c 893d 0c4c a6bc dc96 87bd
00000040: 395e 673c 1d52 7c3c 0326 4d3d f35e 9e3d
00000050: d117 3a3d d24f b33d a103 eb3c 034e 5bbd
00000060: 7e7b 6f3d 89c6 43bd 5030 923d 542c 43bd
00000070: 2b4b 9b3d b624 90bd 3586 223c c5ff 103d
00000080: 534c 92bd 462c bf3c bd22 98bd a294 12bd
00000090: 9380 65bd eeff ebbc db2c b13d 7181 44bd
000000a0: c089 ecbc 649c 20bd 5577 a73d 1323 603d
000000b0: 1937 b0bd 1883 2abd ac7a a93d 4c19 5e3d
000000c0: 74f2 9abd d6c7 9fbd 4dcb aa3d 1e87 8cbb
000000d0: b43b 81bd abf6 42bd 6a29 023d 398f 9e3d
000000e0: 685c e4ba 10b8 c73b fc37 7e3a c23e 2a3d
000000f0: 4e25 9fbc 5500 8bbd 98dc 33bd 0084 93bd
00000100: a4f7 31bc df76 913d b205 cfbc 2397 43bd
00000110: 8c94 72bd 58a2 fdbb 0df6 6e3d ae24 fdbc
00000120: c4aa 9c3d 63db 273d ac77 60bd 2bc0 8dbc
00000130: d073 aabd 1c81 293c a9f4 50bd 2fd2 87bd
00000140: 43e1 7e3d b0cd 97bd 9e89 01bd 9b5a abbb
00000150: aea9 363a febe cd3c 2744 b8bc f3eb 293d
00000160: 3b7a 20bd 5da5 0dbc f63e 5ebd 4420 36bd
00000170: e54c b13d fe12 8a3d 3e8b 9ebd 9bfc b2bb
00000180: a4ea 9d3d 61ca febc 303b 7a3c 080e d73c
00000190: 2933 8e3c 7b91 dc3c 29cf 39bd 6438 243d
000001a0: 108f 96bc 8b27 aa3a d4d9 25bc 441f 7f3d
000001b0: 807a 9d3d b6fd 6bbd 4006 88bd 7d8b 153d
000001c0: c53d af3c e760 a33d 2153 b0bd c488 5eba
000001d0: c791 43bd 04dc 0abd c4cb 84bd a3dd 193d
000001e0: 49d6 9abb 938d 09bd 1d2e b1bd 16a4 9d3d
000001f0: 4517 543d f4ae 9a3c 1c16 8e3d ec05 5bbd
00000200: 7f6f 75bd 70b6 8a3c 740a 4e3c ca61 89bd
00000210: 6a92 ecbc 30c6 7f3d d864 32bc 3cd1 a6bd
00000220: a1f8 a1bd 5fe0 f93c e095 50ba c8c5 2ebd
00000230: 17b4 873c 6380 6b3d 18cf 91bd 8339 863d
00000240: 96d3 8fbd 01e3 613d a882 51bd a789 74bd
00000250: 14f7 89bc 4a8d 93bb bc3a ca3c c896 74bd
00000260: 9c36 adbd d079 3d3d 01b7 e4bc 1b38 723d
00000270: 05a0 b13d bfe3 3b3d 5b29 97bd 89f5 47bd
00000280: 837b 803b b1b1 c8bc 0199 e73c f378 8fbd
00000290: 2ee4 9d3d 7802 6bbd b1a7 acbd 0563 aebd
000002a0: a99d abbd 9fd9 aa3d ba21 a3ba 00fc 9abd
000002b0: 9de7 81bd 8f68 b3bd 53ac a23d 73d4 cdbb
000002c0: c140 993d 463d 873c da45 7a3d e8e7 c6bc
000002d0: d140 cd3c ff1b 463d b447 853d f226 44bd
000002e0: 076b 483d 2055 b83b b931 abbd 78fb debc
000002f0: c439 ac3d ef59 fdbc f36d 47bd 3b01 753d
00000300: ffb6 46bd eb00 8e3d fe8d 62bd 08a3 2d3d
00000310: 189f cf3c 640b 2fbc 52bc 9cbd 9e17 9f3d
00000320: fc05 7dbc 8de6 3dbd ccc2 8ebd 09f8 be3c
00000330: 4c3b 5dbd fce5 94bd 9ce5 1abd 65e4 dbbc
00000340: 198c 8f3c 1251 a5bd f139 65bd 8a3c 17bd
00000350: 25ff 483d c635 09bd e4ca 7bbd 2b57 36bd
00000360: 895d ca3c f6e3 053d 49f9 e63c 9344 ac3d
00000370: 8696 ad3c a88d 5a3d f547 8cbd c257 44bd
00000380: 5d28 043d 23f3 d6bb d987 b2bd f799 063d
00000390: 3e56 833d 8a30 13bd a290 6c3d aa2d 5fbd
000003a0: 9495 c53c 9f6b ad3d d61c 5f3d bde2 d23c
000003b0: 4cb8 afbd 7e4b 203d 2b91 37bc 30f8 433d
000003c0: db1d 283d b5f3 5b3c a510 a7bc 8b48 33bd
000003d0: 1ccb 8d3d 97a5 9b3d 07da 823d f7bf 833d
000003e0: c626 b3bd 2a94 86bd 3964 173d 6f81 91bc
000003f0: b6fe 35bd 89c6 a1bc 2fae 7a3c 2334 b4bd

model.model.0.inception.0.weight f4 [1, 1, 1, 3]
0.21576983 -0.2429754 0.6386957
00000000: c4f2 5c3e 8bce 78be 9081 233f

model.model.0.inception.1.weight f4 [1, 1, 1, 5]
0.4276487 0.14377345 -0.70341986 0.9154904 1.3655137
00000000: c5f4 da3e 5939 133e 5313 34bf 945d 6a3f
00000010: 27c9 ae3f

model.model.0.inception.2.weight f4 [1, 1, 1, 7]
-0.13486253 0.15824464 -0.44464317 -0.44402233 0.8338365 1.3390425 1.2360975
00000000: 6719 0abe e20a 223e 45a8 e3be e556 e3be
00000010: 4f76 553f bf65 ab3f 7138 9e3f

model.model.0.inception.3.weight f4 [1, 1, 1, 9]
0.35581684 0.50096387 0.039593164 0.058446478 -0.8033625 0.79700756 1.0318019 1.1049123
4.0352693
00000000: a02d b63e 2b3f 003f 712c 223d 9365 6f3d
00000010: 2aa9 4dbf b008 4c3f 1612 843f c46d 8d3f
00000020: ed20 8140

model.model.1.conv.0.weight f4 [128, 64, 1]
-0.025635347 0.018816963 -0.058642626 -0.1188025 -0.092963845 -0.10972485 0.071754694 0.02962181
-0.10722616 -0.09492746 -0.0561544 0.0414443 -0.07936214 0.09302975 -0.040400535 -0.038588017
0.11459495 -0.038941145 0.12340696 -0.07612477 0.05279085 0.07003325 -0.08908248 -0.038603485
-0.040559053 -0.08035424 -0.09171432 -0.09318276 -0.010954678 -0.073951885 -0.0465319 -0.08667214
0.121236995 -0.04498081 0.06068617 -0.039745808 0.12020002 -0.038054213 -0.002443537 0.09756325
0.0037297606 -0.012007177 -0.03223075 0.04561925 0.043695062 0.06748247 -0.027157068 -0.024728939
-0.04831353 0.096191525 0.07316424 -0.07136485 0.0029059649 -0.11178875 -0.02466707 -0.114090815
0.07387082 -0.04931882 -0.10495077 -0.10562599 0.09733474 0.019535184 -0.08908051 0.028418839
-0.03063564 0.0070488304 0.094974935 -0.12494488 0.09522727 0.06308308 0.10766572 0.09578638
0.03968899 0.018178552 -0.1050784 0.05888979 0.105845824 -0.05170551 -0.06314212 0.06699927
-0.1236994 0.11900364 -0.079463154 0.069092914 -0.10444336 -0.0054232776 -0.070295975 -0.012026161
0.1091422 -0.014514416 0.082014844 0.005155891 0.10997209 0.006483808 0.07564843 -0.018828854
-0.100114256 -0.067744076 -0.073338896 0.04560615 -0.06775127 -0.06191556 -0.03263119 -0.07690434
0.022791833 -0.07691142 0.057421282 -0.026275843 -0.052467212 -0.0453493 0.08851263 0.046001762
-0.005824566 2.5704503e-05 -0.05334139 -0.0441045 -0.008936137 0.025936455 -0.025268495 -0.07015291
-0.0025448203 -0.005170107 -0.09596126 0.018217027 0.01758577 0.08757645 0.08350001 -0.09049915
-0.022862017 -0.11529133 0.044020623 0.015793338 0.067252666 -0.045104906 0.072160155 -0.12101033
-0.1131303 -0.013594806 0.047626346 0.0014459789 0.07545155 0.00902386 -0.005227864 0.027572349
0.01466997 -0.08460735 0.10559611 0.06578244 -0.11780597 0.075294 0.09860575 -0.060051396
0.034047827 0.01555112 0.0032868236 -0.11907786 0.012393817 -0.11910018 0.012444392 -0.08872181
0.09578258 0.00018674135 -0.053412467 0.029548198 -0.0028413087 0.08426365 -0.029238239 -0.06356798
-0.08806068 0.068821535 0.06428051 -0.096821114 0.053312838 0.107661724 0.0058986247 -0.11732292
-0.004491955 0.05632077 -0.032810763 0.051914543 0.083542794 0.07844493 -0.08927606 0.06261812
-0.022253588 0.112713054 -0.07422839 -0.07087724 -0.07222654 0.070061445 0.047824353 -0.029497325
0.09729016 0.012719795 0.04678738 0.0026483238 -0.016375855 -0.059305593 0.10387507 0.0047391653
0.0067115426 -0.07285133 0.108353466 -0.11646807 -0.12312147 -0.07327007 0.044376984 -0.107955664
-0.09501092 -0.07191807 0.07246092 0.06320341 0.10871124 0.005254209 -0.042272344 -0.08254965
-0.056680173 0.10574986 -0.095180586 -0.072724715 0.00025117397 -0.1148099 -0.019557953 0.0021817982
0.024501175 0.077412665 -0.10108821 0.058629483 -0.07202321 0.05217582 0.030475512 0.10258651
0.070373535 0.08606006 0.07724078 0.017646477 0.09735803 0.1042715 0.090662345 -0.098801985
-0.022546813 0.04584208 0.11530191 -0.071832106 0.12181395 -0.0055760294 -0.06329191 0.100908384
0.006032482 0.09506883 0.02391681 0.086559996 -0.092095405 0.06294328 0.07424675 0.020568624
00000000: 3801 d2bc 0826 9a3c 4033 70bd ba4e f3bd
00000010: d463 bebd 6cb7 e0bd 20f4 923d 70a9 f23c
00000020: 6499 dbbd 5469 c2bd 2802 66bd 80c1 293d
00000030: 9e88 a2bd 6286 be3d 087b 25bd 780e 1ebd
00000040: c2b0 ea3d c080 1fbd cabc fc3d 4ee7 9bbd
00000050: 383b 583d 986d 8f3d e070 b6bd b01e 1ebd
00000060: 4021 26bd c490 a4bd b8d4 bbbd 9ad6 bebd
00000070: 407b 33bc 1674 97bd 3c98 3ebd 2a81 b1bd
00000080: 1a4b f83d cc3d 38bd 1092 783d 80cc 22bd
00000090: 6e2b f63d bcde 1bbd c023 20bb 3ecf c73d
000000a0: 006f 743b c0b9 44bc 6404 04bd 40db 3a3d
000000b0: 98f9 323d 4034 8a3d 8078 debc 5894 cabc
000000c0: 68e4 45bd 1000 c53d 22d7 953d bc27 92bd
000000d0: 0072 3e3b 80f1 e4bd 9812 cabc 72a8 e9bd
000000e0: 9649 973d 8802 4abd 6ef0 d6bd 7052 d8bd
000000f0: 7057 c73d 4008 a03c d86f b6bd a0ce e83c
00000100: 98f7 fabc e0f9 e63b 3882 c23d 1ae3 ffbd
00000110: 8406 c33d b431 813d d87f dc3d a62b c43d
00000120: ec90 223d 30eb 943c 5833 d7bd 6c36 713d
00000130: b2c5 d83d 28c9 53bd a850 81bd ea36 893d
00000140: 1c56 fdbd 2eb8 f33d 94bd a2bd 9680 8d3d
00000150: 66e6 d5bd c0b5 b1bb 56f7 8fbd 6009 45bc
00000160: f285 df3d e0cd 6dbc 66f7 a73d c0f2 a83b
00000170: 0c39 e13d 2076 d43b 90ed 9a3d f83e 9abc
00000180: b408 cdbd 68bd 8abd b432 96bd 84cd 3a3d
00000190: 2ec1 8abd 2c9b 7dbd 48a8 05bd 0680 9dbd
000001a0: f0b5 ba3c bc83 9dbd 9432 6b3d 7040 d7bc
000001b0: dce7 56bd 30c0 39bd 1c46 b53d 586c 3c3d
000001c0: 00dc bebb 00a0 d737 807c 5abd eca6 34bd
000001d0: e068 12bc b078 d43c e0ff cebc 54ac 8fbd
000001e0: 00c7 26bb 006a a9bb 5687 c4bd e03b 953c
000001f0: 0810 903c 485b b33d 0e02 ab3d 9e57 b9bd
00000200: 2049 bbbc dc1d ecbd f84e 343d 0861 813c
00000210: c4bb 893d ecbf 38bd b4c8 933d 44d4 f7bd
00000220: dcb0 e7bd c0bc 5ebc d813 433d 0087 bd3a
00000230: 5886 9a3d d0d8 133c 804e abbb 68df e13c
00000240: 505a 703c 9e46 adbd c642 d83d f2b8 863d
00000250: 4244 f1bd be33 9a3d d0f1 c93d 74f8 75bd
00000260: bc75 0b3d 20ca 7e3c c067 573b 18df f3bd
00000270: 700f 4b3c ccea f3bd 90e3 4b3c c8b3 b5bd
00000280: a829 c43d 00d0 4339 08c7 5abd 100f f23c
00000290: 4035 3abb 6c92 ac3d 0885 efbc ee2f 82bd
000002a0: 2859 b4bd 4ef2 8c3d 80a5 833d 264a c6bd
000002b0: 905e 5a3d c07d dc3d 4049 c13b 0047 f0bd
000002c0: 4031 93bb 9cb0 663d 9464 06bd 58a4 543d
000002d0: 7c18 ab3d bca7 a03d 5ed6 b6bd ee3d 803d
000002e0: 284d b6bc 1ad6 e63d 0e05 98bd 1628 91bd
000002f0: 82eb 93bd 607c 8f3d 78e3 433d 60a4 f1bc
00000300: 1040 c73d b066 503c 20a4 3f3d 808f 2d3b
00000310: a826 86bc 6cea 72bd 74bc d43d 004b 9b3b
00000320: 80ec db3b 1433 95bd 6ce8 dd3d d086 eebd
00000330: 1c27 fcbd 9e0e 96bd a4c4 353d dc17 ddbd
00000340: 1695 c2bd c849 93bd 6466 943d ca70 813d
00000350: 00a4 de3d 802b ac3b c425 2dbd ca0f a9bd
00000360: 7829 68bd 6293 d83d 0aee c2bd b2f0 94bd
00000370: 00b0 8339 7421 ebbd 0038 a0bc 80fc 0e3b
00000380: b0b6 c83c 888a 9e3d 5607 cfbd 7825 703d
00000390: e880 93bd 50b6 553d c8a7 f93c e018 d23d
000003a0: 0020 903d 4240 b03d 6a30 9e3d 588f 903c
000003b0: a663 c73d 4c8c d53d 2ead b93d b258 cabd
000003c0: 18b4 b8bc e8c4 3b3d 6823 ec3d b61c 93bd
000003d0: 9879 f93d 20b7 b6bb 309f 81bd 0ea9 ce3d
000003e0: 20ac c53b 72b3 c23d 30ed c33c 5e46 b13d
000003f0: 849c bcbd 68e8 803d ae0e 983d 887f a83c

model.model.1.conv.2.weight f4 [64, 128, 1]
0.06835195 0.077635325 -0.029118877 -0.05656989 0.054215726 -0.0007599814 -0.07063582 0.07558564
-0.07625375 0.0017461439 0.020624654 0.018061906 0.04393814 0.08208088 -0.088134214 0.03083572
0.07356355 0.018645566 0.078752 0.08264312 -0.06535949 -0.03320706 -0.00039225016 0.08621914
0.069728486 0.07274161 0.027268168 -0.0297976 -0.03941255 -0.019086 0.037324544 -0.00031082248
0.07300561 0.03964653 0.048618928 0.041929424 0.038468577 -0.0753682 -0.026857015 -0.036180004
0.024385028 0.055118352 0.024485517 -0.014143703 -0.039752666 -0.025265729 -0.043184303 0.018628802
-0.046610367 0.048625715 -0.06022185 0.07929333 -0.08260369 -0.08091399 -0.019195909 -0.05779025
-0.06095018 -0.04088552 0.048898656 0.073445275 -0.0849532 0.017185178 0.006698683 -0.0883637
-0.067689404 0.049552206 0.019610949 0.064333126 0.07099453 0.060658816 -0.007009474 -0.011659599
0.041104883 0.0016601539 -0.052812826 -0.06120813 0.061831858 0.036897857 -0.046871055 0.0784631
-0.039870042 -0.0277117 0.0033640875 -0.03408676 0.08503475 -0.00465533 -0.045636587 -0.079058774
0.03235198 0.031570908 -0.04505142 0.008771886 -0.05266825 0.038794897 -0.039385438 0.06526924
-0.037298728 0.004144405 0.00492193 0.07610045 -0.07039329 0.06825142 -0.07458383 0.03062802
-0.06342267 0.010313418 -0.028235216 0.07605643 -0.024562972 0.08242947 -0.057121433 0.0052748676
-0.0033203498 0.011591131 -0.015031441 -0.019865664 -0.019381281 0.06189738 -0.0040909313 -0.08264979
0.020257419 -0.047493163 -0.018059935 0.04192761 0.07483678 -0.016240982 0.08012616 -0.0053444942
0.009203807 -0.033805545 0.078654945 0.06832591 0.08215968 -0.07660743 0.017619837 -0.0141680315
-0.07155326 -0.005046495 0.017590651 -0.06013091 -0.0354591 -0.049678046 0.012803833 0.035910696
0.087347284 -0.029488673 0.012516877 -0.0025253338 0.085851066 -0.05556278 0.0009033228 0.01879976
0.070623815 0.061583184 0.047308836 -0.0045144437 0.030118939 0.043775022 0.088055156 0.020206327
0.03588074 0.023062702 0.057857126 0.014788518 0.036439247 -0.029182889 0.06376822 0.0037914566
0.010931618 -0.027702553 -0.03468753 0.05162071 -0.066302136 -0.0181111 0.017460143 -0.074633546
-0.05805466 -0.04826481 -0.06332242 0.062082477 0.03522231 0.022563536 0.07060873 -0.016081424
0.050428946 0.05373329 0.08387879 -0.0798952 -0.082985036 0.012596502 0.06698261 0.05253745
-0.042857084 0.012264069 -0.021396248 0.001942801 -0.02929563 0.021835713 -0.05941798 -0.08731304
0.07402975 0.0482065 -0.04801924 0.026846351 0.010864867 -0.016538898 0.06954405 -0.018510463
0.0022727794 -0.08413948 0.08816874 0.05775278 0.04046086 -0.06697006 -0.07154957 -0.00029244644
0.031427346 -0.052198198 -0.05625167 -0.00645518 -0.04642231 -0.060019072 0.07618625 -0.0526484
0.045920137 -0.0633996 -0.07694876 -0.07167895 -0.053983547 0.004557539 0.03679347 -0.023842946
0.056701712 0.025087353 -0.065520406 -0.0213633 -0.05388482 0.002571906 0.073579945 0.08495208
-0.08691138 0.07385178 0.07794241 -0.08348683 -0.07965474 -0.025311206 -0.062292505 0.071886264
0.05107729 -0.081629075 -0.07236798 0.036781415 -0.06497257 -0.0027660134 0.03358465 -0.06411375
00000000: 1bfc 8b3d 45ff 9e3d b68a eebc d4b5 67bd
00000010: 4f11 5e3d 7d39 47ba 83a9 90bd a5cc 9a3d
00000020: ed2a 9cbd dede e43a 09f5 a83c 90f6 933c
00000030: 7bf8 333d 051a a83d b67f b4bd 319b fc3c
00000040: 7da8 963d 96be 983c bb48 a13d cc40 a93d
00000050: 32db 85bd 2004 08bd eda6 cdb9 a993 b03d
00000060: cfcd 8e3d 8ef9 943d 7e61 df3c 191a f4bc
00000070: 0e6f 21bd 3e5a 9cbc 9fe1 183d e3f5 a2b9
00000080: f783 953d 6664 223d a424 473d 30be 2b3d
00000090: 3a91 1d3d a55a 9abd 3e03 dcbc 7c31 14bd
000000a0: 1cc3 c73c c8c3 613d da95 c83c fdba 67bc
000000b0: b1d3 22bd 13fa cebc 06e2 30bd 6e9b 983c
000000c0: 83ea 3ebd c22b 473d 30ab 76bd 8b64 a23d
000000d0: 202c a9bd 3cb6 a5bd bd40 9dbc 78b5 6cbd
000000e0: e5a6 79bd 9377 27bd f549 483d 7a6a 963d
000000f0: f1fb adbd eec7 8c3c a080 db3b 07f8 b4bd
00000100: bea0 8abd 41f7 4a3d 24a7 a03c 16c1 833d
00000110: 9565 913d 6175 783d bbaf e5bb e707 3fbc
00000120: 985d 283d 8599 d93a 4352 58bd 60b5 7abd
00000130: 6743 7d3d 3522 173d ddfb 3fbd 43b1 a03d
00000140: c54e 23bd a603 e3bc 0678 5c3b 8f9e 0bbd
00000150: b326 ae3d bd8b 98bb 6eed 3abd 91e9 a1bd
00000160: 8383 043d 7f50 013d d687 38bd f5b7 0f3c
00000170: aaba 57bd 66e7 1e3d a052 21bd e1ab 853d
00000180: 8dc6 18bd cacd 873b 2448 a13b 8dda 9b3d
00000190: 5b2a 90bd 67c7 8b3d 68bf 98bd 9de7 fa3c
000001a0: bfe3 81bd 9cf9 283c 8a4d e7bc 79c3 9b3d
000001b0: 4938 c9bc c8d0 a83d 2af8 69bd ccd8 ac3b
000001c0: 3a9a 59bb bae8 3d3c 6f46 76bc 51bd a2bc
000001d0: 7ec5 9ebc 1b88 7d3d 380d 86bb 4b44 a9bd
000001e0: e3f2 a53c 3188 42bd 6ef2 93bc 49bc 2b3d
000001f0: 0744 993d cf0b 85bc 2f19 a43d de20 afbb
00000200: 91cb 163c af77 0abd d815 a13d 74ee 8b3d
00000210: 5643 a83d 5be4 9cbd 7a57 903c 0821 68bc
00000220: 848a 92bd 115d a5bb 451a 903c d44b 76bd
00000230: 903d 11bd 357b 4bbd 2bc7 513c 1817 133d
00000240: 22e3 b23d 3b92 f1bc 9613 4d3c 1280 25bb
00000250: afd2 af3d cc95 63bd f8cc 6c3a f401 9a3c
00000260: 38a3 903d a63e 7c3d e9c6 413d e6ed 93bb
00000270: febb f63c 704d 333d 4356 b43d bd87 a53c
00000280: aff7 123d feed bc3c 98fb 6c3d 8a4b 723c
00000290: 5241 153d f410 efbc ea98 823d 167a 783b
000002a0: 871a 333c 77f0 e2bc 8314 0ebd 3d70 533d
000002b0: 6ac9 87bd bb5d 94bc 9308 8f3c 79d9 98bd
000002c0: b9ca 6dbd 52b1 45bd 2faf 81bd 324a 7e3d
000002d0: 4545 103d 2ad7 b83c 4f9b 903d 31bd 83bc
000002e0: 958e 4e3d 7017 5c3d a5c8 ab3d 18a0 a3bd
000002f0: 0ff4 a9bd 8f61 4e3c 2e2e 893d 8231 573d
00000300: e98a 2fbd 3cef 483c 2f47 afbc 96a5 fe3a
00000310: 64fd efbc cfe0 b23c 4560 73bd 2ed1 b2bd
00000320: e99c 973d 2e74 453d d3af 44bd e1ec db3c
00000330: 8e02 323c 957c 87bc 1c6d 8e3d 41a3 97bc
00000340: e9f2 143b 5251 acbd d091 b43d 2e8e 6c3d
00000350: 49ba 253d 9927 89bd 9588 92bd 7f53 99b9
00000360: f6b9 003d c7cd 55bd 2768 66bd f985 d3bb
00000370: 5225 3ebd 8fd6 75bd 8907 9c3d d9a5 57bd
00000380: c116 3c3d a6d7 81bd 5097 9dbd 6acc 92bd
00000390: da1d 5dbd 6857 953b c0b4 163d 4852 c3bc
000003a0: 0e40 683d fe83 cd3c 902f 86bd 1602 afbc
000003b0: 54b6 5cbd 6c8d 283b 15b1 963d 5bfb ad3d
000003c0: 98fe b1bd 9a3f 973d 45a0 9f3d 25fb aabd
000003d0: 0622 a3bd 7259 cfbc 6d26 7fbd 1b39 933d
000003e0: 6c36 513d 252d a7bd aa35 94bd 1ca8 163d
000003f0: 5710 85bd 0146 35bb 0f90 093d 124e 83bd

model.model.1.inception.0.weight f4 [1, 1, 1, 3]
0.24120447 -0.19574723 0.4126317
00000000: 4efe 763e f671 48be 7644 d33e

model.model.1.inception.1.weight f4 [1, 1, 1, 5]
-0.35222307 -0.20807526 -0.2101045 0.017387591 0.16071205
00000000: 9556 b4be ae11 55be a225 57be 6c70 8e3c
00000010: b391 243e

model.model.1.inception.2.weight f4 [1, 1, 1, 7]
-0.35995674 -0.36593422 -0.46148348 -0.01511034 0.42426562 0.19441646 0.36020607
00000000: 404c b8be bb5b bbbe 9047 ecbe 5c91 77bc
00000010: 5839 d93e 1c15 473e ee6c b83e

model.model.1.inception.3.weight f4 [1, 1, 1, 9]
-1.0840861 -0.44603494 -0.076058224 -0.2527001 -0.095641345 0.34926528 -0.26812482 -0.1826137
0.54175156
00000000: 55c3 8abf b15e e4be 6ac4 9bbd e861 81be
00000010: 9cdf c3bd e6d2 b23e a847 89be 16ff 3abe
00000020: 3bb0 0a3f

model.enc_embedding.weight f4 [64, 27]
0.037234828 -0.045347977 -0.058026608 -0.18845333 0.011437378 -0.12006468 -0.6816685 -0.08677872
0.012265667 0.10982864 -0.04704293 0.0115989 -0.14261621 0.0715726 0.09763615 0.044320557
-0.19008255 -0.14134598 -0.10860206 -0.0811469 0.17000501 -0.029477086 -0.028161686 0.03561656
0.15381981 -0.088029824 0.122108325 -0.26331785 -0.20100749 -0.2633911 -0.19198368 -0.13467611
0.018505242 0.4650786 -0.0005737316 -0.21736969 0.08975124 0.012878914 -0.23465471 -0.119393416
0.5013844 -0.21415812 0.052156694 0.046801608 -0.3191134 0.23187649 0.17960176 -0.14512572
0.08275149 -0.2593891 0.012228023 -0.2802188 0.40927264 1.428128 -0.101664685 0.0046602474
-0.13523923 -0.053130746 -0.12122103 0.118059814 -0.7249947 0.08958416 0.011891433 -0.12029342
-0.093068644 0.006655873 -0.04978431 -0.25200704 -0.04059921 0.10274807 0.027633168 -0.15536855
0.14165995 0.1640799 -0.008069354 -0.01724011 0.07099455 -0.10136012 0.20451081 -0.074511595
0.62745154 -0.057014223 -0.2547901 -0.04065093 -0.26308393 0.038183365 -0.0802813 0.029892428
-0.17080167 -0.73855525 0.20476748 0.69876724 -0.10784905 -0.5000894 0.35492575 0.5072651
-0.17427145 -0.35266602 0.026524547 -0.07869967 0.14361401 -0.13312294 0.037082214 -0.054382637
0.13675788 -1.7034363 2.6118 2.241552 -0.071665496 -0.010480807 -0.13054366 -0.2998539
0.06297603 -0.07966889 -0.47265428 -0.04187315 0.06652699 -0.037325326 -0.072847344 0.17782459
-0.22533081 -0.12345227 -0.037659585 -0.040712442 -0.06135481 -0.05354384 -0.064738244 0.18993741
0.021376563 -0.036463026 -0.007820704 -0.09587578 0.05520551 0.03526881 0.79380244 0.17068616
0.024156865 -0.17536622 -0.16445772 -0.013825466 -0.21167222 -0.5487964 0.038784437 0.0054849563
-0.03891188 -0.103285015 0.179108 -0.23187448 -0.24431914 -0.18203785 -0.01082768 0.027410561
-0.055027895 -0.101188585 0.00826345 0.19611557 -0.027228074 -0.021978658 0.054867517 -0.02290567
-0.12807488 0.15115836 -0.18411344 -0.1991375 -0.14241321 -0.19525516 0.24228932 -0.14097726
0.38809735 -0.30411935 -0.07427014 0.3642015 0.008952359 -0.14165992 -0.11400125 0.2899484
-0.33239025 0.11248465 -0.13055028 0.25287136 -0.4047714 0.048488043 -0.02063385 0.028974537
-0.023090795 0.07137426 1.5859128 -1.4725736 0.81836224 0.18403332 -0.2476581 -0.0780503
-0.16560331 0.061667014 -0.061820548 -0.60612696 -0.13130397 -0.0069927527 -0.03676684 -0.14473708
-0.02233044 -0.01885056 -0.14628755 -0.13246562 -0.14359671 0.043145135 0.16464166 -0.16251622
0.018885953 0.117271535 -0.031248245 -0.013835 0.07824574 0.088609464 0.016153345 0.67865974
-0.09353579 -0.09782004 -0.20398639 -0.2136862 -0.06691651 0.2282094 0.09906343 0.014989798
-0.2131687 -0.06349613 0.10999429 -0.06277787 -0.41698754 0.5618169 0.1655883 0.1255827
-0.10194648 -0.33504838 0.047512144 -0.07645973 -0.1991863 0.09945326 0.011600932 -0.06393514
-1.4698699 0.021021368 1.3461361 0.05758619 0.26424253 0.017205985 0.05521078 -0.104482435
0.09074437 0.9763819 -0.03454212 -0.10175629 0.049619626 0.20706622 -0.20879671 -0.046019156
00000000: 8c83 183d cdbe 39bd 4fad 6dbd e9f9 40be
00000010: d763 3b3c 79e4 f5bd d481 2ebf 0bb9 b1bd
00000020: f0f5 483c d7ed e03d 16b0 40bd 5009 3e3c
00000030: fc09 12be a894 923d 76f5 c73d 7989 353d
00000040: 00a5 42be 00bd 10be c26a debd 5930 a6bd
00000050: cb15 2e3e ee79 f1bc 56b3 e6bc ace2 113d
00000060: f182 1d3e fb48 b4bd ee13 fa3d 99d1 86be
00000070: e8d4 4dbe 33db 86be 5f97 44be 89e8 09be
00000080: 4e98 973c c81e ee3e 7a66 16ba 2996 5ebe
00000090: 80cf b73d 1502 533c 5349 70be 8984 f4bd
000000a0: ba5a 003f 444c 5bbe 42a2 553d 0bb3 3f3d
000000b0: d562 a3be 0871 6d3e 86e9 373e d69b 14be
000000c0: 9d79 a93d a6ce 84be 0c58 483c d778 8fbe
000000d0: 2f8c d13e e6cc b63f 9335 d0bd fdb4 983b
000000e0: 277c 0abe a09f 59bd bb42 f8bd 58c9 f13d
000000f0: 4199 39bf e677 b73d 49d4 423c 665c f6bd
00000100: c69a bebd 8219 da3b a2ea 4bbd 1107 81be
00000110: 5b4b 26bd 956d d23d f45e e23c ef18 1fbe
00000120: 4e0f 113e 9004 283e 5335 04bc 223b 8dbc
00000130: 9765 913d e595 cfbd 486b 513e 8999 98bd
00000140: aaa0 203f bf87 69bd d973 82be 9781 26bd
00000150: f0b2 86be 2966 1c3d 866a a4bd f7e0 f43c
00000160: a2e6 2ebe f511 3dbf 91ae 513e 69e2 323f
00000170: f6df dcbd dc05 00bf d4b8 b53e 20dc 013f
00000180: 3774 32be a490 b4be 024a d93c 4b2d a1bd
00000190: 8d0f 133e 6151 08be 85e3 173d 54c0 5ebd
000001a0: 420a 0c3e 330a dabf bb27 2740 9775 0f40
000001b0: 5cc5 92bd b1b7 2bbc 3dad 05be 7386 99be
000001c0: 94f9 803d 7129 a3bd beff f1be 2e83 2bbd
000001d0: 4d3f 883d 71e2 18bd fd30 95bd a617 363e
000001e0: 1fbd 66be 8bd4 fcbd f040 1abd 17c2 26bd
000001f0: 2e4f 7bbd c950 5bbd 7c95 84bd f47e 423e
00000200: e71d af3c 415a 15bd 6922 00bc 855a c4bd
00000210: 2c1f 623d 0776 103d a336 4b3f 5ac8 2e3e
00000220: 9ee4 c53c 3493 33be 9b67 28be 3584 62bc
00000230: 9ac0 58be ec7d 0cbf 6edc 1e3d 26bb b33b
00000240: 1062 1fbd 1887 d3bd 1668 373e 8170 6dbe
00000250: cc2e 7abe 2168 3abe 9566 31bc 1d8c e03c
00000260: ee64 61bd f63b cfbd 6c63 073c 85d2 483e
00000270: 690d dfbc 960c b4bc c3bc 603d aca4 bbbc
00000280: 1026 03be 42c9 1a3e 3c88 3cbe b3ea 4bbe
00000290: c5d4 11be f8f0 47be b11a 783e 585c 10be
000002a0: b2b4 c63e 88b5 9bbe f11a 98bd 9e78 ba3e
000002b0: eaac 123c 4c0f 11be 7d79 e9bd 1e74 943e
000002c0: 0e2f aabe 5a5e e63d f9ae 05be 5b78 813e
000002d0: 323e cfbe 669b 463d 5208 a9bc 025c ed3c
000002e0: e828 bdbc ab2c 923d 31ff ca3f 4b7d bcbf
000002f0: 3080 513f 3b73 3c3e 169a 7dbe d6d8 9fbd
00000300: ea93 29be 8d96 7c3d 8b37 7dbd 232b 1bbf
00000310: 8c74 06be 7623 e5bb d398 16bd f535 14be
00000320: 54ee b6bc 7d6c 9abc 67cc 15be 11a5 07be
00000330: 040b 13be f4b8 303d d397 283e a76a 26be
00000340: b7b6 9a3c 0f2c f03d 52fc ffbc 32ac 62bc
00000350: 4d3f a03d e178 b53d 0554 843c a5bc 2d3f
00000360: b18f bfbd e055 c8bd cfe1 50be 8ed0 5abe
00000370: 860b 89bd baaf 693e c5e1 ca3d c597 753c
00000380: e548 5abe 420a 82bd b044 e13d af91 80bd
00000390: 647f d5be 3bd3 0f3f fb8f 293e c098 003e
000003a0: 51c9 d0bd 768b abbe 189c 423d eb96 9cbd
000003b0: 7ef7 4bbe 27ae cb3d d611 3e3c 6df0 82bd
000003c0: b224 bcbf 0135 ac3c 304e ac3f 7fdf 6b3d
000003d0: cc4a 873e 91f3 8c3c b324 623d e3fa d5bd
000003e0: 2fd8 b93d 2af4 793f 0a7c 0dbd 9a65 d0bd
000003f0: f33d 4b3d 2b09 543e cece 55be 957e 3cbd

model.enc_embedding.bias f4 [64]
-1.1876001 -1.9266515 -1.3876206 -0.6735105 -1.3880318 -1.2608956 -0.98423725 -1.2494906
-1.8604621 0.41399568 -0.5034255 -0.7479522 -1.1354678 0.32197648 1.7444161 0.45879963
0.13498619 -1.1528453 -1.394781 0.5816931 1.5329707 -1.2277389 1.6878676 -1.2001181
-0.92326134 0.49607733 -0.9476121 -1.4327594 -1.4613307 2.0694702 -1.4076713 0.58028406
0.6853125 -0.5083751 0.6602805 2.1210585 1.6626834 0.73525536 -1.4609371 1.8559732
0.42189544 0.47705632 -0.9322475 1.6659591 0.5482372 1.4040632 -1.2187567 -1.2185621
-1.4876769 -0.57180613 0.5829839 -0.12361456 1.150321 1.6168808 -1.5385735 1.9406716
-1.2513238 0.67588055 -1.4273046 -0.6250955 1.1272899 -1.3823421 -0.7535904 0.86379987
00000000: 4803 98bf 849c f6bf 8d9d b1bf 2f6b 2cbf
00000010: 07ab b1bf 0765 a1bf f9f6 7bbf 4fef 9fbf
00000020: 9f23 eebf 3ef7 d33e 7ee0 00bf cc79 3fbf
00000030: 0257 91bf 1ada a43e 0749 df3f c9e7 ea3e
00000040: d239 0a3e 6f90 93bf 2f88 b2bf d7e9 143f
00000050: 6238 c43f 8c26 9dbf 0c0c d83f 789d 99bf
00000060: db5a 6cbf d9fd fd3e b596 72bf a964 b7bf
00000070: e20c bbbf 3372 0440 932e b4bf 7f8d 143f
00000080: a470 2f3f df24 02bf 2508 293f 6cbf 0740
00000090: cfd2 d43f b239 3c3f fdff babf 8890 ed3f
000000a0: ae02 d83e ba40 f43e c6a7 6ebf 263e d53f
000000b0: 4659 0c3f 58b8 b33f 3800 9cbf d8f9 9bbf
000000c0: 326c bebf e361 12bf 6f3e 153f a129 fdbd
000000d0: b83d 933f f3f5 ce3f faef c4bf ed67 f83f
000000e0: 612b a0bf 8206 2d3f ebb1 b6bf 4206 20bf
000000f0: 094b 903f 96f0 b0bf 4deb 40bf fd21 5d3f

model.layer_norm.weight f4 [64]
0.47680652 0.9141502 0.55899733 0.0059177456 0.49160188 0.48886487 0.29691154 0.50172865
0.78805053 0.4409526 -0.004838456 0.0011407356 0.48030004 0.41513258 0.78335094 0.4378358
-0.023435552 0.48657367 0.48414686 0.41805217 -0.009579191 0.5085057 -0.009404058 0.5092716
0.473919 0.44304422 9.826604e-05 0.5345129 0.52463084 -0.008469844 0.5335386 0.43175715
0.40918565 -0.10625091 0.4258601 1.1547978 0.66590136 0.46386108 0.53158367 -0.0090806
0.45910573 0.43681115 0.0037124483 -0.012470099 0.41622618 0.59546024 0.5012507 0.47972617
0.5498263 -0.109749824 0.4691676 -0.003362619 -0.008648388 0.745268 0.6949382 -0.010031417
0.5244803 0.46032122 0.4866494 -0.0032436368 -0.007949107 0.5194305 0.31348196 0.38922977
00000000: fc1f f43e bf05 6a3f 731a 0f3f a6e9 c13b
00000010: 3eb3 fb3e 7f4c fa3e ca04 983e 4a71 003f
00000020: aebd 493f 8ac4 e13e e98b 9ebb bc84 953a
00000030: e3e9 f53e 428c d43e b089 483f 042c e03e
00000040: eafb bfbc 2f20 f93e 19e2 f73e ef0a d63e
00000050: 0af2 1cbc 6e2d 023f 7a13 1abc a05f 023f
00000060: 83a5 f23e b1d6 e23e 2e14 ce38 d6d5 083f
00000070: 354e 063f 1ac5 0abc fc95 083f 460f dd3e
00000080: c880 d13e 149a d9bd 560a da3e 6ad0 933f
00000090: 8378 2a3f 337f ed3e de15 083f ccc6 14bc
000000a0: e80f eb3e b6a5 df3e 8c4c 733b 634f 4cbc
000000b0: 991b d53e 1570 183f f751 003f ab9e f53e
000000c0: 6bc1 0c3f 84c4 e0bd bc36 f03e 635f 5cbb
000000d0: f8b1 0dbc e2c9 3e3f 78e7 313f d05a 24bc
000000e0: 5744 063f 39af eb3e 1c2a f93e 3293 54bb
000000f0: f93c 02bc 66f9 043f b580 a03e 2049 c73e

model.layer_norm.bias f4 [64]
0.12539162 0.5259207 0.18797061 0.014301783 0.15737708 0.13457307 0.051043242 0.13920434
0.41602337 -0.02728776 0.013323218 0.013862122 0.13517027 -0.010723201 -0.3816352 -0.032743547
0.01198562 0.13151224 0.14788604 -0.029665532 0.013303183 0.14109604 0.013387224 0.13115112
0.098174386 -0.028080616 0.013995448 0.17760098 0.17657611 0.013660482 0.17796825 -0.038839564
-0.037084255 0.0023176202 -0.052842412 -0.0072542964 -0.2919308 -0.06001739 0.17057462 0.013148531
-0.028609842 -0.031147316 0.014020652 0.01279386 -0.028874539 -0.1935068 0.13735563 0.12761098
0.19595419 0.0013252369 -0.05556363 0.013944944 0.013205207 -0.32869625 0.27089316 0.013331947
0.14592457 -0.052086234 0.15994886 0.013617302 0.013403153 0.16740976 0.050666567 -0.047449596
00000000: a966 003e bda2 063f 5e7b 403e 0752 6a3c
00000010: 7527 213e 86cd 093e b812 513d 958b 0e3e
00000020: 0401 d53e 958a dfbc a049 5a3c f41d 633c
00000030: 136a 0a3e 5db0 2fbc b065 c3be 191e 06bd
00000040: 555f 443c 25ab 063e 706f 173e 2105 f3bc
00000050: 98f5 593c 7b7b 103e 1656 5b3c 7b4c 063e
00000060: a70f c93d 5209 e6bc 2a4d 653c 08dd 353e
00000070: 5ed0 343e 37d0 5f3c 4f3d 363e 3c16 1fbd
00000080: a9e5 17bd 37e3 173b 4971 58bd 73b5 edbb
00000090: f477 95be cbd4 75bd 1dab 2e3e f06c 573c
000000a0: 305f eabc a828 ffbc e0b6 653c 579d 513c
000000b0: 4c8a ecbc a626 46be f4a6 0c3e 74ac 023e
000000c0: 37a8 483e 92b3 ad3a b096 63bd 5679 643c
000000d0: a75a 583c e04a a8be 82b2 8a3e 3d6e 5a3c
000000e0: 406d 153e 6058 55bd a2c9 233e 1b1b 5f3c
000000f0: e698 5b3c 776d 2b3e bf87 4f3d 825a 42bd

model.predict_linear.weight f4 [1, 100]
-0.06866457 -0.064194955 -0.047590174 -0.03721313 -0.010360137 -0.018913258 -0.012998566 -0.018165555
-0.006687058 -0.011886797 -0.009347496 -0.0072354805 -0.010597503 -0.0036158462 -0.009408869 -0.006695957
-0.009226966 -0.004252198 -0.009024908 -0.007958057 -0.010794791 -0.0053099203 -0.0073962347 -0.0055350885
-0.009056949 -0.004269757 -0.004613495 -0.0036199947 -0.007581773 -0.0103764115 -0.0071517513 -0.006515944
-0.009253427 -0.006179065 -0.008590987 -0.0130083095 -0.011713927 -0.0029778332 -0.0019199717 -0.0068749147
-0.0055181626 -0.0058727995 -0.009472812 -0.011113166 -0.0099341655 -0.009166419 -0.0043523726 -0.011752331
-0.007958391 -0.015779968 -0.013018259 -0.017642638 -0.012358195 -0.018380329 -0.013453928 -0.013714067
-0.014441683 -0.013982113 -0.013364598 -0.008034536 -0.009470761 -0.009484077 -0.0066270805 -0.009889789
-0.014977206 -0.010091164 -0.012551194 -0.019827338 -0.020114219 -0.018203465 -0.02269474 -0.013101823
-0.012834651 -0.017983869 -0.019447386 -0.025219802 -0.023480102 -0.022681313 -0.025111152 -0.031291455
-0.034938395 -0.029195867 -0.03743652 -0.037900846 -0.035719037 -0.03401403 -0.039379083 -0.043075196
-0.04811909 -0.05727987 -0.050710462 -0.050896812 -0.04987397 -0.046932206 -0.04940537 -0.063434444
-0.06029403 -0.066781364 -0.06434034 -0.07158294
00000000: 03a0 8cbd a578 83bd eaed 42bd cc6c 18bd
00000010: 90bd 29bc faef 9abc f0f7 54bc eecf 94bc
00000020: 1c1f dbbb d7c0 42bc 3d26 19bc 9c17 edbb
00000030: 26a1 2dbc d5f7 6cbb a827 1abc c269 dbbb
00000040: b32c 17bc 0656 8bbb 35dd 13bc 8362 02bc
00000050: a3dc 30bc d7fe adbb 1d5c f2bb b05f b5bb
00000060: 9963 14bc 51e9 8bbb cd2c 97bb 6f3d 6dbb
00000070: 8670 f8bb d301 2abc 3d59 eabb b383 d5bb
00000080: b09b 17bc c179 cabb 36c1 0cbc ce20 55bc
00000090: c5eb 3fbc c027 43bb 8fa7 fbba f746 e1bb
000000a0: b4d1 b4bb 9d70 c0bb da33 1bbc ff13 36bc
000000b0: e9c2 22bc bf2e 16bc 599e 8ebb d98c 40bc
000000c0: e963 02bc fe44 81bc 894a 55bc 4b87 90bc
000000d0: 077a 4abc 5892 96bc dd6d 5cbc f7b0 60bc
000000e0: cf9c 6cbc 3c15 65bc 30f7 5abc 49a3 03bc
000000f0: 402b 1bbc 1a63 1bbc fb27 d9bb c808 22bc
00000100: f462 75bc 6955 25bc 86a3 4dbc f16c a2bc
00000110: 93c6 a4bc 6f1f 95bc 52ea b9bc 07a9 56bc
00000120: 6e48 52bc e852 93bc 2050 9fbc c299 cebc
00000130: 5859 c0bc 29ce b9bc e7b5 cdbc 782b 00bd
00000140: 901b 0fbd 2c2c efbc 0957 19bd eb3d 1bbd
00000150: 204e 12bd 4c52 0bbd f64b 21bd 9e6f 30bd
00000160: 8618 45bd 4c9e 6abd c6b5 4fbd 2d79 50bd
00000170: a648 4cbd fc3b 40bd 495d 4abd ebe9 81bd
00000180: dff6 76bd abc4 88bd dec4 83bd 149a 92bd

model.projection.weight f4 [1, 64]
0.039288748 0.015711712 0.035273872 0.00158742 0.034309234 0.041638114 0.011992024 0.036839437
0.013506793 -0.054621086 0.0031095617 0.0036604002 0.033257596 -0.056463443 -0.01999202 -0.048388094
0.002701885 0.042037886 0.035286408 -0.05015277 0.0038843886 0.04020693 0.0046092947 0.010855584
0.044045866 -0.051832553 0.004569149 0.03648978 0.036178976 0.006508317 0.037554733 -0.048916254
-0.0475521 0.0053080874 -0.04825221 0.0004076481 -0.02522866 -0.04794522 0.0081925085 0.0026852044
-0.050726917 -0.049549077 0.0038600697 0.0031318674 -0.06101393 -0.026892325 0.03870697 0.04398978
0.031613465 0.0035878632 -0.04129235 0.0017906795 0.0024586653 -0.018263243 0.011348435 0.0033646575
0.042804826 -0.045757543 0.0341715 0.003339805 0.0036218434 0.038755685 0.009283788 -0.044339877
00000000: 3ded 203d d9b5 803c 567b 103d fa10 d03a
00000010: d787 0c3d ba8c 2a3d 327a 443c f3e4 163d
00000020: 994b 5d3c 5cba 5fbd cac9 4b3b 53e3 6f3b
00000030: 1e39 083d 3646 67bd 4ec6 a3bc 9832 46bd
00000040: 1c12 313b eb2f 2c3d 7b88 103d fe6c 4dbd
00000050: 3a91 7e3b 06b0 243d 9109 973b 9fdb 313c
00000060: 7069 343d 5f4e 54bd cdb8 953b 4f76 153d
00000070: 6830 143d b843 d53b fed2 193d 695c 48bd
00000080: fec5 42bd 77ef ad3b 1ca4 45bd 9ab9 d539
00000090: 56ac cebc 3562 44bd df39 063c 41fa 2f3b
000000a0: 07c7 4fbd f9f3 4abd 39f9 7c3b 0440 4d3b
000000b0: bee9 79bd 4b4d dcbc 338b 1e3d a12e 343d
000000c0: 1f7d 013d 5b22 6b3b 2b22 29bd 3cb5 ea3a
000000d0: 8f21 213b cc9c 95bc c9ee 393c 9681 5c3b
000000e0: 1d54 2f3d 436c 3bbd 6af7 0b3d a1e0 5a3b
000000f0: 735c 6d3b 48be 1e3d 071b 183c bb9d 35bd
