Task1/model/traffic_tcn_model.pth (torch, 282094 bytes, 15 tensors)

model.network.0.conv1.weight f4 [64, 27, 3]
000000 c8 7b 93 be 6d c5 a2 bd 74 12 6d be 14 97 7c 3d
       -0.28805375 -0.07947812 -0.2315157 0.061667517
000010 e2 c2 c8 be e8 ca 88 3e 41 88 18 be 09 af 67 be
       -0.39211184 0.26717305 -0.14895727 -0.22625364
000020 bb d4 2f be a1 10 fa 3d 96 dc 28 bf 60 1e 88 bd
       -0.17170994 0.12210203 -0.6596159 -0.066464186
000030 b1 74 67 be 81 ac 2c 3f 40 bb 5d bf ec 5f 98 3b
       -0.22603108 0.6745072 -0.86613846 0.0046501067
000040 9c 2f 15 3f 29 f9 d1 3d f1 91 a2 bb 76 f7 ad be
       0.5827577 0.10252602 -0.004961245 -0.3397786
000050 41 70 71 3e b2 ca 78 3d e1 9f 82 be 00 da fe 3e
       0.23577978 0.06074018 -0.25512603 0.49775696
000060 dc 7b 37 bd 78 51 88 3e 58 4e bd be e3 93 31 be
       -0.044795856 0.26624656 -0.36973834 -0.1734157
000070 d1 26 c1 be dc f6 00 3f fc bc 45 be 26 a9 a3 3e
       -0.37724927 0.5037668 -0.19310373 0.31964988
000080 e3 eb 88 bf b3 44 4c be ba 3d 92 be 9d 66 91 bd
       -1.0696987 -0.19948082 -0.2856272 -0.0709965
000090 23 d7 90 3d 66 e8 21 bf d2 d4 08 3e 5b c6 28 bf
       0.07072284 -0.63245237 0.13362435 -0.65927666
0000a0 02 08 94 be 98 87 9d bf fd 4b 42 3f fa 01 6e 3f
       -0.2891236 -1.2307005 0.758972 0.92971766
0000b0 b5 75 b3 3f a3 70 c8 bf 0c f2 22 bf 5b 9c 5a bf
       1.4020296 -1.5659374 -0.63650584 -0.8539483
0000c0 e5 3a ca be b5 58 02 3d 2f 80 39 be 19 22 a8 bf
       -0.39498058 0.03182288 -0.18115304 -1.3135406
0000d0 f5 d7 4f bf 0d 60 a6 bf 01 b3 fa bd b2 25 24 bd
       -0.811889 -1.2998062 -0.122411735 -0.04007501
0000e0 99 0a 0a bf 51 87 af 3e 17 27 14 bf f3 11 74 be
       -0.5392242 0.34282926 -0.57872146 -0.23834972
0000f0 fe ce d3 bf e0 e3 38 be 32 3a 42 bf e7 87 07 3d
       -1.6547544 -0.18055677 -0.7587005 0.03308859
000100 e8 d3 3e bf f9 c0 08 bf 6b 67 5a bf a1 7c 80 be
       -0.74542093 -0.5341945 -0.85314053 -0.25095084
000110 bb f2 0f bf c5 b5 bd 3d 95 e9 b1 bc c7 79 70 3a
       -0.5622975 0.092631854 -0.021717826 0.00091734197
000120 62 02 b6 be ca 7f b7 be c7 d5 9e be d0 ac 8a 3e
       -0.35548693 -0.35839683 -0.31022474 0.2708497
000130 b0 5d b7 3e 23 56 dd 3e 43 bc aa 3e b8 e5 cc 3e
       0.35813665 0.4322978 0.33346757 0.40019011
000140 96 33 da 3e fd 4a a3 3d c0 2e d4 bd c0 3f af 3e
       0.42617482 0.07973287 -0.10360479 0.34228325
000150 8b 58 0c bd c3 28 62 3d 87 c0 82 3f 10 a0 09 be
       -0.03426413 0.055214655 1.0215005 -0.13439965
000160 3c f4 db 3d 85 ec f5 3e d2 86 57 3d 9c 66 f4 3d
       0.107399434 0.48032013 0.05261881 0.11933634
000170 a3 b4 82 3f 17 bc 3c 3f 35 f7 4e bf de 94 57 3e
       1.0211376 0.737245 -0.8084596 0.21052882
000180 3b c3 9d bf 56 73 1e bf dd 8c 67 be 1e c1 ea be
       -1.2325205 -0.6189474 -0.22612329 -0.45850462
000190 14 5c b5 be f2 5e 04 3f c3 54 fe bb 12 a2 22 3e
       -0.35421813 0.51707375 -0.007761569 0.15882137
0001a0 d4 3a 42 3e fc 3f d0 3d 86 74 0c 3f 03 04 0b bf
       0.18967754 0.10168454 0.548653 -0.54302996
0001b0 a4 f6 80 bb 5d 8c 67 3d 95 5f fe 3d a0 d9 59 bf
       -0.003935652 0.056530345 0.124205746 -0.85097694
0001c0 2b 4a 12 3e cc 4a ef 3e 40 52 59 3c 14 3b 86 bc
       0.14286105 0.46736753 0.013264239 -0.016385593
0001d0 26 e3 c3 3e e6 c0 ec 3d 01 aa 42 3e 46 06 61 3f
       0.38259238 0.1156023 0.19010164 0.879002
0001e0 49 aa 41 bf 41 d1 60 bf 0e c9 96 bf 83 93 1c be
       -0.7565046 -0.87819296 -1.1780107 -0.15290646
0001f0 26 24 0a be e4 27 ca 3d 3c 30 a3 bd 89 a4 3e bf
       -0.13490352 0.0987089 -0.07968184 -0.7446981
000200 1b 81 dc bd 0e ff 50 3e 09 0c b4 3b 30 87 87 bc
       -0.107668124 0.20409796 0.0054945988 -0.016543955
000210 f3 37 30 be bf f9 b5 be 81 0c da be 7d 77 37 3f
       -0.17208843 -0.35542104 -0.42587665 0.716667
000220 a3 d4 be 3e 3e 66 84 3e 5c c4 1e bf c7 fc 62 be
       0.37271604 0.25859255 -0.6201837 -0.2216674
000230 f7 17 2f bf 9c 6e 0b be 77 bd 01 bf 78 b4 a3 bd
       -0.6839594 -0.13616413 -0.50679725 -0.07993406
000240 51 dd 82 3d 5d bc 4a 3e a2 1f 2f 3e db d0 04 be
       0.06389869 0.19798417 0.1710191 -0.12970297
000250 9c d8 57 3d ae 39 30 bf 32 6f cb 3d 24 9d bf bc
       0.05269681 -0.6883801 0.09933318 -0.02339036
000260 00 8d 60 bd bd ce 2d bf fd aa 35 bf 31 7d 40 bf
       -0.054821968 -0.6789358 -0.7096403 -0.75191027
000270 56 dd 48 3f d9 20 76 3f 15 c4 31 3f db 07 43 3f
       0.7846273 0.9614387 0.6943982 0.7618386
000280 9d 55 40 3f 71 55 58 3f 2f d6 f8 3d a9 fd 6f 3e
       0.75130635 0.84505373 0.12150227 0.23436607
000290 2a 68 fe be af a5 62 3e 97 6f a6 3e c8 bb 51 bf
       -0.49688846 0.22133516 0.3250701 -0.81927156
0002a0 07 8e 30 3e 5d 15 52 3e c0 74 1e bf d8 73 98 3e
       0.17241679 0.20515962 -0.61896896 0.29775882
0002b0 c5 9a 6a 3e 2f 0b 74 bf 96 24 4e be 3a 2f 41 be
       0.22910602 -0.95329565 -0.20131144 -0.18865672
0002c0 96 29 6f be 3c 19 ac 3c fb ec b0 3e 78 62 83 be
       -0.23355708 0.021008126 0.34555802 -0.25661063
0002d0 71 fb 57 3f 51 02 70 3f 0c c5 30 be c8 fb 8c 3c
       0.84368044 0.93753535 -0.17262667 0.017209902
0002e0 51 b7 ad bd 47 6d 62 bc 7d 26 63 bd e5 be 1b 3e
       -0.084822305 -0.013819999 -0.055456627 0.15209539
0002f0 15 5a 17 3f 89 e1 e8 3c 50 e6 81 bd 66 69 7c 3d
       0.5912183 0.028427856 -0.06342757 0.061623953
000300 bd 35 bf be 79 71 2d 3e 67 41 cf be b8 51 13 3d
       -0.37345687 0.16937818 -0.40479586 0.035966605
000310 24 c9 19 3e 65 1d 0f bf 8f 5a 59 3e 47 fb 46 3e
       0.15018135 -0.5590423 0.21225952 0.19431792
000320 75 b4 87 bf 29 38 1b 3e 89 74 c4 3e 73 65 cf be
       -1.0601946 0.15158142 0.3837016 -0.40507087
000330 25 c8 8f 3d dd 85 a8 3e ad 14 cc be 1e 45 ce 3e
       0.070205964 0.3291463 -0.39859524 0.40287107
000340 ef 3b c9 3e 3f 56 83 be ae 5e f5 3d 67 d3 af bd
       0.39303538 -0.25651738 0.11980949 -0.08585244
000350 13 d7 0e 3e 42 fc 1d bb d2 ba 82 3e db f5 43 be
       0.13949232 -0.0024106656 0.25533158 -0.19136755
000360 77 e8 3f be 6f 49 af be 1d 5f 34 be 80 69 07 3f
       -0.18741022 -0.34235713 -0.17614408 0.52895355
000370 3a c4 43 3f 01 f0 90 bd 12 22 2a 3e b3 65 28 be
       0.7647129 -0.07077027 0.1661456 -0.16445045
000380 76 16 9e be 1f fe df be f8 ab 6e bd 3b de 02 be
       -0.3087651 -0.43748567 -0.05826947 -0.12780087
000390 d1 b7 ba be 25 0f c9 bc 8d 51 b8 be 64 9e 4f bc
       -0.36468366 -0.024543354 -0.35999718 -0.012672041
0003a0 2e e3 77 3d 00 b7 99 3d c1 3b 9a be 05 16 c8 be
       0.06051939 0.075056076 -0.30123714 -0.390793
0003b0 5e d6 83 be 49 32 ec 3e 73 b7 9c 3e 95 8b 93 3e
       -0.25749487 0.46132115 0.3060871 0.2881743
0003c0 ef af 84 3e 11 3b fd 3e 31 a0 cd 3e 60 98 99 be
       0.25915477 0.49459127 0.4016128 -0.29999065
0003d0 c3 84 a6 3d 50 dd 2a be e4 d0 18 be 4a 11 b5 bd
       0.08130791 -0.16685987 -0.14923435 -0.08841188
0003e0 2a 9a 13 3d f5 fc 69 be d3 d4 e3 be 73 d6 2c be
       0.036035694 -0.22850402 -0.4449831 -0.16878681
0003f0 a1 4d f3 be 98 b5 d2 be 40 c5 fa bd a8 cd a7 bd
       -0.47520164 -0.4115417 -0.12244654 -0.08193523

model.network.0.conv1.bias f4 [64]
000000 55 18 22 bf a0 f8 46 bf f7 7a b5 be 06 39 a3 bf
       -0.6331838 -0.7772312 -0.35445377 -1.2751777
000010 f1 90 2f bf 7a 08 43 bf 54 7b ec be 89 26 bf be
       -0.6858054 -0.7618481 -0.46187842 -0.37334087
000020 1e fa 1e bf 9e f7 76 bf 00 f7 01 bf b8 61 46 be
       -0.621004 -0.96471584 -0.5076752 -0.19373214
000030 db 73 56 bd bb 58 ec be bc 08 6e bf 67 ef 15 bf
       -0.052356582 -0.46161446 -0.9298208 -0.58568424
000040 95 e6 86 bd fd 38 ba be d3 f9 20 be 9e 1e 91 be
       -0.06586949 -0.36371604 -0.157203 -0.28343672
000050 b3 6c 5f bf 22 99 cc 3b 77 8a 91 bf cb 2b ca be
       -0.87275237 0.006243841 -1.1370381 -0.39486536
000060 8c 90 87 bf df 1d 0a bf f4 b7 99 be 3c df 26 bf
       -1.0590987 -0.5395183 -0.30023158 -0.6518438
000070 cd 58 9a be c4 c2 40 bf 05 29 18 bf 5f 89 c3 be
       -0.30145875 -0.7529719 -0.5943759 -0.38190743
000080 23 e9 77 be 7e b2 ee bd f2 68 7b be 2b 03 0b bf
       -0.24210028 -0.116551384 -0.24551752 -0.5430171
000090 2f a3 bb be ef 93 ed be e9 e3 c8 be f4 d6 c6 be
       -0.36647937 -0.46401927 -0.39236382 -0.3883587
0000a0 29 8b 19 bf 3b ff 0d bf 22 5a 71 bf 65 be 3f bf
       -0.59977967 -0.55467576 -0.94278157 -0.74899894
0000b0 24 92 bc be d0 e6 86 3d f2 dd 41 be fc 59 4e be
       -0.36830246 0.06586993 -0.18932322 -0.20151514
0000c0 a1 3b b6 bd ab 04 0b be 2a 42 15 bf 1c 49 b1 be
       -0.08898092 -0.13576 -0.58304083 -0.3462609
0000d0 62 6c c4 be 61 84 2c be 32 3e 48 bf df c7 25 bf
       -0.3836394 -0.16847374 -0.782199 -0.64758104
0000e0 9c e6 0b bf 5e 7d 0e be 30 1b 87 bf b6 4e a3 be
       -0.54648757 -0.13915011 -1.0555172 -0.3189599
0000f0 50 8f 29 bf 93 b6 9a be 0b 0a cb 3e 0f f7 0e bf
       -0.662343 -0.30217418 0.396561 -0.5584573

model.network.0.conv2.weight f4 [64, 64, 3]
000000 e6 e8 03 be 35 93 7c bc 09 45 1b be 8e 10 85 3d
       -0.12881812 -0.015415956 -0.15163054 0.06497298
000010 31 ee ed bd f1 16 04 bd 52 1a ce bd 89 2e 8b be
       -0.11617697 -0.03224844 -0.10063614 -0.2718394
000020 b5 30 0e be 3e f6 1a bd 85 f6 c6 bd 01 be d5 bc
       -0.13885768 -0.03783249 -0.097149886 -0.026091577
000030 7f 67 28 3d c2 d6 54 bd b0 47 37 be e0 ec 86 bd
       0.041114327 -0.05196262 -0.1789844 -0.06588149
000040 0f b5 1a 3d 82 36 e2 bd a3 de 85 3d 0c e2 14 3d
       0.037770327 -0.11045553 0.06536605 0.036348388
000050 e0 67 e7 3c 48 38 5c 3c 1d e1 8d bd de 06 c1 bd
       0.028247774 0.013441153 -0.069277026 -0.09425138
000060 21 b9 75 be 59 d7 66 bd 3d e9 2b be e5 35 00 be
       -0.23996402 -0.056357715 -0.16788192 -0.12520559
000070 c0 0c 34 be 7c 13 3a be e4 c9 39 bd 07 65 08 bd
       -0.17582989 -0.18171495 -0.045358554 -0.033299472
000080 75 9c 61 bd 53 23 23 3c 8b 0b aa be 44 58 d1 bd
       -0.05508085 0.009957152 -0.33211932 -0.102219135
000090 ef 88 27 be d0 7f e6 bc 23 5b ec bd a9 6b b3 bc
       -0.1636083 -0.028137118 -0.115408204 -0.021901922
0000a0 3f fd 5d be 3c 19 93 bd a1 48 16 be 2d c8 b8 bd
       -0.21678637 -0.071825475 -0.14676143 -0.090225555
0000b0 43 ef 1b be a6 86 49 bd c8 9d 09 bd 5e b3 1b bd
       -0.1522799 -0.049200676 -0.033597738 -0.038012855
0000c0 ba 76 1b bd e8 9a 5b 3b f3 30 20 be e2 db f1 bc
       -0.037955023 0.003350908 -0.15643673 -0.029523794
0000d0 5b e8 63 bc c7 98 11 be e3 e7 2a bd 73 60 da bc
       -0.013910378 -0.14218436 -0.04172505 -0.026657319
0000e0 f3 dd 89 bc ab 0a 9e bd 4b 82 20 bd 05 d7 d0 bd
       -0.016829466 -0.077168785 -0.039186757 -0.10197262
0000f0 41 8c b7 bb 1e f2 1e be ba 39 31 bd 35 87 98 bd
       -0.0056014364 -0.15522048 -0.043267943 -0.07447664
000100 a8 5a 31 bb 34 4b dd bd 20 13 03 be 84 15 e2 bd
       -0.0027062092 -0.108053595 -0.12800264 -0.1103926
000110 32 5f b0 3c c9 01 17 bd f6 d8 11 be 45 c1 b7 bd
       0.021529768 -0.036866937 -0.1424292 -0.0897241
000120 58 96 bd 3c a2 93 26 3d 5a e2 58 bd 7b 6b 51 bd
       0.023142979 0.040668137 -0.05295024 -0.051127892
000130 9e 7c 79 bd 78 15 a0 bd 57 6a 9b bd df db 87 bd
       -0.06090986 -0.07816595 -0.07588642 -0.06633734
000140 ee 37 0c be 67 bf a5 3d 21 84 94 bd ac 17 11 be
       -0.1369321 0.08093148 -0.07251764 -0.14169186
000150 92 d6 ec bd f2 ec c1 bc 27 3c 40 be 5c f8 71 bc
       -0.115643635 -0.023672555 -0.18772946 -0.014768686
000160 4d 0e 98 bd ec fc 85 be a7 be 8e bd db de 53 bd
       -0.07424603 -0.26169527 -0.06969958 -0.051726203
000170 3a b4 84 bd 12 f1 8b bd 7c a9 00 bc b3 bc 06 bd
       -0.06479688 -0.0683309 -0.007852908 -0.0328948
000180 2b 76 86 3d 7e ea 4c 3d a4 d2 45 3d 7a c0 0f be
       0.065655075 0.050028317 0.048296586 -0.14038268
000190 d2 7e fc bd a4 c6 28 be 34 0a cb bd 09 02 1c be
       -0.123288766 -0.16482025 -0.099140555 -0.15235151
0001a0 c6 a7 88 be cc 2b 47 be a8 12 95 bd c5 96 5d be
       -0.266905 -0.19450301 -0.07278949 -0.21639545
0001b0 df 82 69 be 04 d6 13 be 35 4e 2d bd 7b f9 26 be
       -0.2280383 -0.14437109 -0.042310912 -0.16306107
0001c0 e9 ba 8a be 25 d8 0c be 46 86 8b 3c f8 fd c4 3c
       -0.27095726 -0.13754328 0.0170318 0.024046883
0001d0 c8 b5 d3 bd d7 8d 1c be 3c c2 e1 bd 1f 80 60 be
       -0.103374064 -0.15288483 -0.110233754 -0.21923874
0001e0 02 93 0f be f2 43 1a be 1a 4e fa bd b4 c8 1d be
       -0.14020923 -0.15064982 -0.12221928 -0.15408593
0001f0 2e d7 f0 ba 00 a9 9d 3c 91 6b 47 be 1a 5f 45 be
       -0.0018374675 0.019245625 -0.19474627 -0.1927456
000200 5a 86 56 be 01 8b e4 bc ad 9f 3e be 2c 3a fc bd
       -0.20949689 -0.027898313 -0.18615599 -0.12315783
000210 43 d0 af bc 0e 11 12 be 8a 1b 1d 3c 4d 61 87 bb
       -0.021461612 -0.14264318 0.009589085 -0.004131472
000220 02 71 4e bc 7b 78 5f bd dc 76 af 3a fc ee 8b bd
       -0.012600185 -0.05455826 0.0013386863 -0.06832692
000230 c0 23 0d be b3 53 aa 3d 41 10 39 be 5c 7c 33 bd
       -0.13783169 0.083167456 -0.18072607 -0.04381977
000240 f5 78 cb 3c 62 c2 fa 3c d6 a0 8b 3c ad 58 b8 bd
       0.02483795 0.030610267 0.017044466 -0.090012886
000250 75 c1 00 be 91 b3 19 be 20 5f 91 bd 60 f9 44 3d
       -0.12573798 -0.15009905 -0.07098222 0.048089385
000260 b6 0f 2f bd a4 1c d9 bc ae 87 bb bd bb 99 3a be
       -0.042739592 -0.026502915 -0.09156738 -0.18222706
000270 f9 ec c2 bd 01 b5 b5 bd 5f b6 30 be c9 f6 02 be
       -0.09517855 -0.088724144 -0.17257069 -0.12789454
000280 d9 99 04 3e 8b 45 9f bd 6d 4f d5 bd 1f 15 f7 bb
       0.12949313 -0.07776936 -0.1041554 -0.0075403596
000290 b9 2f 08 be 44 63 52 3b 24 06 a8 bd e4 c9 c0 bb
       -0.13299455 0.0032102624 -0.08204296 -0.0058834422
0002a0 a8 76 c2 bd 15 c4 c8 3c 20 2f 89 3c 79 82 8d bd
       -0.09495288 0.024507562 0.016746104 -0.06909651
0002b0 fb 0b 27 bd fb e0 3f 3c 6c a9 8d 3d f4 d0 c0 bd
       -0.04078291 0.011711354 0.0691708 -0.09414855
0002c0 94 84 13 3d c4 52 a7 3c 75 b4 30 bd 72 e8 c5 bd
       0.03601511 0.020425208 -0.043140847 -0.09663476
0002d0 95 0a 22 be 10 a7 31 be b9 b1 dd 3c d2 96 75 bd
       -0.15824349 -0.17348886 0.027062284 -0.059958287
0002e0 97 49 64 be ae fa c8 b9 37 f4 c0 bd 37 bd d4 be
       -0.22293697 -0.00038333744 -0.0942158 -0.4155061
0002f0 ec 83 49 bd cb 0a c3 bd bd 64 cc bd 10 c7 30 bd
       -0.049198076 -0.09523543 -0.09980152 -0.04315859
000300 38 ee 35 3f 68 74 7b 3e ef 46 07 be fd a2 3f bf
       0.7106662 0.24556124 -0.13210653 -0.74858075
000310 cf d5 f2 be 68 d0 22 be 9e 06 b5 be 74 a6 70 be
       -0.47428748 -0.15899813 -0.3535661 -0.23500997
000320 8f b3 8c be 67 6e b8 be d7 30 f3 be 44 ae 6a be
       -0.27480742 -0.3602173 -0.474982 -0.2291804
000330 53 8f f8 bd 47 c5 2e 3e b4 de 77 be 0d aa da be
       -0.12136712 0.17067443 -0.24206048 -0.42707863
000340 76 2b 01 bf 40 18 8c 3e 76 e9 17 3e 35 4f 3d be
       -0.5045694 0.2736225 0.14835152 -0.18487246
000350 4d 09 a7 3d 3f 28 c4 bd 67 b0 eb be 1c d3 67 be
       0.08156071 -0.09577989 -0.46033022 -0.22639126
000360 9f 56 b7 bd ae c1 c7 be d0 03 bb bd 72 0c 47 be
       -0.089520685 -0.39014953 -0.091315866 -0.19438341
000370 3b cb de be fb 4a 97 3d 77 5b 7e be 96 95 10 bf
       -0.43514428 0.07387348 -0.24839579 -0.5647825
000380 33 33 a2 be 22 28 11 3e 46 54 75 3e e7 c4 d3 bd
       -0.31679687 0.14175466 0.23957929 -0.103402905
000390 54 b0 f6 bd b1 f4 52 bf f8 78 fe be ba 86 df 3e
       -0.12045351 -0.8240462 -0.49701667 0.43657476
0003a0 5b dc 31 3c 86 22 58 3c df 81 35 be 21 6e 36 bf
       0.0108557595 0.013191825 -0.17725323 -0.71261793
0003b0 9a e5 c3 be b0 d0 3b be 85 b3 a8 3c 7d 42 b2 be
       -0.3826111 -0.18341327 0.020593414 -0.34816352
0003c0 68 97 a1 be 6c 88 c0 be 73 cf 3c bf 76 ca 5e be
       -0.31560826 -0.37604082 -0.7375404 -0.2175692
0003d0 1f c5 6b bf 24 59 f6 be da 51 bc be 3c 2d a1 bd
       -0.9209766 -0.48114884 -0.36781198 -0.07869956
0003e0 57 63 89 3e 5d de 12 be 3b e3 fd bd ac 4e 66 be
       0.26833603 -0.14342637 -0.123968564 -0.22490948
0003f0 83 79 06 bf e7 94 4a bf 72 93 b9 be 0f a8 ea bd
       -0.5252916 -0.79133457 -0.36245304 -0.11457836

model.network.0.conv2.bias f4 [64]
000000 34 73 b3 be f4 bf e0 be c7 32 86 be d3 39 2b be
       -0.3504883 -0.4389645 -0.26210615 -0.16721277
000010 e3 72 62 be cc 3b b3 be 9f 7e 48 be ee 66 fe bd
       -0.22114138 -0.3500656 -0.19579552 -0.12421976
000020 cb 5c bf be 6e 46 ec be 8a f3 6f be 56 61 bd be
       -0.37375483 -0.46147484 -0.23432747 -0.36988324
000030 39 07 04 bf d5 e3 e9 bd 3f f0 83 be 9d 31 85 be
       -0.5157352 -0.11420409 -0.2576923 -0.26014414
000040 c3 76 82 be 2c f2 bd be 0d f4 48 bf 10 81 44 be
       -0.25481233 -0.37098825 -0.7849739 -0.19189858
000050 40 71 68 be 41 94 a8 be a9 2b 37 3f 98 16 06 be
       -0.22699451 -0.3292561 0.71550995 -0.13094556
000060 e8 35 c2 3e 56 34 2e be bf 2d 4d be 0a 02 d2 be
       0.37931752 -0.17012152 -0.20036982 -0.4101718
000070 d0 2c af bd 82 2c 3d be 7a 63 30 3e 57 a2 77 be
       -0.08553469 -0.1847401 0.17225447 -0.24183021
000080 5f 75 22 be 1b 0f 3d 3f f7 17 fa be 9e 43 98 be
       -0.15865086 0.73851174 -0.4884641 -0.29739088
000090 5b 61 a1 be 47 5c bf be 77 d0 de bd 05 ec ad 3e
       -0.3151959 -0.3737509 -0.10879605 0.3396913
0000a0 28 05 09 bf 9c a8 6f be 07 7b f1 bd 4f 37 42 be
       -0.5352349 -0.23404163 -0.11791044 -0.18966411
0000b0 02 44 41 be 8b c1 d1 be d3 3e e7 be 25 41 aa be
       -0.18873599 -0.40967974 -0.4516512 -0.33252826
0000c0 1a a7 21 3f 5b a7 a6 be 57 59 36 bf c9 80 6e be
       0.631456 -0.32549557 -0.7123007 -0.23291315
0000d0 97 35 a4 be 25 1b 90 be 30 c2 68 be 95 9b 94 be
       -0.32072136 -0.2814571 -0.22730327 -0.2902495
0000e0 b5 1f a3 be 45 cf c6 be 14 ba 26 be d3 6c 70 be
       -0.31860128 -0.3883001 -0.1628192 -0.23479013
0000f0 c1 eb 9f be bb 24 0d 3f 02 a6 89 be 90 44 e3 be
       -0.31234553 0.5513417 -0.26884466 -0.44388247

model.network.0.downsample.weight f4 [64, 27, 1]
000000 bf 05 3b bf 9c 5a ca 3e d8 89 55 bf 53 b0 ed 3e
       -0.7305564 0.39522254 -0.8341346 0.46423587
000010 19 b8 19 bf f4 80 2d 3f 7b 20 93 bd 64 0c 05 3d
       -0.60046536 0.6777489 -0.071839295 0.03248252
000020 42 33 36 bf 42 10 1a be bd 98 c3 3e 3f df 67 bf
       -0.71171963 -0.15045264 0.38202468 -0.9057502
000030 c3 95 ab 3e b5 7e 80 3d cc 9e 2b 3e 7b 30 ad 3e
       0.33512697 0.062741674 0.16759795 0.3382605
000040 40 02 b3 3d 2b 9c 03 bf c2 bc e9 bc b9 04 e0 3e
       0.087406635 -0.5141017 -0.02853239 0.43753603
000050 5b 4a 00 3f 1d 8b 9e be c7 32 85 3e 84 6b f8 bc
       0.5011346 -0.3096551 0.26015303 -0.030324705
000060 ce fc d2 3c ce e4 3d 3c 6b 7a 00 38 01 fe 97 ba
       0.025755312 0.011590196 3.063159e-05 -0.0011596085
000070 c4 bd b7 bc a7 a5 40 3e a9 1a 97 3e eb 84 24 3e
       -0.022429354 0.18813191 0.29512528 0.16066329
000080 d7 71 bc be fe 2d ee be 7a c4 a3 3d 8b d8 70 3d
       -0.36805603 -0.46519464 0.07996459 0.05880026
000090 0b b9 1a be 59 5b 22 3d 55 21 80 3e 5d ae b1 39
       -0.15109651 0.039637897 0.2502543 0.00033889982
0000a0 3d 58 b8 be 97 bd 89 3e db d8 3f be 05 fb b6 bd
       -0.3600482 0.26902458 -0.18735068 -0.08934597
0000b0 f8 6c 6b 3f 5e a5 f2 be 45 3b 16 3d e2 17 64 3e
       0.9196315 -0.4739179 0.036677618 0.22274736
0000c0 00 26 dd be 6a 1e 8b 3e 6f 90 ba bd 09 4d cb 3a
       -0.43193054 0.27171642 -0.0910958 0.0015510629
0000d0 26 03 0f 3d 50 44 78 bc de 27 ce 3b e2 43 24 be
       0.034915112 -0.015153006 0.0062913736 -0.1604152
0000e0 15 7f ad 3a 54 30 36 be f8 e6 64 bd 81 34 27 3e
       0.0013236726 -0.17791873 -0.05588433 0.16328622
0000f0 c3 58 f4 3d d6 cf cc 3d a9 78 00 be 41 02 26 be
       0.119309925 0.10000579 -0.12546028 -0.16211797
000100 5d 44 d1 3c 5f e6 41 3e 86 fe 49 bd d7 3b 00 3e
       0.025545293 0.18935536 -0.049314998 0.12522827
000110 87 12 ad 3d 1c c4 a6 bb a6 70 34 3d 71 5c 3d bd
       0.084507994 -0.005089296 0.044052742 -0.046230737
000120 18 c2 f3 bc c1 06 91 be c6 af 57 3e 16 fa 0b 3d
       -0.029755637 -0.28325465 0.21063146 0.034174047
000130 d9 78 05 3d 62 9c 27 3e b2 9e a8 3b d4 39 df ba
       0.032585952 0.16368249 0.005145871 -0.0017030784
000140 4b 82 4b 3a 76 d6 e0 bd df 23 55 be c6 cd 15 3e
       0.00077632506 -0.10978405 -0.20814465 0.14629278
000150 01 82 fd bd 16 60 45 3e 8a 70 d7 3d d4 c6 a7 3c
       -0.12378312 0.19274935 0.10519512 0.02048055
000160 2b ff a2 ba 6a 53 62 3c d4 69 58 bd 86 22 06 bc
       -0.0012435665 0.013813833 -0.0528353 -0.008186942
000170 f4 fe 0e 3e 10 9c 90 bc c8 20 08 bc 1c 53 0f be
       0.13964444 -0.017652541 -0.008308597 -0.13996547
000180 aa bb 4f 3d 94 3c c8 bd 94 ea 9d 3c f8 c9 34 bd
       0.05071608 -0.09777179 0.019276895 -0.044137925
000190 c9 58 dd 3d ff 9b d0 bd c2 4c cc bd 0b 25 0c be
       0.1080795 -0.10186004 -0.09975578 -0.13686006
0001a0 eb 12 84 bd f2 f0 cc 3c 07 de 55 b9 79 49 09 bc
       -0.06448921 0.025017235 -0.00020395975 -0.008379334
0001b0 9a 91 0d be b9 2f d1 bd 92 03 04 3e ab 77 f6 bd
       -0.13825074 -0.102141805 0.12891987 -0.120345436
0001c0 3b 0f 3e be 0b 9e cf 3e 3c 6f dd bd 03 69 16 3e
       -0.18560497 0.40550265 -0.10812232 0.14688496
0001d0 ba 50 64 bd 0e 9a 24 be 7a 91 2f be ad de e9 3c
       -0.05574105 -0.16074392 -0.17145339 0.028548563
0001e0 21 d7 80 3c b8 62 33 3b 70 6d a2 3e 32 f7 a9 bd
       0.015727581 0.0027372073 0.3172412 -0.08299102
0001f0 4f 52 bd be 76 2c 89 3d d7 70 09 3f 25 f6 df be
       -0.3697686 0.066979334 0.53687805 -0.4374248
000200 e3 c6 f8 bd a0 e6 a3 3d f6 5c dd bd 2f 8b 32 be
       -0.1214731 0.080029726 -0.108087465 -0.17435907
000210 3b ca 07 3d 91 1f 0e ba d3 7e d1 bc 3d e3 51 bf
       0.033151846 -0.0005421574 -0.02557317 -0.81987363
000220 8a 73 ab 3e bf bc 6d bf 0d 3e e8 3e 8f 47 87 3d
       0.33486587 -0.9286613 0.4535984 0.066054456
000230 d3 1c 7b be f6 68 1e 3f b9 1b 7a 3d a4 4d da bd
       -0.24522714 0.6187891 0.061061595 -0.1065934
000240 cb 2d 49 bd 8c e2 f9 bc 7c 34 52 bf c0 3c 3a 3f
       -0.049115937 -0.030503534 -0.82111335 0.7274895
000250 e4 b5 b0 3e b4 81 d0 be 7d ba a4 3d 23 f7 8d b9
       0.34513772 -0.40723956 0.08043382 -0.00027077747
000260 a2 25 51 3e 02 54 c6 3e 38 77 94 bc c1 ae 73 3d
       0.20424512 0.38735968 -0.018123254 0.05949283
000270 a5 64 4d bf a1 9f 30 bf a6 8c 75 bc ed c8 2d 3f
       -0.80231696 -0.68993574 -0.0149871465 0.67884713
000280 9c 1a 28 3b 65 6c ee bc 32 43 2b 3e cf 49 07 3e
       0.0025650626 -0.02910442 0.16724852 0.1321175
000290 e9 3e 0b 3c 83 e7 57 be 3a 2a 0a bd 92 af a3 3b
       0.008498886 -0.21084408 -0.033731677 0.004995295
0002a0 d7 e2 25 be 52 17 81 bd 66 88 60 bd 41 4d e1 3c
       -0.16199814 -0.06303276 -0.05481758 0.027502658
0002b0 80 d5 66 3d 08 07 f2 bd b8 98 6d bd 15 8e 60 3e
       0.056355953 -0.11817747 -0.058006972 0.219292
0002c0 d0 7b 6d 3d 24 7c dc bd 22 81 57 3c 1c b3 33 be
       0.057979405 -0.107658654 0.013153346 -0.17548794
0002d0 26 69 3d 3c 94 52 06 3e bc 33 dc bc 60 c8 b5 3c
       0.011560714 0.13117439 -0.026880138 0.022190273
0002e0 17 ba 99 3b d4 46 16 be 18 36 23 3b fd 0f 8b bc
       0.004691373 -0.14675456 0.0024904069 -0.016975397
0002f0 59 76 5a 3a 0e 1f ea 3c 16 d1 44 bd 83 24 52 3e
       0.0008333675 0.028579261 -0.048050962 0.2052174
000300 45 3b 78 3d 98 63 21 bb 86 59 99 3e 67 db bf 3d
       0.0606034 -0.0024626013 0.29951113 0.093680196
000310 1f aa dd 3d 63 7a f6 bb be 45 ee bc 05 2d 36 bd
       0.10823464 -0.007521914 -0.02908599 -0.044476528
000320 60 50 f9 3d 8c b6 d2 bc b5 e9 b3 bc cc 40 e0 bd
       0.121735334 -0.02572181 -0.021962026 -0.10949859
000330 6a e3 ca be a2 8f ab 3a bd c4 a6 3d 5e 38 43 3e
       -0.39626628 0.001308907 0.081429936 0.19064471
000340 d5 20 31 be aa ac 16 be 95 f7 a1 3e fd 43 c4 be
       -0.1729768 -0.14714304 0.31634203 -0.3833312
000350 24 1c c9 3d 99 d2 f0 3b 65 50 d6 bc 93 e5 0b ba
       0.098198205 0.007349324 -0.026161382 -0.00053366384
000360 cd 50 da 3b f7 7b 70 bd 7c b6 8c 3a 48 a1 cb bd
       0.0066624642 -0.058711972 0.0010735537 -0.09942871
000370 b0 7e 35 3e a2 84 82 3e 25 eb 00 3e 0f 16 07 be
       0.17724109 0.25491816 0.125897 -0.13192008
000380 d0 1e 62 3d f6 00 d9 3d 43 31 29 be b2 00 41 be
       0.055205166 0.105958864 -0.16522698 -0.18847921
000390 b7 c9 98 3c 62 59 3f 3d 2a c7 14 3e 53 72 22 be
       0.018650873 0.0467161 0.145291 -0.15863924
0003a0 6c 88 bc bd a1 a9 32 3d d5 94 f7 bd 67 e0 1d 3d
       -0.09205708 0.043618802 -0.12088934 0.038544085
0003b0 46 30 d1 bb c2 83 23 3d de d0 b7 be 48 00 12 3e
       -0.0063839285 0.039920576 -0.3590154 0.1425792
0003c0 d9 c6 ce 3c 4c e5 0f 3d 48 1c 37 bb a8 17 07 bd
       0.025241302 0.035130784 -0.002794044 -0.032981545
0003d0 98 14 15 be be 50 bf 3d ca 37 ad bd 4b 38 69 be
       -0.14558637 0.09341572 -0.084579065 -0.2277538
0003e0 3c 5f 35 3c a6 d8 27 3e 2f 42 94 bd 05 85 5f 3e
       0.011070069 0.16391239 -0.07239186 0.21828087
0003f0 85 a0 a4 be 2c 4d 52 be 3a 7f 7a 3e 4d 89 24 3e
       -0.32153717 -0.20537251 0.24462596 0.16068001

model.network.0.downsample.bias f4 [64]
000000 24 f4 b0 bf 08 be 6f bf a0 27 a0 bf 7c 95 58 bf
       -1.3824506 -0.9364934 -1.2512093 -0.84603095
000010 14 a1 79 bf a3 a3 d2 bf 41 33 3b bf 8b 93 f2 bf
       -0.9751141 -1.6456188 -0.7312508 -1.8951277
000020 11 66 ca bf 97 0c 25 c0 d6 34 dc bf 19 e8 34 be
       -1.5812398 -2.5788934 -1.7203624 -0.17666663
000030 9d ca 0c bf 63 16 d9 bf b5 58 d3 bf 05 9e a7 bf
       -0.54996663 -1.6959957 -1.6511446 -1.3095099
000040 7e 27 95 3d 67 9c b6 bf b5 b8 e4 bf 37 10 e9 bf
       0.07282923 -1.426648 -1.7868868 -1.8208073
000050 8a 4e da bf 42 89 5f bf c1 d1 06 bf d3 23 5a bf
       -1.7055218 -0.87318814 -0.5266381 -0.85210913
000060 2d 39 b6 be f6 6b 9a bf 87 95 8d bf e7 ba ab bf
       -0.35590497 -1.2064197 -1.1061257 -1.3416413
000070 df f3 96 bf d8 05 94 bf 8e 60 2e bf 3a 18 3f bf
       -1.1793174 -1.1564283 -0.6811608 -0.7464634
000080 ec 4f b0 bf 66 47 6e bf f2 68 97 bf 53 5e 1e c0
       -1.377439 -0.93077695 -1.1828902 -2.474507
000090 8f 45 e3 bf 4e 9e f0 bf a9 3a c6 bf 2a 2f d9 3f
       -1.7755603 -1.8798311 -1.5486652 1.6967518
0000a0 3f a5 cb bd 74 77 17 bf e1 a9 92 bf d8 8a a9 bf
       -0.099436276 -0.59166646 -1.1458093 -1.3245497
0000b0 11 34 e1 bf bb f1 c5 be 73 f3 27 3f 9e 25 a3 bf
       -1.7594014 -0.38660988 0.6560585 -1.2745855
0000c0 8e a7 f6 be 28 8a 94 3e 76 d5 02 c0 0e 17 dd bf
       -0.4817471 0.29011655 -2.0442786 -1.7272661
0000d0 d5 af 5f bf 53 4e ce bf af 97 5c bf ff 0f eb bf
       -0.87377673 -1.6117653 -0.8616895 -1.8364257
0000e0 f2 4c 9a bf 00 99 dd bf a4 8b 0d bf 6e fe f8 bf
       -1.2054732 -1.7312317 -0.552912 -1.9452646
0000f0 25 80 9c bf a8 83 67 bf da 3e 6a bf d4 14 85 bf
       -1.2226607 -0.90435266 -0.91502154 -1.0396981

model.network.1.conv1.weight f4 [64, 64, 3]
000000 b3 d1 de ba 07 2a 10 bd 86 3d 7a bb da 02 20 bc
       -0.0016999751 -0.03519633 -0.0038183643 -0.009766305
000010 21 8c e9 3b 70 71 55 bc a0 28 4e bc 06 51 17 bd
       0.0071273004 -0.013027534 -0.012582928 -0.036942504
000020 ee 20 50 bd ce 10 d5 bc b2 07 15 3d 18 01 90 bd
       -0.050812654 -0.02600899 0.036384292 -0.070314586
000030 4a 2a 07 be 57 a5 10 be 0e e4 3e 3c bb ce 92 bd
       -0.13199726 -0.14125572 0.011651052 -0.07168337
000040 51 55 d1 bc 94 42 bb bd 64 52 62 bd a6 c4 f9 bc
       -0.025553377 -0.09143558 -0.055254355 -0.030489277
000050 be 8a 95 ba b3 c9 aa bc 66 c5 9d bd 6b 29 2c 3c
       -0.0011409146 -0.02084813 -0.077036664 0.010507922
000060 cc a0 84 bd f4 24 08 bd bc c1 3c bc b9 c8 5e 3c
       -0.06475982 -0.033238366 -0.011520799 0.013597661
000070 8e 31 b2 bd 85 d4 8b 3c f8 46 61 bc 24 2a 0f bd
       -0.08700858 0.01706911 -0.01374983 -0.034952298
000080 5a d0 fe bb 87 ed 01 bd 5b b5 85 bc aa 17 97 bc
       -0.0077763023 -0.031720664 -0.016321829 -0.018443901
000090 c0 9a a4 bb 6c 77 ee bd 1a 85 9f bd 87 ed 90 bd
       -0.0050233305 -0.11643872 -0.07789059 -0.07076555
0000a0 f8 95 b1 bd e3 f0 b8 bd 80 cc 03 3d 7f 7b b8 bd
       -0.086711824 -0.090303205 0.03217745 -0.0900793
0000b0 39 b3 13 bc 27 d3 b9 3c ca 66 f7 bc 2a ce a5 bc
       -0.009014898 0.022683693 -0.03020038 -0.020239908
0000c0 33 94 7a bd 21 b1 cc bc 6c ba ba 3c e1 12 a5 bd
       -0.06117649 -0.024986805 0.022793971 -0.080602415
0000d0 db 08 62 bd 04 fc 8b 3c e2 f8 5b bd 87 12 37 3d
       -0.055184226 0.017087944 -0.05370415 0.044695403
0000e0 03 2b ef bc 49 89 15 3d 65 cf 5a bc 17 6e b9 ba
       -0.029195314 0.03650788 -0.013355111 -0.0014147189
0000f0 81 48 14 bd 1d 48 44 bd 02 76 1a bc 7e 14 2d bc
       -0.036201958 -0.047920335 -0.009427549 -0.010563968
000100 76 88 02 be a3 ee de bc a4 64 05 bd f9 b8 a7 bc
       -0.12747368 -0.0272134 -0.03256668 -0.020473944
000110 9f 7c 3a bd 77 0f 88 3c b9 4f fd 3c 44 13 a9 bd
       -0.045529004 0.016608937 0.030921804 -0.08255628
000120 2e 96 08 be d5 00 b6 bd ae d4 88 bd 00 d4 f2 bb
       -0.13338539 -0.088868774 -0.066811904 -0.0074105263
000130 33 32 82 3d bf 1b bb 3b 15 80 46 3d e0 d4 53 3c
       0.06357231 0.0057100947 0.048461992 0.012929171
000140 60 e5 78 bc 8c 2c 8e bd 29 48 80 bd 60 7f 35 3d
       -0.015191406 -0.069420904 -0.062637635 0.044310927
000150 76 ca b1 bd e1 30 a9 bd 9d b4 2d bc 2f 14 dc bc
       -0.086811945 -0.08261276 -0.010602144 -0.026865093
000160 6f 81 c0 bc 9b 32 d0 bd e4 ad 07 be a9 c0 07 be
       -0.023499219 -0.10165902 -0.13249928 -0.13257088
000170 54 92 81 bc bc d0 ba bc b7 a8 91 bd 62 51 0c bc
       -0.015816845 -0.02280461 -0.07112258 -0.008564325
000180 d5 14 4d bd 32 97 0e 3d 11 2b 03 3b c2 47 0e bd
       -0.050068695 0.03481216 0.0020014683 -0.034736402
000190 e1 60 12 3d d6 28 17 3c db f5 99 bd 95 8e c5 bd
       0.035736922 0.009226045 -0.07517596 -0.09646336
0001a0 71 a4 d1 3b 80 fd 95 bd 8b 98 4c 3d 06 16 84 bc
       0.006397777 -0.07323742 0.049950164 -0.016123783
0001b0 fc 0c 9a bd 0a 8d 7a bd d4 d4 32 be be 18 0b 3d
       -0.07522008 -0.06116966 -0.17464 0.033959143
0001c0 ec 1c 99 bd da da 05 bd 81 6d 6c bc 98 81 00 3d
       -0.074762195 -0.032679416 -0.014430405 0.03137359
0001d0 fc 72 35 bd c3 25 25 be 1b 55 b6 bd 0b 35 73 ba
       -0.04429911 -0.16127686 -0.08902951 -0.00092776184
0001e0 d2 d2 fb bd b6 ca d0 bd 57 ec 0c 3d 3b e9 19 bd
       -0.1229607 -0.10194914 0.03440508 -0.03757594
0001f0 ea 9b 10 3c 79 82 1f bd 54 19 c0 bd de 5e 2a bd
       0.008826235 -0.038942788 -0.09379831 -0.04159438
000200 d5 1f 3f bd 4a a7 de 3c a7 b1 46 3b 81 25 d9 bb
       -0.046661217 0.027179379 0.0030318291 -0.0066267853
000210 93 dd 0d bd b7 fd af bc 7e ac 5c bd 55 eb 1f bd
       -0.034635138 -0.021483285 -0.05387544 -0.03904279
000220 b9 d5 ab 3c 03 7b 38 bd b4 e7 44 bd 8c 10 42 bd
       0.020975934 -0.045039188 -0.04807253 -0.04737906
000230 7b 7b 8d bd cd 16 aa 3b d4 85 2d 3c 46 94 65 bc
       -0.06908318 0.0051907063 0.010590989 -0.014012402
000240 4d 99 ec bd 75 44 94 bd 0c 15 e2 bd f5 1b ae bc
       -0.11552677 -0.0723962 -0.110391706 -0.021253565
000250 30 7e 02 bd 49 a2 50 bc 4e a4 59 3c fa 41 a1 bd
       -0.031858623 -0.012734004 0.013283802 -0.07873912
000260 ae af 63 bc 95 00 e6 bb 5b 7a 52 bb 16 a9 08 bd
       -0.013896866 -0.0070191124 -0.0032116387 -0.033364378
000270 f5 78 2c 3c c4 9e a2 bd 3f 96 be bc 06 6a 44 bd
       0.010526885 -0.079404384 -0.023265002 -0.047952674
000280 18 02 46 3d 25 32 79 bc f8 5a 56 bd a9 52 05 bc
       0.04834184 -0.015209709 -0.05233285 -0.0081373835
000290 5c a1 2f 3d 29 0d b0 bd 56 c6 39 3c ee 90 59 bd
       0.042878494 -0.0859626 0.011338791 -0.05311673
0002a0 3e b7 a9 bc b4 db 45 bd a8 82 70 bd de 9c ac 3c
       -0.02071726 -0.04830523 -0.058718354 0.021070894
0002b0 9f 52 93 3c 84 85 9b bd 5a 72 c0 bc 6d 10 81 bd
       0.017983733 -0.075938255 -0.023492027 -0.06301961
0002c0 55 f7 63 bd 7a 3b 59 bc 33 07 28 3c 70 6e 9e bc
       -0.055655796 -0.013258809 0.010255623 -0.01933977
0002d0 8d 40 01 bd 62 34 0d 3d 60 aa da 3d 09 7f 9c bd
       -0.0315557 0.034473784 0.10677028 -0.076414175
0002e0 66 3d 78 bc ed c7 6c bd cb ca 0e be 75 ac eb bd
       -0.015151357 -0.05780785 -0.13944547 -0.11507503
0002f0 1f a8 0f 3c c6 3c b0 3c 1c 63 9d 3a f8 ad fd bd
       0.008768111 0.021513354 0.0012007686 -0.123866975
000300 9c ce 9d bd c8 89 a7 3c 44 a8 b0 bd e7 25 ca 3c
       -0.07705423 0.020451441 -0.08625844 0.024676276
000310 8e ba b1 bd 68 52 3f bd 8a 9f 24 bd bc 47 80 3d
       -0.086781606 -0.046709448 -0.04019121 0.06263682
000320 b0 cf 6e 3c a0 5d 85 bd c9 fc c9 3c 8d 8d b1 bc
       0.014575884 -0.06511998 0.02465667 -0.021673942
000330 3e 8e 14 bd 2b 05 5c 3c 63 47 f2 bc 9d d9 2d 3d
       -0.036268465 0.0134289665 -0.029575055 0.04244386
000340 22 df 94 bd d0 86 fa bb ae e2 50 3c 8c 29 dd bc
       -0.07269122 -0.0076454654 0.012749357 -0.02699735
000350 e4 81 8e bd 6f 1c 81 bd 2c f0 99 bd d9 f6 67 bc
       -0.069583684 -0.063042514 -0.07516512 -0.014157974
000360 73 53 b8 bc 33 b5 71 bd 88 51 a2 bd 7f d4 c9 bc
       -0.02250073 -0.059010696 -0.07925707 -0.024637459
000370 65 97 26 bd e8 38 48 3d bb 85 92 bd f9 90 bc 3c
       -0.040671725 0.048882395 -0.07154413 0.023018347
000380 d5 64 3b bd c5 eb 1b 3b a4 03 d3 bd 58 35 03 be
       -0.045750458 0.0023791653 -0.10303429 -0.12813318
000390 0e e8 7f 3a 3e f6 7e bd 69 0a a7 3b 41 be 94 3b
       0.0009762057 -0.062246554 0.0050976765 0.0045392816
0003a0 55 e1 62 bd b6 30 04 bd 13 ae 50 bc d1 0b e9 3b
       -0.055390675 -0.032273017 -0.012736815 0.0071120043
0003b0 c8 97 b3 3b 4a 1d b8 3c 52 c1 47 ba 4a d1 f9 bc
       0.00548074 0.022474904 -0.00076200545 -0.030495305
0003c0 97 a3 53 bc 27 af b7 bd f7 27 22 bd 75 ba b6 bd
       -0.012917421 -0.089689545 -0.039588895 -0.089222826
0003d0 9f 1d ab bd cd f1 43 bd 71 f0 3c bc 18 cd 99 3c
       -0.08355259 -0.04783802 -0.011531935 0.018774554
0003e0 06 d2 46 3c 08 25 75 bd a7 1d 07 bd c5 fe 62 3b
       0.012135034 -0.05984977 -0.032987263 0.0034636718
0003f0 d6 c0 26 bc 7e 96 a0 bd fc 9c 65 bd 42 5c 9c bd
       -0.010177812 -0.07841204 -0.056057915 -0.07634784

model.network.1.conv1.bias f4 [64]
000000 19 fe 2a be 64 94 36 be db f6 03 be ab 4c 09 bf
       -0.16698493 -0.17830044 -0.12887137 -0.5363261
000010 68 32 01 be 8a a3 09 be 8c c0 0d 3c f7 63 bf be
       -0.12616885 -0.13441291 0.008651864 -0.37380955
000020 60 e1 33 be d0 72 f6 bd 50 72 51 bf 44 c6 d8 be
       -0.17566442 -0.120336175 -0.8181505 -0.42338765
000030 1d 85 09 bf 56 98 e4 3c 72 43 78 be ba 85 4e be
       -0.5371874 0.02790467 -0.24244478 -0.201682
000040 f3 44 91 3e f4 30 b3 be aa ba ed bd b0 a7 a0 be
       0.28372917 -0.34998286 -0.11607869 -0.31377935
000050 10 32 6a be 12 74 50 be 2a 5d 89 bd d7 e6 95 bd
       -0.2287066 -0.20356777 -0.06707223 -0.0731942
000060 2f b2 21 be 99 de 82 be d0 5a 26 be 32 a2 33 be
       -0.15790628 -0.25560454 -0.1624558 -0.17542341
000070 39 13 59 be eb 9e b5 be c1 2a d4 3e c8 8e 19 be
       -0.21198739 -0.35472807 0.4143887 -0.14995873
000080 41 9d 3d be d4 88 6b bd e6 6b b6 3e 8d d5 d5 bd
       -0.18517019 -0.057503536 0.35629195 -0.10441122
000090 f8 3d 02 bc 21 53 29 be f1 79 91 be 74 59 31 bd
       -0.007949345 -0.16535617 -0.28413346 -0.0432982
0000a0 48 fe 34 be 89 d2 6c be 08 f4 91 bd 88 e5 ce bd
       -0.17675126 -0.23127188 -0.071266234 -0.10102373
0000b0 50 5b 50 be e0 81 09 be dc 67 b4 be 55 a8 49 be
       -0.20347333 -0.1342845 -0.35235488 -0.1969312
0000c0 bc 69 17 bf f3 5b a8 be 7b ae 9d 3e 3c 7d 47 be
       -0.5914571 -0.32882652 0.3079718 -0.19481367
0000d0 cb 62 d1 be 4e 5a 4d bd 44 3c 29 be cf 5b a7 be
       -0.40895686 -0.05013495 -0.16526896 -0.32687232
0000e0 3f 50 44 be 93 78 31 3e 29 d9 23 be bd 0f ab bc
       -0.19171236 0.17331152 -0.16000809 -0.020881528
0000f0 08 d6 0e be c3 6b 19 be de 31 15 be 27 cf 98 3e
       -0.13948834 -0.14982514 -0.14569804 0.29845545

model.network.1.conv2.weight f4 [64, 64, 3]
000000 4a f9 31 bd ed 99 31 3d e3 b8 0f bc 2a cc 24 bd
       -0.04345063 0.043359686 -0.008772108 -0.04023377
000010 ce ee 12 3c 33 35 fd 3b 7c 08 5a bd 3d dc e5 bc
       0.008968068 0.007727289 -0.053230748 -0.02805912
000020 b6 7a 63 bd d3 b4 41 be c6 32 88 bd db 3d 67 be
       -0.05553695 -0.18916635 -0.06650309 -0.2258219
000030 4c 84 ae bc 0e 6a ea 3d 15 2a 93 bd 1b 6a 07 bd
       -0.021303318 0.114460096 -0.07185761 -0.033060174
000040 61 51 b6 bd 30 0b d1 3c 7f 87 33 bf 07 67 0f be
       -0.089022405 0.02551803 -0.70128626 -0.14004146
000050 df 2e dc bd dd 74 82 bc c8 d6 bd bd 64 26 b6 3b
       -0.107511275 -0.015924865 -0.09269482 0.0055587757
000060 ac 90 85 3a a9 1d 4f 3c 85 bd 0e bd 25 e3 86 3c
       0.001019021 0.012641349 -0.03484871 0.016465733
000070 14 80 9f bd 52 8c 2d bc 0b 05 c2 be 9b 92 47 be
       -0.07788101 -0.010592537 -0.37894472 -0.1948952
000080 21 f4 8d be 57 6c 21 bd 9b 9f 84 bd 8e d3 de bd
       -0.27725318 -0.03940996 -0.06475755 -0.108801946
000090 c6 4d e4 3c f4 af 89 be ec 15 e7 3b e8 8b c5 3c
       0.027869117 -0.26892054 0.007052174 0.024114564
0000a0 6b 9e b4 bd 96 a9 cd bd 86 cc bd bd 13 c4 0b bd
       -0.08819278 -0.100421116 -0.092675254 -0.034122538
0000b0 c6 c3 fe bc 4e 53 a7 3b 58 c3 4e 3d 2c c4 77 bd
       -0.031099211 0.0051063662 0.050479263 -0.06048982
0000c0 8f 0e 3d 3e e3 f7 17 3e b5 cb 5c 3e 10 63 24 3d
       0.18462585 0.14840655 0.21562083 0.040133536
0000d0 7c d5 e8 bb 10 43 40 bd 71 16 49 bd 80 80 9f bd
       -0.0071055274 -0.046938956 -0.049093667 -0.07788181
0000e0 65 39 22 bd b2 a3 35 bd 7b 29 6d 3e 43 9b 4f bd
       -0.039605517 -0.044345565 0.23160355 -0.05068518
0000f0 fb ca 40 bd 63 18 68 bd 24 78 58 3c 49 61 b8 3c
       -0.047068577 -0.056663882 0.0132122375 0.022507327
000100 44 6d 36 bd 17 37 b3 3c ed 4d 7f 3d 75 47 0a 3d
       -0.044537798 0.021876855 0.062330175 0.033759553
000110 03 ae 9e bd 98 01 07 bd e7 80 42 3d 15 c3 39 3d
       -0.07748034 -0.032960504 0.047486212 0.04535206
000120 e8 99 5d bd b4 b8 a1 3d da 3b 81 3d 08 d4 fc 3c
       -0.054101855 0.078965575 0.06310244 0.030862823
000130 07 b3 93 3c 49 e7 a1 bd 82 b3 89 3c 69 e2 83 3d
       0.018029703 -0.07905442 0.016809229 0.06439669
000140 84 b4 95 bd c5 fe 9e 3c 53 56 8d bc 73 04 95 bd
       -0.07309821 0.019408593 -0.017253077 -0.07276239
000150 3b 31 fe 3b 45 f3 9a bb fc e7 1e bc 22 4e e3 3c
       0.0077573336 -0.004728707 -0.009698864 0.027747218
000160 ea 09 e4 3b 61 e2 9f bd 8c e5 9c bc 08 96 8c 3e
       0.0069591897 -0.0780685 -0.019152425 0.27458215
000170 d2 35 66 be e1 5a 6f bd f2 6e 64 bd 7f ff 52 bd
       -0.22481468 -0.05843628 -0.05576987 -0.05151319
000180 6a 39 24 3d da f3 6d 3d f3 3a 6a bd 65 36 46 3c
       0.040093817 0.058093883 -0.057185125 0.01209793
000190 40 42 26 3d 97 19 8c 3d de 2d 08 bf f6 b6 e7 be
       0.040590525 0.068408184 -0.5319499 -0.45256776
0001a0 05 6d 93 3d 86 3e 46 bd c4 6f 72 bd 5e 16 de bb
       0.07198528 -0.04839947 -0.05918862 -0.0067775687
0001b0 e3 07 47 be 42 44 3f be df 9c ae 3c 52 6c 97 bd
       -0.19436602 -0.18678382 0.021315036 -0.07393707
0001c0 de b3 3e be a9 2b d3 3c 6b e9 d0 ba f8 8d 38 be
       -0.18623301 0.025777655 -0.0015938705 -0.18022907
0001d0 cd ed 1f 3e 07 8b 9c 3b ce 62 cc bd 0c 8f 15 bc
       0.15618058 0.0047773155 -0.09979783 -0.009128343
0001e0 aa cf 30 be 92 7e 4a bd b9 ca 05 bc 22 bd 5e bd
       -0.17266718 -0.049437113 -0.008166009 -0.05437959
0001f0 62 2a 92 bc 16 9d b9 bc a4 b2 08 bd 7f be c9 3c
       -0.017842475 -0.022657912 -0.03337349 0.024626968
000200 90 18 4c 3d d5 fa de bc a5 17 b1 bc a7 f3 a5 bc
       0.049828112 -0.027219215 -0.02161772 -0.020257784
000210 04 68 7e 3d 5f 6d 63 3c 57 f5 60 bd 9b d4 ea 3c
       0.062110916 0.013881057 -0.054921474 0.028665831
000220 e3 e1 a3 3b 4c d8 a0 bd c2 da 37 be 4b 97 1a be
       0.005001293 -0.07853755 -0.17954543 -0.15096776
000230 ac ca 3b be 1e 38 82 bb 28 9e 9b 3d 7c 5c 63 3c
       -0.18339032 -0.003973975 0.07598525 0.01387703
000240 6b d3 fe bc 35 aa 6c 3d 97 63 b7 bd 61 0e f4 bc
       -0.031106671 0.05777951 -0.08954542 -0.029792013
000250 65 f3 7d bd fe 89 eb 3c 2f bf 0c bf 83 a6 d7 3d
       -0.061999697 0.028752323 -0.54979223 0.105298065
000260 e8 1b 3b bf bd e8 9e bc 0d 4b 07 bb 25 8c 86 be
       -0.73089457 -0.019398088 -0.00206441 -0.26278797
000270 2a 9c 2e be 39 8e 6e 3d 16 11 30 3e ac f8 5c bd
       -0.1705176 0.058241103 0.17194018 -0.05394809
000280 03 17 c5 3c bc 47 14 bd 33 08 df bd c7 bc dc 3c
       0.024058824 -0.036201224 -0.10890236 0.026945485
000290 0f 3f f3 bb 46 ad 09 bd bf e4 3f be f8 3a c0 bd
       -0.0074232887 -0.033612512 -0.18739603 -0.093862474
0002a0 ed 35 95 bd e4 16 ca bc 3e 2f 93 bd c7 ff c4 be
       -0.07285676 -0.024669118 -0.07186745 -0.38476393
0002b0 88 04 96 bd 44 71 b7 be db 5a 8f bd c7 95 27 bd
       -0.07325083 -0.35828602 -0.06999751 -0.040914323
0002c0 3a 08 ca 3b d2 76 cf bc 0a 35 1f 3c 8f 8f 27 3d
       0.0061655315 -0.025325213 0.009717235 0.040908393
0002d0 f3 0c 2f bd 6e b1 26 bd 66 78 03 3c dc 2d 28 3d
       -0.04273696 -0.040696554 0.008024311 0.04105936
0002e0 c1 75 0e bc 71 b7 62 3d 5f 7e d9 3d f7 69 9a 3d
       -0.008695067 0.055350725 0.106198065 0.075397424
0002f0 95 81 1b 3d 00 28 4f be c7 6a f7 bd c5 ac 42 be
       0.037965376 -0.20230103 -0.12080913 -0.19011219
000300 a4 a1 03 bd 14 03 f9 3c 75 89 cd 3b 8c 47 a4 bd
       -0.032136574 0.030396976 0.0062724897 -0.08021459
000310 d7 f1 c0 bd bf ca 2f 3c f6 97 76 bd c3 3b 2a 3d
       -0.09421127 0.010729491 -0.060203515 0.0415609
000320 ef c4 4e 3b d6 ec c3 bd 51 70 ac bc b0 24 d8 be
       0.0031550487 -0.09566657 -0.02104965 -0.4221549
000330 a7 a7 71 3b 56 31 6c bd ab 3e ae 3c f3 f2 58 bd
       0.003687361 -0.057664238 0.021270117 -0.05296607
000340 32 e2 3f 3d 68 01 bb 3c 3f c0 28 3e 38 ea 5c 3e
       0.046846576 0.022827819 0.16479586 0.21573722
000350 13 02 1c bf 0d 12 7e be bb 51 43 bd f0 c8 18 3b
       -0.60940665 -0.24811573 -0.047685366 0.0023313127
000360 c0 13 b5 bd 67 5d 3b bd 14 7d 70 bd 9d f3 b5 3b
       -0.08841658 -0.045743372 -0.058713034 0.0055527226
000370 d6 14 22 bd ed fb 8b bc a5 4a 73 3d bf 0b d9 3d
       -0.039570652 -0.017087901 0.05939736 0.105979435
000380 d2 25 90 be 4e f0 92 be 81 2a 8e 3d be 0a ef 3d
       -0.28153855 -0.28698963 0.06941701 0.11671971
000390 88 98 d0 be c1 a0 29 bc fc 81 78 3e 1d 61 37 bd
       -0.40741372 -0.010353268 0.24268335 -0.04477035
0003a0 89 6d 6e 3c d5 15 57 bc a8 70 19 be 55 f4 b6 be
       0.014552482 -0.013127764 -0.14984381 -0.35733286
0003b0 60 0f 04 be c4 56 e0 3b fc 12 84 3d 49 13 91 3d
       -0.1289649 0.006846281 0.064489335 0.070837565
0003c0 20 c0 1b 3e 72 61 11 3f 15 cb be be 3e 02 b8 bd
       0.15210009 0.56789315 -0.37264314 -0.08984803
0003d0 23 66 14 bd 49 98 9e bc 58 54 f2 39 67 ce a4 bd
       -0.036230218 -0.019359725 0.00046220678 -0.080471806
0003e0 6a e0 45 bc f2 8c c6 be 43 96 be 3d 30 11 c9 bd
       -0.01207743 -0.38779408 0.09306004 -0.098177314
0003f0 71 26 cd bb fd 18 71 ba 27 f7 9d 3d 15 8e 9c 3b
       -0.006260686 -0.0009197144 0.07713156 0.0047776797

model.network.1.conv2.bias f4 [64]
000000 59 7c 00 bf c6 59 88 be 4c 8e 77 bd ba 64 fb bd
       -0.5018974 -0.26630992 -0.06043844 -0.122750714
000010 1c d1 c1 be 99 cc d6 be 3f 7a 06 3e 41 6a 04 bf
       -0.3785485 -0.4195297 0.1313257 -0.5172463
000020 72 9e 76 be 62 76 32 3d 6c 44 f3 be 86 1e 04 bf
       -0.2408388 0.04356993 -0.4751314 -0.51609075
000030 94 d9 9b be 14 75 83 bd 7a 19 04 bf 2c 93 bf be
       -0.30439436 -0.06418815 -0.51601374 -0.3741697
000040 eb 66 6c 3d 2b 10 2b 3e 1c 0b 86 3b 55 42 e9 be
       0.057715338 0.16705386 0.00409068 -0.4555842
000050 54 c3 2a be 9c bf 85 3d ca cb 67 3d 4b 6f 9c be
       -0.16676074 0.06530687 0.056590833 -0.3055366
000060 af 63 fd bd b6 9e ad be 25 30 d1 be db d5 81 3d
       -0.12372529 -0.3391015 -0.40857044 0.06339618
000070 e9 02 e8 be 08 c8 b1 be 16 52 be be f1 18 d7 be
       -0.4531472 -0.34722924 -0.37172002 -0.42011216
000080 04 71 20 bf f6 be bb be 7c 45 e6 3d c3 0e f3 be
       -0.6267245 -0.3666913 0.11243722 -0.474722
000090 75 ba 0a bf b1 5f e0 be b1 8c 1b bf d1 4c ba bd
       -0.5419076 -0.43823007 -0.60761553 -0.09096683
0000a0 e5 12 e5 be 47 f5 55 be 27 d6 0c 3e 6d 12 92 bd
       -0.44740978 -0.20894347 0.13753568 -0.07132421
0000b0 27 f9 ae be 2d 79 ac bf 6e 78 9f 3c 6b 41 07 bf
       -0.34174463 -1.347448 0.019466605 -0.52834195
0000c0 40 f3 1f be 2c 8a cf be 92 55 d6 bb bc c1 8c be
       -0.15620136 -0.40535104 -0.0065409625 -0.27491558
0000d0 57 24 65 bc 41 c8 14 bf db 96 88 be e8 91 c6 be
       -0.013985715 -0.58118063 -0.26677594 -0.38783193
0000e0 11 4e 7d bd f6 72 8a be 12 8d b8 be 03 43 9e bf
       -0.061842028 -0.27040833 -0.36045128 -1.23642
0000f0 42 84 84 3d 80 72 eb 3d a8 4c bf be a4 93 c7 be
       0.06470539 0.114964485 -0.37363172 -0.38979828
