Task1/model/traffic_lstm_model.pth (torch, 358148 bytes, 7 tensors)

lstm.weight_ih_l0 f4 [512, 27]
000000 b6 74 0a bd 13 c0 3c be 43 4e af bd bd 4b e9 bd
       -0.03380271 -0.18432645 -0.08559849 -0.11391399
000010 15 ab 17 bd b6 e8 eb bd 0e 77 ad bd 8d e3 07 3d
       -0.03702839 -0.115189955 -0.084699735 0.033175994
000020 15 23 38 be 5e d5 98 bd db fd ae be 96 94 f6 bd
       -0.17982133 -0.074625716 -0.3417805 -0.12040059
000030 54 b9 e3 bd 14 03 d4 3c c5 27 66 3d 94 69 0e be
       -0.11119333 0.025880374 0.05619027 -0.13907462
000040 a1 5d 3a be cf a2 c9 3d 4e 5c aa bb 08 db 0b be
       -0.18199779 0.098455064 -0.005198992 -0.13657773
000050 c8 ca 6d be 03 fc d0 bd ba 2b 0d 3e df c5 7c bd
       -0.23221886 -0.102043174 0.13786212 -0.061712142
000060 01 65 72 bd 43 c1 fd bd f0 d2 32 3f 11 f1 a4 bc
       -0.059178356 -0.12390377 0.69853115 -0.02013448
000070 42 5e 4c 3b 3d f8 52 bd d9 d4 b2 bc 91 4e 24 3d
       0.0031184112 -0.05150627 -0.02183001 0.04011399
000080 96 a4 2b bd 49 47 01 bd 58 e1 f7 bc 88 19 54 be
       -0.04190501 -0.031562123 -0.03025882 -0.20712864
000090 b3 97 56 3d 75 0d 91 3d 4a 63 e3 bd 95 85 3d 3d
       0.052390765 0.07082645 -0.11102922 0.046269972
0000a0 ad 5c 4c 3e 30 4d 37 bc fe 81 12 3d 28 4e 00 3d
       0.19957228 -0.0111878365 0.0357685 0.031324536
0000b0 cc bb ab 3d b2 c2 a9 3d 5a 00 0c 3e 81 1c 0a 3e
       0.08385429 0.08289088 0.13672009 0.13487436
0000c0 fa 45 8f 3b 58 bb fd bd 32 8f 34 3d ac 4c 0a 3e
       0.0043723555 -0.123892486 0.044081874 0.1350581
0000d0 7e f2 28 bd a6 59 26 3f 15 51 84 3d f3 69 48 3e
       -0.041246884 0.6498054 0.06460778 0.19571666
0000e0 26 0b 1a 3d f3 8b 4f 3e 51 6a 99 3d bf b3 91 3d
       0.03760829 0.2026823 0.07490981 0.07114362
0000f0 f7 7a d1 3e 15 85 d4 3c af ac ac bb c3 22 dd bd
       0.40914127 0.025942365 -0.005269609 -0.10797646
000100 f3 c1 2f be 1f 52 28 3e 81 df 25 3e e3 0a f2 bc
       -0.1716383 0.16437577 0.16198541 -0.029546207
000110 86 08 4c 3b 6d 17 43 3e 63 75 9f bd dd be c0 3d
       0.003113301 0.19051905 -0.077860616 0.09411404
000120 cb 1d c7 3c 90 4d cb 3d a5 0c 9c 3d 18 65 7f bc
       0.024306199 0.09926903 0.07619599 -0.0155880675
000130 68 67 10 be 5a 60 95 bd 79 92 67 3e c4 68 04 be
       -0.14101946 -0.07293768 0.22614469 -0.1293059
000140 46 39 0f 3e 4a 8f 87 be 90 1c 82 3d a9 90 c2 be
       0.13986692 -0.26476508 0.06353104 -0.38000992
000150 12 94 9a 3d f9 b6 c4 3e b7 4f 9b 3e 6a fb 1b bd
       0.075477734 0.38420847 0.30334255 -0.038081564
000160 0f ad 32 3d 17 0e 54 bf b8 f9 ad bc 54 1a 79 bf
       0.043622073 -0.82834 -0.02123724 -0.973058
000170 fd 2f a7 be 5a e8 b7 3b c8 47 6f 3e 74 07 fa 3d
       -0.326538 0.0056124153 0.23367226 0.12208453
000180 52 3c 80 3e 61 f1 bc 3e 6c 1c cd 3e 52 4b 72 3e
       0.2504602 0.36902907 0.40060747 0.23661545
000190 d7 c2 d9 3e 29 45 a5 3e 20 8e 8f 3d c1 9e 39 3c
       0.42531464 0.32279328 0.0700953 0.011329354
0001a0 5c 0b 85 bc 95 5a db 3c e5 3a af bd 3f 70 56 bd
       -0.016240768 0.026776591 -0.08556155 -0.05235314
0001b0 c7 70 d5 3c 4e 73 8f bd e3 64 aa bc cb e7 56 bc
       0.026054753 -0.070044145 -0.02080006 -0.013116787
0001c0 62 7e e8 bb c2 cb 70 3d a7 1f 98 3d 4d 82 d0 3c
       -0.007095144 0.05878807 0.07427912 0.025452757
0001d0 71 d2 be bd 57 93 a5 bc 90 06 b2 bc 49 13 39 bd
       -0.09317482 -0.020211859 -0.021731645 -0.045184407
0001e0 86 94 1e bd ff 37 eb 3d 56 38 3b 3d 48 69 a6 bc
       -0.03871586 0.1148529 0.045708023 -0.020313874
0001f0 a8 bf 8e bd 6c 60 32 3d ff 1d bf bd 7f 96 16 3d
       -0.06970149 0.043548986 -0.09331893 0.036764618
000200 ff be 24 be d2 98 04 be a8 02 c5 3d f0 ce 98 bc
       -0.16088484 -0.12948921 0.09619647 -0.018653363
000210 56 dd e9 bd 6a c2 cf 3c cc 20 b2 bb 24 2c da bd
       -0.114191696 0.025361259 -0.0054360386 -0.106529504
000220 e1 a3 ac bd 36 1d 8e bc d2 c3 3e be 90 36 c4 bd
       -0.08429695 -0.017347913 -0.18629387 -0.095807195
000230 0b 51 e8 bd 94 07 bb 3a 76 1a c0 3d b7 25 19 bc
       -0.11343583 0.0014269226 0.09380047 -0.009347371
000240 e0 58 92 bd 02 10 a4 bd 85 e0 36 be b4 20 08 be
       -0.07145858 -0.08010866 -0.17859085 -0.13293725
000250 e7 7f c9 bd bd 87 d9 bc 3b 99 d7 bd 20 8a 59 be
       -0.098388486 -0.026553983 -0.10527273 -0.21244097
000260 a8 5e 57 be d1 7e 73 bd 8b 09 90 bd ac ad 91 be
       -0.21032202 -0.059447113 -0.0703307 -0.28452814
000270 f5 9c 55 3d 09 65 20 3e b2 ac 7b bd b3 4d 1e 3e
       0.05215164 0.15663542 -0.061443992 0.15459327
000280 de f8 18 be 9c ca 8c 3e d4 06 07 be ed 38 a7 3d
       -0.14938685 0.2749833 -0.13186198 0.081651546
000290 72 fd 09 3d f4 c6 f0 bc 3d 98 57 3c 18 fe ad bd
       0.03368897 -0.029391743 0.013158855 -0.0849573
0002a0 97 00 9e 3e 49 ad 94 3d 79 62 8b bd 22 9d ee 3b
       0.30859825 0.07259614 -0.068058915 0.0072819153
0002b0 58 d1 de 3c 22 e5 68 3c 18 10 00 3e 25 ed 50 be
       0.027199432 0.014214786 0.1250614 -0.20402963
0002c0 1f 0c d5 bd ef 7d 5d 3d 76 56 a2 bc 44 55 70 bd
       -0.104027025 0.054075178 -0.019816618 -0.058675066
0002d0 ff b6 a8 39 27 99 59 bd ec 8e 09 3e 6d b4 a9 3d
       0.000321798 -0.053124573 0.13433427 0.082863666
0002e0 cd b2 62 be f0 70 ad bd 36 7d 07 3d 89 8c 92 3e
       -0.2213852 -0.08468807 0.033078395 0.28622845
0002f0 8e 77 1c 3f df 15 e9 3d 7f c2 64 3e ea 48 10 3b
       0.61119926 0.11381125 0.2233982 0.0022016116
000300 0a 12 cb 3d 7b a3 9c 3d 95 71 a0 bc 4a db a5 3e
       0.0991555 0.07648369 -0.01958541 0.32393867
000310 0b 0e 15 3d 41 68 f9 bd b6 c8 c2 bd 37 fe cb bd
       0.036390346 -0.12178088 -0.09510939 -0.09960597
000320 6e cc 11 3d 29 00 23 3e 41 65 de 3d 3c 61 87 bd
       0.03559535 0.1591803 0.108591564 -0.06610343
000330 24 a0 08 bd 85 e0 52 3d 34 f1 29 3c 66 cb 8c bd
       -0.033355847 0.05148365 0.010372449 -0.06874733
000340 a1 81 b8 3c d3 d0 7c 3d 5a 62 56 bd f2 de 91 bd
       0.02252275 0.061722588 -0.05233989 -0.071226016
000350 10 b4 a0 bb 4c 44 92 be a1 d4 3d 3d 27 8c 2e 3f
       -0.0049042776 -0.2856773 0.046345357 0.68182606
000360 22 2d fc 3c 65 b2 70 3d 48 03 1d 3d 59 bd 0d 3e
       0.03078324 0.05876388 0.038333207 0.13841762
000370 10 30 5d 3e 74 65 38 3e 22 52 92 bd 62 23 e2 bd
       0.21600366 0.18007451 -0.07144572 -0.11041905
000380 fe b9 4d be e0 06 cf 3b 9b 95 1a bd 8d 46 de 3d
       -0.20090482 0.0063179582 -0.03774033 0.108533
000390 08 7b c6 3d 64 cb b8 3e 7d f0 7c 3e eb 3d 75 3e
       0.09691435 0.36092675 0.24701114 0.23949401
0003a0 fa eb 1d 3d c8 0b 71 3e b7 da a1 3c 01 58 b5 3d
       0.038555123 0.2353965 0.019757612 0.08854676
0003b0 a4 b1 3e 3e 6d e0 93 bd 11 ca 96 ba 46 17 0e bd
       0.18622452 -0.0722054 -0.0011504312 -0.034690164
0003c0 8a 92 24 3e b1 5e d6 bd 62 bb f3 bc fe 28 08 3e
       0.16071525 -0.1046728 -0.029752437 0.13296887
0003d0 e6 07 90 3e 7a 3b 30 3e 09 cb 83 3e 12 d2 e5 3d
       0.28131026 0.17210189 0.2574084 0.11221708
0003e0 d8 a1 3a bd fb 05 5c 3e 3c 21 04 3e 1d 8b cb be
       -0.045564502 0.21486656 0.12903303 -0.39754573
0003f0 ab dc 57 3d ce 7d b2 be ba 70 50 3e cc 3c 9f 3e
       0.05270068 -0.34861606 0.20355502 0.31101072

lstm.weight_hh_l0 f4 [512, 128]
000000 58 f4 2c be 37 35 86 3d 7d a5 44 be 0d 21 12 3f
       -0.16890085 0.06553119 -0.19203754 0.5708168
000010 23 77 26 3e 42 99 1b be f6 b5 45 3e 9a 5a 0f 3b
       0.16256385 -0.15195182 0.19307694 0.002187407
000020 74 61 10 3e f3 6e 02 3e 33 9e 2e 3e 78 5f 7d bd
       0.14099675 0.12737636 0.17052536 -0.061858624
000030 e8 c5 e9 be f8 19 1a 3d b1 12 93 3e 9d f6 e3 3c
       -0.45658803 0.037622422 0.28725198 0.027827555
000040 95 02 a7 bd d5 4a 91 be b2 dd 30 be eb 1f 83 3e
       -0.08154789 -0.28377405 -0.1727207 0.2561029
000050 b9 87 1e 3e 97 e0 ad 3e 8b 9a e2 3c f0 38 62 bf
       0.15481462 0.3396041 0.027661582 -0.8836813
000060 c3 d6 98 3e 15 3b 5f be 00 a3 8c bc fc 0b 88 3c
       0.2985135 -0.21799882 -0.017167568 0.016607277
000070 db 2b 87 3d ad b5 4d 3d 73 0d a1 3e 0e c4 74 bd
       0.06600162 0.050222088 0.31455573 -0.059757285
000080 9e 23 ce 3d b4 38 b9 3d 1f fe 24 3e 29 35 00 bf
       0.10065387 0.090440184 0.16112565 -0.50081116
000090 5a 4a fe bc 61 b2 a2 3d df 20 38 3e 79 ff e3 be
       -0.031041313 0.07944179 0.1798129 -0.44530848
0000a0 b1 9c cb 3e 97 ad 81 bd 29 fa 43 be 14 f0 e3 3c
       0.39767984 -0.06331938 -0.19138397 0.02782444
0000b0 cc 19 40 3e 57 2e 02 bf ce 45 be bc f4 8b b4 3d
       0.1875984 -0.5085196 -0.023226645 0.088157564
0000c0 1c ca 6b be 46 8a 0a 3f 90 7c 2e 3e 4f d8 04 3e
       -0.23026317 0.5411724 0.17039704 0.1297314
0000d0 34 4c 2e 3e f0 93 c1 3d 79 d1 a4 bd d3 f3 91 3e
       0.17021257 0.09452045 -0.08047766 0.28506336
0000e0 b0 01 eb 3e 0f 28 84 be 02 33 27 be 82 51 1f 3d
       0.45899725 -0.25811812 -0.16328052 0.03889609
0000f0 4c cd 04 3e 3b 2c 39 3d a0 59 05 bf b4 e1 47 3f
       0.1296894 0.045208197 -0.5208988 0.7807877
000100 11 38 83 be 80 32 c9 3e ef f6 12 3d eb d9 b3 ba
       -0.25628713 0.3929634 0.035880025 -0.0013721561
000110 d9 2d 5e 3e f2 4e f9 3b d3 a8 ca 3e 06 d3 3b be
       0.21697177 0.007608288 0.39581928 -0.18342218
000120 ff 63 31 be 1a 21 06 3d f7 1b 9f bd b0 3f dc 3d
       -0.17323302 0.03274641 -0.07769006 0.10754335
000130 1a f0 13 3e 75 c3 a3 3d 83 a1 41 3e 46 a3 4b 3e
       0.1444706 0.07996265 0.18909268 0.19886503
000140 b1 e0 00 3e 99 19 3c be ec 41 30 3f 15 a8 81 3d
       0.12585713 -0.1836914 0.6885059 0.06330887
000150 de 53 dc 3d af 6e 7d be 14 a4 ff bd 5b 15 49 3e
       0.10758184 -0.24749254 -0.12482467 0.19637053
000160 da 98 02 3f dd 8d ce bd 5e 85 ce bd 47 ab fc bc
       0.5101448 -0.10085652 -0.100840315 -0.03084339
000170 7a e8 b0 be 3d 43 43 3d 45 4d 01 be 84 84 20 3e
       -0.34552366 0.047671545 -0.12627132 0.1567555
000180 20 54 99 bd f3 e7 38 3e f7 98 91 bc 6d cd f3 3d
       -0.07486749 0.18057232 -0.017773135 0.11904416
000190 5b c5 30 3e b1 cc 54 3e b6 e1 26 bd 0c 11 e7 3d
       0.17262785 0.20781209 -0.0407426 0.11282548
0001a0 49 88 fd be c9 37 eb bc 22 84 72 3e 5d ff d5 3d
       -0.4951804 -0.028713124 0.23683217 0.10449097
0001b0 01 29 fd bd d9 55 f1 bc e5 22 69 3e ca ac b1 be
       -0.123613365 -0.02945988 0.22767217 -0.3470214
0001c0 57 cc 9d 3d e4 ac 17 3d a5 62 25 be 7e 6e d2 3d
       0.0770499 0.037030116 -0.16150911 0.10274981
0001d0 d6 3e 1a be 2a 5b 07 be a7 8a be bd 4a 4c 14 bd
       -0.15063033 -0.1321837 -0.093037896 -0.036205567
0001e0 d0 3c 46 3d 7c 8b d0 3e d1 a4 95 3e 7f 64 8f 3e
       0.04839784 0.40731418 0.29227307 0.2800636
0001f0 4e b6 48 3e fb dd f8 3e ad c2 bc 3d 56 ce fd bd
       0.19600794 0.48606858 0.09216819 -0.12392871
000200 5f a3 3b be 1a fa 82 3e d1 fa 08 be 60 b9 5a 3e
       -0.1832404 0.25581437 -0.13376929 0.21359777
000210 a3 5f d8 bc d0 ee ed 3d 5c 8f 44 3e 6a e2 8c be
       -0.02641279 0.116178155 0.19195312 -0.2751649
000220 e4 b3 c5 bb 85 29 1d 3e 6a 8c 4c 3e a2 32 ed bd
       -0.0060334075 0.1534787 0.19975439 -0.11581923
000230 09 e0 ad be 60 18 2d 3d c1 18 c0 3d 66 72 10 3e
       -0.33959988 0.042259574 0.093797214 0.1410614
000240 0b 77 71 3d 0a 08 13 be 24 5c 1b 3e f8 65 ea 3c
       0.05895142 -0.14358535 0.15171868 0.028613076
000250 2a 78 80 3d c9 81 3c 3e 37 0f 44 be d5 e6 15 be
       0.062729195 0.18408884 -0.19146429 -0.14638837
000260 3e c7 fe 3d 39 13 d2 3d 8f 29 2b 3e 84 6d 94 be
       0.12440346 0.10257573 0.16715072 -0.28989804
000270 99 f3 0b 3c c2 63 94 3d 02 e4 be 3e e6 67 80 3d
       0.008541965 0.0724559 0.3728333 0.06269817
000280 76 9a 18 bd 3f aa 8d 3d 78 98 df bd db 92 b7 be
       -0.03725668 0.069172375 -0.10917753 -0.3585423
000290 e3 d7 be 3c 23 c0 66 3b 6f 08 14 3e 96 be 63 be
       0.023296302 0.0035209737 0.14456342 -0.22240672
0002a0 25 54 9f 3e 24 28 8d be f1 6a dd bd 70 a8 96 be
       0.31118885 -0.27569687 -0.10811413 -0.29425383
0002b0 56 37 55 3c de 82 dc bc ea f7 4a 3c 49 67 80 3d
       0.013013681 -0.026917871 0.012388209 0.062697
0002c0 c3 9f 24 bd d5 7e b8 3d df c3 82 3e ff 8c 4e bc
       -0.040191423 0.09008566 0.25540063 -0.012606858
0002d0 3a 10 0d 3c ec 55 5d 3c 2a d7 da bd ba b7 18 3e
       0.008609826 0.013509255 -0.106855705 0.14913836
0002e0 f2 0c cd 3e 9c c3 21 be f9 30 7a 3d 34 b1 ba 3d
       0.4004894 -0.15797275 0.06108186 0.0911583
0002f0 43 50 90 3e 1e b8 d6 3d 03 15 a2 bd df e9 16 be
       0.28186235 0.10484336 -0.07914164 -0.14737652
000300 98 3d 84 3e b8 dc 69 3b 5c 9d 7a 3d c6 db 78 3c
       0.25828242 0.0035684537 0.061185226 0.015189117
000310 09 fe 97 3d aa 17 a5 bd 79 5c e5 3d 14 7e 3a be
       0.074215 -0.08061154 0.111992784 -0.18212157
000320 da 7a 0f be aa a3 86 3c 12 11 d5 3d 1f 08 68 3e
       -0.14011708 0.016435463 0.104036465 0.22659348
000330 6b 1b 4f be 7a a5 9b 3e ca f8 39 3e af b7 29 3f
       -0.20225303 0.30399686 0.18161312 0.66295904
000340 a6 17 48 3d b7 00 8f be 63 a1 b4 be 1f 45 7d 3d
       0.048850678 -0.27930233 -0.35279378 0.061833497
000350 ae 53 ad 3d 4e f7 7c be 8a 91 31 be 79 d3 20 bc
       0.08463226 -0.24703714 -0.17340675 -0.009816044
000360 1a 25 24 bd 4b d8 3f 3d 0a f2 4a be d7 18 0c 3e
       -0.040074445 0.046837132 -0.19818893 0.1368135
000370 b6 a3 df be 28 ba f8 3d 26 1b 34 3e 76 c4 35 be
       -0.4367959 0.121448815 0.17588481 -0.17750725
000380 21 e6 71 3c bb 1a e3 3d 46 34 d2 bd d7 f2 aa be
       0.01476434 0.11089083 -0.102638766 -0.33388397
000390 5a e8 1b be 09 a3 e8 3e 23 4e a0 bd d3 fa d0 bc
       -0.15225354 0.45436886 -0.078274034 -0.025510227
0003a0 b9 e6 37 bc 20 0f 48 3e e1 2f 61 3e 54 3a e3 3d
       -0.011224442 0.1953702 0.2199092 0.110951096
0003b0 cd c8 0d be cb d0 50 be 66 8f ed bd 50 e9 f2 3c
       -0.1384613 -0.20392148 -0.11599617 0.029652268
0003c0 a7 c9 2a be 93 18 7e 3e 45 e3 5f bc 37 53 86 bd
       -0.16678487 0.24814062 -0.013665025 -0.06558841
0003d0 81 c4 0f bd 38 a6 31 3e 14 63 cd bd 22 44 ff 3d
       -0.03509951 0.17348564 -0.10028663 0.12464167
0003e0 27 72 7a 3c e5 67 3d 3e 57 32 98 bd 3b 89 71 bd
       0.015286005 0.18496664 -0.074314766 -0.058968764
0003f0 ce 2e 90 3e be d4 58 3e 75 68 27 be 71 35 30 3e
       0.2816071 0.21174905 -0.16348441 0.17207886

lstm.bias_ih_l0 f4 [512]
000000 7d e6 39 bf 7b 0b 14 bf 16 8d 45 bf ca b2 ab be
       -0.7261732 -0.5783002 -0.77168405 -0.33534843
000010 62 67 35 bf b7 8b 32 bf c2 d4 ff be f7 e2 17 bf
       -0.70860875 -0.6974444 -0.4996701 -0.59330696
000020 56 2f 07 bf b1 0c 7f be 71 59 1f bf a8 54 07 bf
       -0.52806604 -0.24907185 -0.6224585 -0.5286355
000030 2b 34 18 bf fa 0d 39 bf 9f cc 3b bf c6 4d 2b bf
       -0.594546 -0.7228695 -0.733591 -0.6691555
000040 76 ee 25 bf 77 e8 b8 be c0 b7 1f bf 74 e8 17 bf
       -0.6481699 -0.36114857 -0.62389755 -0.5933907
000050 a6 a6 14 bf 57 88 2c bf 21 62 2d bf a2 bc 5b be
       -0.58066785 -0.6739554 -0.6772786 -0.21458676
000060 da eb 5c be 2a 95 33 bf 5f f5 0b bf 30 d6 2e bf
       -0.21574345 -0.7014948 -0.5467128 -0.68295574
000070 3a eb 22 bf 0d dc 2e bf f2 c6 15 bf ba 00 4e bf
       -0.6364018 -0.6830452 -0.5850669 -0.8046986
000080 fe 24 f7 be 6a 6a 82 be 2a ac 21 bf 73 63 bd be
       -0.4827041 -0.25471812 -0.63153327 -0.36989936
000090 68 36 1c bf 77 e7 1f bf e4 e2 1f bf cf 50 a4 be
       -0.6102052 -0.6246256 -0.6245558 -0.32092902
0000a0 46 70 b3 be 25 2e 8e be f3 4c 09 bf 62 22 2b bf
       -0.35046595 -0.2776958 -0.5363304 -0.6684934
0000b0 98 9f 40 bf a3 4b a5 be 21 a9 41 bf 25 65 30 bf
       -0.7524352 -0.3228427 -0.75648695 -0.68904334
0000c0 e6 76 13 bf ea ce d7 be 8d 1e 89 be ab 17 4b bf
       -0.576033 -0.4215005 -0.2678112 -0.7933299
0000d0 70 1f 2a bf 58 2b 4c bf 72 9a c7 be b2 46 0e bf
       -0.6645422 -0.7975364 -0.3898502 -0.5557662
0000e0 32 35 ea 3c b8 07 13 bf 98 39 1d bf 1e 00 2d bf
       0.028589819 -0.5743365 -0.61416006 -0.67578304
0000f0 54 9a f5 be d8 45 32 bf c4 0c 2c be ce 60 c6 be
       -0.47969306 -0.69637823 -0.16801745 -0.3874573
000100 79 e0 0a bf f8 07 a8 bd 3b 2c f2 be 98 77 29 bf
       -0.5424877 -0.08204645 -0.4729937 -0.6619811
000110 45 e0 22 bf 03 2d 09 bf 3b bf a0 be f1 fd 17 bf
       -0.6362346 -0.5358431 -0.31395897 -0.5937186
000120 ff bc 02 bf c4 8c 26 bf 7d 7f 21 bf da 03 d6 be
       -0.51069635 -0.6505854 -0.63085157 -0.41799814
000130 36 90 20 bf d8 0a 46 bf 21 01 3a bf 05 d3 14 bf
       -0.6272005 -0.77360296 -0.7265797 -0.5813449
000140 ac bc 3a bf c3 d5 06 bf 0f 97 bd 3d 9e c2 04 bf
       -0.7294414 -0.52669924 0.09257328 -0.5185946
000150 9b cc 24 bf 45 d9 23 bf 0f 8f 89 bf ef 37 ef be
       -0.64374703 -0.640034 -1.0746783 -0.4672236
000160 61 97 31 bf 62 0a 4a bf 7b e8 11 bf 74 84 0a bf
       -0.6937161 -0.7892209 -0.5699536 -0.5410836
000170 0d 7c 9b be 2f 9a 4f bf 84 d9 46 bf b3 7d 13 bf
       -0.3036808 -0.8109464 -0.7767565 -0.57613677
000180 f5 1d 32 bf dd ff 4a bf 04 1e 34 bf 97 e2 0b bf
       -0.6957696 -0.79296666 -0.703583 -0.54642624
000190 df 5c 3f bf 9e a5 65 be bd c8 a8 be 22 7a 3e bf
       -0.74751085 -0.22426459 -0.3296565 -0.7440511
0001a0 a2 f1 5b be 68 d7 2f bf 3b d7 ae be ed 9a 36 bf
       -0.21478894 -0.6868806 -0.34148583 -0.7133015
0001b0 91 70 db be 30 b8 1e bf e8 93 4a bf 09 79 85 be
       -0.4285932 -0.619998 -0.7913194 -0.26068905
0001c0 80 06 25 bf 6a c9 39 bf d6 44 e1 be c0 10 d2 be
       -0.64463043 -0.7257296 -0.4399783 -0.41028404
0001d0 43 6b 8f be c4 a6 0e bf e9 2a 05 bf 0c 04 56 bf
       -0.28011522 -0.55723214 -0.520186 -0.83599925
0001e0 0b 01 51 bf 04 f2 a3 be 53 70 1c bf 8b 37 32 bf
       -0.81642216 -0.3202058 -0.61108893 -0.69616
0001f0 be 71 38 bf 2d e6 9a be 0a 06 0a bf d3 f9 fd be
       -0.72048557 -0.30253735 -0.53915465 -0.49604663
000200 37 22 d0 be 2e 9b 29 bf 06 09 13 bf ac ad a1 3d
       -0.40651104 -0.6625241 -0.57435644 0.078944534
000210 0f 37 00 bf 9b dd 2c bf 9b 58 29 be 2e 6d 3a bf
       -0.5008401 -0.67525643 -0.16537707 -0.72822845
000220 7f 1a c8 be f9 3a 16 3d a2 95 79 be f7 32 ec be
       -0.39082715 0.036677334 -0.24373487 -0.46132633
000230 96 9e ae 3d 88 ed 2f bf 00 c4 c7 3c 0c 26 4e bf
       0.085263416 -0.6872182 0.024385452 -0.80526805
000240 68 5e d6 be 5c 12 24 be 15 db e7 be 42 f8 66 bf
       -0.418689 -0.16022629 -0.45284334 -0.9022256
000250 b9 3e 2e bf 57 29 eb bd f1 ba 80 be 0a 2d f1 3e
       -0.6806446 -0.11482494 -0.25142625 0.47104675
000260 e0 2b 4d be 58 55 ad 3d b2 28 23 bf 82 8e bc be
       -0.20036268 0.08463544 -0.6373397 -0.36827475
000270 d4 e7 c3 bd fb a8 14 bf 95 05 0d 3e f4 c5 bc be
       -0.09565702 -0.58070344 0.1377166 -0.36869776
000280 44 64 df be 93 24 79 be 3f 11 9e be 6d 25 a5 be
       -0.43631184 -0.24330358 -0.30872533 -0.32255116
000290 44 6f 64 be fa d7 01 bf d0 1f e5 bd 12 b3 e9 bb
       -0.2230807 -0.5072018 -0.111877084 -0.0071319425
0002a0 4e f4 78 be c3 db cd 3d c7 38 cd be 5b f4 6a bf
       -0.24311945 0.10051682 -0.4008238 -0.91779107
0002b0 bf 41 21 bf 84 4a de bc b9 5a 15 bf 77 3d 01 bf
       -0.62990946 -0.027135141 -0.58341557 -0.5048441
0002c0 39 39 14 bf 51 aa 18 bc f0 3b 12 bc 94 1f a2 be
       -0.57899815 -0.00931795 -0.008925423 -0.31664717
0002d0 a3 17 67 bf 2a cd 3a bf 88 95 27 be d1 6e 15 bf
       -0.9027044 -0.72969306 -0.16365635 -0.5837222
0002e0 f4 65 1c 3e b6 ac 12 be 0a 14 98 3d 71 c7 80 be
       0.15273267 -0.14323696 0.07425697 -0.25152162
0002f0 c2 c4 e7 bd 34 94 77 bf 57 70 a4 3e 73 4f c0 bc
       -0.113168254 -0.96710515 0.32116958 -0.023475384
000300 ec 86 d9 be 9d 3f f9 3d a7 d0 b4 bd bc 47 29 be
       -0.4248575 0.121703364 -0.0882886 -0.1653127
000310 f2 ec 4a bf f9 de 23 bf fe 54 76 3d 9f d9 ec be
       -0.792678 -0.64012104 0.06013965 -0.46259782
000320 38 42 09 bf 96 8a 18 bf 51 46 59 be b0 ed 31 3c
       -0.53616667 -0.59586465 -0.2121823 0.010859892
000330 43 97 05 bf 81 c8 ae be d4 ce 42 bd 90 39 2a bf
       -0.5218393 -0.34137347 -0.047560528 -0.66494083
000340 6e 8a 1c bf ef 92 a0 3e 39 3c f5 3d e8 67 07 bf
       -0.61148727 0.313621 0.11974377 -0.52892923
000350 d5 60 e1 be ae da 65 be e4 14 51 be 8d 15 94 be
       -0.4401919 -0.22446701 -0.20418125 -0.28922692
000360 73 ad a6 bd 6a 8b 6b bf b5 e8 38 bf 12 76 21 bf
       -0.081385516 -0.92009604 -0.7223008 -0.63070786
000370 9a 6b c3 bc 8a 62 13 bf e2 1d 4e bf dc 64 09 3f
       -0.02385502 -0.57572234 -0.8051435 0.53669524
000380 25 bc a7 be 7c 81 4b bc 25 49 53 bf 0b 5a ab bd
       -0.3276073 -0.012421008 -0.82533485 -0.08366784
000390 48 0f 97 be 5e 82 b8 be cf 28 15 be 75 2d 6b bf
       -0.29503846 -0.36036962 -0.14566348 -0.91866237
0003a0 36 10 16 3e f8 f3 38 bf c4 88 22 be 47 64 e6 be
       0.14654621 -0.72247267 -0.15872484 -0.4499838
0003b0 30 f0 08 bf 2d be 58 bf 12 35 4c bf ff d7 11 be
       -0.534915 -0.84665185 -0.7976848 -0.14242552
0003c0 e6 63 cc be 22 a6 e6 3e 28 4e 4a 3e bf aa 02 bf
       -0.39919966 0.45048624 0.19756377 -0.5104179
0003d0 bc 0f 74 be 9f c6 ed be 9a 0d 03 be 21 4b 05 bf
       -0.23834127 -0.46440598 -0.12798157 -0.5206776
0003e0 c3 f1 2a bf 9d a1 11 3f a7 52 fe bc a7 2c 4f bf
       -0.6677515 0.5688723 -0.031045271 -0.8092751
0003f0 06 ba 86 bd 48 cc 69 be a8 5e 14 be 18 68 6e 3e
       -0.0657845 -0.22831833 -0.14489233 0.23281896

lstm.bias_hh_l0 f4 [512]
000000 41 c9 2c bf a9 68 02 bf 1c 73 38 bf a0 d7 da be
       -0.6749459 -0.5094095 -0.7205064 -0.42742634
000010 76 0d 40 bf 65 fd 2c bf d2 5d 16 bf 95 5f 1b bf
       -0.7502054 -0.6757415 -0.5873691 -0.6069272
000020 10 91 07 bf 81 5a b4 be 3b f7 1a bf e0 3f 05 bf
       -0.5295572 -0.352253 -0.60533494 -0.5205059
000030 2f ee 13 bf 08 ab 38 bf dd ad 49 bf 7e e8 41 bf
       -0.57785314 -0.7213597 -0.7878092 -0.7574538
000040 7c ff 1f bf 77 c0 9f be 22 19 2e bf 80 16 1b bf
       -0.62499213 -0.31201527 -0.680071 -0.6058121
000050 d6 93 3c bf 6b e1 26 bf 7b 99 1c bf 24 28 dd bd
       -0.7366308 -0.6518771 -0.6117169 -0.10798672
000060 e8 6b 09 be ce 32 47 bf 2f 41 1d bf 43 d4 17 bf
       -0.13420069 -0.77811897 -0.6142759 -0.5930826
000070 38 96 3e bf 8d 2c 27 bf 4a bc 0b bf 8a 40 54 bf
       -0.74447966 -0.65302354 -0.5458418 -0.8291098
000080 b4 00 0e bf c3 e5 10 be 26 d7 23 bf 49 0b e8 be
       -0.5546982 -0.14150147 -0.64000165 -0.4532111
000090 b0 03 1f bf b1 71 27 bf 3a b9 36 bf a7 58 a5 be
       -0.62115 -0.65407854 -0.71376383 -0.322942
0000a0 68 c2 6c be 23 25 12 be a3 f5 0b bf 58 88 24 bf
       -0.23121035 -0.14271979 -0.54671687 -0.64270544
0000b0 7c 4f 20 bf 69 b0 a9 be 9f 0b 43 bf fd fc 17 bf
       -0.62621284 -0.33142403 -0.7618961 -0.59370404
0000c0 42 9d 11 bf 20 e4 a5 be b5 19 f6 bd f3 49 48 bf
       -0.5688058 -0.32400608 -0.12016622 -0.7823784
0000d0 bc ce 33 bf 90 81 5b bf 3f 1e 02 bf a0 a8 0c bf
       -0.70237327 -0.8574457 -0.508274 -0.549448
0000e0 c6 ce a8 3c 70 6a ff be d0 fc 26 bf 18 63 12 bf
       0.02060641 -0.49885893 -0.6522951 -0.57182455
0000f0 9c 8c ea be d4 aa 38 bf 52 2f eb bd 5e 0c 8c be
       -0.458104 -0.72135663 -0.11483635 -0.27353185
000100 40 3a f8 be 1e 33 d5 bd 7f 71 ab be 4c 1e 18 bf
       -0.4848194 -0.104101405 -0.33485028 -0.5942123
000110 21 e2 06 bf 87 04 fa be 19 96 6b be f6 ed 2f bf
       -0.52688795 -0.4883158 -0.23006476 -0.68722475
000120 ca 07 ed be f8 28 2e bf d1 9a 28 bf 70 0f b4 be
       -0.46295005 -0.68031263 -0.6586123 -0.35168028
000130 8d d5 00 bf 74 62 40 bf 55 54 2b bf f3 fd 12 bf
       -0.5032585 -0.7515023 -0.66925555 -0.57418746
000140 1e c4 54 bf 93 40 d6 be 31 c6 51 3e 81 9b 27 bf
       -0.8311175 -0.4184614 0.2048576 -0.65471655
000150 8f 51 29 bf bd 25 1d bf e4 68 83 bf 3d 5a f2 be
       -0.66140074 -0.6138571 -1.0266385 -0.4733447
000160 05 7e 2f bf aa 61 52 bf 8b 48 0f bf aa 6a cf be
       -0.68551666 -0.82180274 -0.55970067 -0.40511066
000170 2d be 9f be 51 40 35 bf 98 b2 41 bf f8 d9 f5 be
       -0.3119978 -0.70801264 -0.7566314 -0.4801786
000180 25 6c 21 bf 13 a1 47 bf 92 14 43 bf 49 44 27 bf
       -0.6305564 -0.77980155 -0.7620326 -0.6533857
000190 4b 1f 3f bf ec c6 99 be 0d d0 8c be 16 b9 33 bf
       -0.74657124 -0.30034578 -0.2750248 -0.70204294
0001a0 9a 56 30 be c4 4f 42 bf 0f 7f a1 be 19 0d 46 bf
       -0.17220536 -0.7590296 -0.3154225 -0.77363735
0001b0 6e 72 0a bf 5c 3f 25 bf 88 d7 49 bf 1f e5 42 be
       -0.54080856 -0.64549804 -0.788445 -0.19032715
0001c0 82 ee 14 bf 86 4e 21 bf 52 1d ba be 46 94 d1 be
       -0.58176434 -0.6301044 -0.36350495 -0.40933436
0001d0 55 03 ab be 48 d2 14 bf e6 d3 04 bf 9a fb 2d bf
       -0.3340098 -0.58133364 -0.5188583 -0.6796204
0001e0 09 ee 5e bf 0a 53 c4 be 2b 7d 16 bf 03 42 22 bf
       -0.8708196 -0.38344604 -0.5878474 -0.63381976
0001f0 02 48 40 bf fb b2 d7 be ac ed ee be d0 cc c5 be
       -0.75109875 -0.4212874 -0.46665704 -0.38632822
000200 3b 35 c8 be 20 36 2a bf ad b9 09 bf 88 c7 9b 3d
       -0.39103112 -0.6648884 -0.53798944 0.07606417
000210 25 e9 1a bf d3 f1 31 bf 65 19 73 be b4 c5 5b bf
       -0.60512 -0.6950962 -0.23740156 -0.85848546
000220 43 59 86 be 8b 12 15 bd 21 15 51 be e6 28 0c bf
       -0.26239976 -0.036394637 -0.20418216 -0.54749906
000230 04 c5 77 3e 9e 95 48 bf f7 f5 e0 bd 82 33 6c bf
       0.24196249 -0.783533 -0.10984414 -0.92266095
000240 ca 59 f0 be ca a5 11 be bd b4 06 bf 78 95 58 bf
       -0.46943504 -0.142234 -0.52619535 -0.8460307
000250 db c9 08 bf dd 73 31 bd 28 60 a7 be 7c 9c 14 3f
       -0.53433007 -0.043323386 -0.3269055 0.58051276
000260 c5 52 93 be 81 6a 69 bd d6 b0 1c bf 64 35 cb be
       -0.28774086 -0.056986336 -0.6120733 -0.3968917
000270 96 b6 35 bd a3 01 33 bf 61 74 63 3d c0 71 ba be
       -0.04436358 -0.6992437 0.05553091 -0.3641491
000280 92 65 d4 be 3b 13 0f be 7f a4 a6 be 09 9a ae be
       -0.41483742 -0.1397218 -0.32547376 -0.34101894
000290 09 1b 02 be 30 d0 ff be 48 5b d0 bd 8a dd 20 bd
       -0.12705626 -0.49963522 -0.101736605 -0.039273776
0002a0 59 fa 1c be 84 02 a8 3c b5 3c 07 bf 5d 6c 63 bf
       -0.15329875 0.020509012 -0.52827007 -0.88837224
0002b0 03 4b 29 bf 6e b1 d7 bd 14 bf f9 be 9b 84 fa be
       -0.66130084 -0.10531889 -0.48778594 -0.48929295
0002c0 bd d7 f5 be ad dd 09 be 79 12 e6 3c 48 74 90 be
       -0.48016158 -0.13463469 0.02808498 -0.28213716
0002d0 2b fa 6c bf 24 36 38 bf a4 d9 38 be 82 9f e8 be
       -0.92569226 -0.7195761 -0.18051773 -0.45434195
0002e0 db 53 82 3e a0 16 31 be bc b9 c8 3d 1f 7f 1c be
       0.25454602 -0.17293787 0.09801051 -0.15282868
0002f0 aa 48 ca bd fa 76 76 bf 49 86 8c 3e 1e ed bd bd
       -0.09877141 -0.96275294 0.274462 -0.09273742
000300 fb 91 85 be d2 43 d0 3d f3 05 e3 bd ea 51 05 be
       -0.26087937 0.10169186 -0.11085119 -0.13019529
000310 5e ad 4a bf 39 70 25 bf fb 3b c5 3d e3 d8 e1 be
       -0.7917079 -0.64624363 0.09630581 -0.44110784
000320 3e 51 09 bf 7a a1 26 bf f1 eb 79 be be 42 cf 3d
       -0.5363959 -0.65090144 -0.24406411 0.10120152
000330 2e 1c 0b bf 2f f1 b4 be 19 50 0e bd 67 79 14 bf
       -0.54339874 -0.35340258 -0.034744356 -0.57997745
000340 58 34 29 bf 12 0b 26 3e 70 f1 63 3d 39 9f f2 be
       -0.66095495 0.1621516 0.055650175 -0.47387102
000350 d9 cb 16 bf 50 c4 83 be a8 25 e7 bd af 03 cd be
       -0.58904797 -0.25735712 -0.11286479 -0.40041873
000360 16 3d 08 be a9 82 82 bf 47 0b 43 bf ca 87 15 bf
       -0.13304552 -1.0196124 -0.7618908 -0.5841032
000370 8b 58 51 3d 56 dd 06 bf 0e a1 6d bf 09 6e dc 3e
       0.05110983 -0.5268148 -0.92823875 0.430527
000380 c7 63 cf be fe 16 3f 3b fd f9 69 bf f6 b9 20 be
       -0.40505812 0.0029157992 -0.91397077 -0.15695938
000390 36 5f 3a be c8 88 be be fa 87 2c be b9 fa 4d bf
       -0.18200383 -0.3721373 -0.16848746 -0.804607
0003a0 a6 d8 6c 3e 00 11 47 bf 80 84 6a be 7b da fb be
       0.2312952 -0.77760315 -0.22902107 -0.49190125
0003b0 3c ca 05 bf 1f 26 50 bf d2 42 4a bf 93 88 12 be
       -0.5226171 -0.8130817 -0.7900821 -0.14309911
0003c0 cc 24 c7 be 95 35 fe 3e c6 a5 5c 3e f2 38 fa be
       -0.3889526 0.49650255 0.21547613 -0.4887157
0003d0 4e 4e 55 be 6a 68 01 bf d9 a3 97 bd cd 36 fa be
       -0.20830652 -0.5054995 -0.07404298 -0.48869935
0003e0 3f 59 12 bf be e8 fa 3e 49 0d e8 3c 07 26 25 bf
       -0.5716743 0.49005693 0.028326647 -0.6451115
0003f0 e5 44 98 bc f8 99 32 be 5f 18 86 be a8 48 6b 3e
       -0.018587539 -0.17441547 -0.2619047 0.22976935

fc1.weight f4 [64, 128]
000000 5e 7f 3c 3c 33 cf 8e 3b ae 39 25 3e c2 9b 1f 3e
       0.011504976 0.004358196 0.16135284 0.1558676
000010 39 9a 0d be bf a8 62 3c 1c 75 21 bd ba be 90 bc
       -0.13828363 0.0138341775 -0.039418325 -0.01766907
000020 4b 7f 7b bd 16 d9 7c 3e c3 74 07 3e 36 aa f7 3b
       -0.061400693 0.24692187 0.13228135 0.0075581325
000030 ec 79 9b be dd 14 3f be 2b 51 84 3d ab 25 74 3d
       -0.30366457 -0.18660302 0.06460794 0.059606235
000040 84 6c 83 bc ec 87 96 bd a7 ef ae bd bc a1 f5 bd
       -0.016042955 -0.07350144 -0.08541804 -0.11993739
000050 87 4f 13 3e ce b4 92 3a 6e ef 67 bd 2f 36 2b be
       0.14385806 0.00111928 -0.056624822 -0.16719888
000060 a6 df 3b 3e eb 5d e4 3b b1 9b d8 3d 33 f2 4f be
       0.18347034 0.0069692037 0.10576571 -0.20307235
000070 b7 57 2a bd 08 92 4a 3c 14 3d 54 3d 23 21 85 3d
       -0.041587558 0.012363918 0.05181606 0.06500461
000080 3c 1a 82 3e 42 4e d5 3d a7 51 6f be e0 2e fe bd
       0.2541064 0.10415317 -0.23370992 -0.124112844
000090 a4 73 ac bd 9f 59 12 3e ed 2b 4d bc bb dd 56 be
       -0.08420494 0.14292 -0.01252268 -0.20983021
0000a0 2c fd 73 3c 25 ab 80 bd f3 77 a9 3d 76 0f 04 3e
       0.014891904 -0.06282643 0.082748316 0.12896523
0000b0 30 52 41 be 88 e7 f1 3c 2d e0 54 3d 83 b4 8e 3e
       -0.18879008 0.029529348 0.051971603 0.27872095
0000c0 9c 0b e5 bd 53 c9 cd 3d 8c 6e 60 bc 88 5d 9e 3e
       -0.11183855 0.10048165 -0.013698231 0.30930734
0000d0 83 1a 73 bd 71 0a 0d 3e 00 37 f6 3d 9e 56 30 3e
       -0.059351455 0.13773514 0.12022209 0.17220542
0000e0 8a 54 01 bd 4f 13 c2 bd cd 16 c8 39 1c f4 f1 3d
       -0.031574763 -0.09476339 0.0003816396 0.11814138
0000f0 1f ff 35 bd 4b 58 c5 bd 6c 20 5a bd 62 31 3f 3d
       -0.044432756 -0.09635981 -0.053253576 0.046677954
000100 cb ee 31 be bb e0 cb 3d 68 e9 c5 bd e0 cb d6 bd
       -0.17376249 0.09954973 -0.09663659 -0.10488105
000110 4a 18 83 3c 66 a2 a3 bd e5 15 a0 3e 8f e1 d5 bd
       0.016002793 -0.079899594 0.31266704 -0.104434125
000120 ac fe ed be 29 14 d4 bc 96 af f6 3c e5 e6 d9 3c
       -0.46483362 -0.02588852 0.030113023 0.026599357
000130 8b 2c 0e be 73 69 c5 3d 35 bb ab 3d 1b 61 18 3e
       -0.1388418 0.096392535 0.08385316 0.14880793
000140 a2 ff f0 3d ea 7d 85 be 44 5d 92 3e 4e fc 89 3c
       0.11767508 -0.26072627 0.2858678 0.016843941
000150 41 ab 61 3d 02 88 d2 bd 11 55 5a 3e 16 62 ac bd
       0.05509496 -0.10279848 0.21321513 -0.08417146
000160 b2 ba 30 3d f8 22 7a 3c 26 8e f2 bd 80 9f 26 3d
       0.043146797 0.015267126 -0.11843519 0.040679455
000170 ea fa af bd 1f df 77 bd 1c 49 2a 3e 67 2d f8 3d
       -0.0859278 -0.06051552 0.16629452 0.12118035
000180 fe 8a a1 3d 2d 50 52 3e fe 10 a1 bd e7 14 e2 bd
       0.07887839 0.20538397 -0.07864569 -0.11039143
000190 ae 36 70 bd d2 c1 38 3e 61 55 d8 3d fd a5 06 bb
       -0.058645897 0.18042687 0.1056316 -0.0020545714
0001a0 41 6a 00 bb 4e 66 34 3e 23 71 dc 3d 4c b1 04 be
       -0.0019594582 0.17617151 0.107637666 -0.12958258
0001b0 86 26 de bd 00 6f 24 be b2 f9 b5 b8 7f 38 35 be
       -0.108471915 -0.16057968 -8.677262e-05 -0.17697333
0001c0 97 c9 80 3c 5e 82 9e bd 62 a1 36 be f7 22 2c bd
       0.015721126 -0.07739709 -0.17835 -0.042025533
0001d0 97 de 27 bd 93 df 79 3c fa d7 cd 3a 11 af e6 bd
       -0.040983763 0.015251058 0.0015704625 -0.1126386
0001e0 dc 31 98 3d 47 2e f9 bd c5 ea df 3c cc e0 ea bd
       0.07431385 -0.1216703 0.027333627 -0.11468658
0001f0 c6 79 90 bd 35 ae ab 3e eb 02 0a 3d b6 78 25 be
       -0.070544764 0.33531347 0.03369419 -0.16159329
000200 18 c9 54 be 69 cb 97 3e 07 1d 91 3e a4 e2 bb bc
       -0.20779836 0.29647377 0.2834246 -0.02293522
000210 53 25 e3 bc a2 10 fa bd e4 42 32 3e d9 e8 22 be
       -0.027727759 -0.12210204 0.17408329 -0.15909137
000220 f8 93 32 bd 2e 84 6b 3d 82 2b 08 3e 69 c4 8c be
       -0.043598145 0.057499103 0.13297847 -0.274936
000230 74 5d 84 be a0 bc fa bd ba 9b f4 3d 5d 1d 6d 3e
       -0.2585255 -0.122430086 0.11943765 0.23155732
000240 b3 51 67 3d 7d f1 a2 3d 93 be 07 be 28 0b 12 3e
       0.0564744 0.079562165 -0.13256292 0.14262068
000250 d0 c7 a7 3e 49 25 41 3e f1 3e 67 be d4 fd 96 bd
       0.32769632 0.1886188 -0.22582604 -0.073726326
000260 be b2 6b 3e de 45 67 bd 44 6c da 3d f6 9d 29 be
       0.23017403 -0.056463115 0.10665181 -0.16564164
000270 ae 2d 27 3e 3c 0b 2c bd 9d 22 f2 3d 72 84 13 bc
       0.16326019 -0.0420029 0.11823008 -0.009003745
000280 44 dc b5 3d db 31 92 b8 1c 03 b7 bd f2 5a 31 be
       0.08879903 -6.971109e-05 -0.0893614 -0.17319849
000290 be 96 99 be 7f ef 1e 3e ba f1 6a 3e b2 6e 74 be
       -0.2999782 0.15521048 0.22943774 -0.23870352
0002a0 44 ae 4f 3e 26 29 3a be be de 09 be 1d 03 9c bd
       0.20281321 -0.1817976 -0.13463876 -0.07617781
0002b0 a7 73 6b bd bd e3 6f bd 7a cb 52 3d 7b f1 4e 3e
       -0.05748334 -0.058566798 0.05146358 0.20209305
0002c0 99 c3 29 3d e9 97 05 3e 90 f6 b6 bd 25 36 82 3e
       0.041446302 0.1304623 -0.08933747 0.25431934
0002d0 55 fc 15 3e 1e 8b da bd 00 c1 f0 bd c4 8b a1 3c
       0.14647038 -0.10671066 -0.11755562 0.019719966
0002e0 b1 0e 96 3d 00 5c 15 be 5b 61 0d bd 86 4e 45 3d
       0.07327021 -0.14585876 -0.034516674 0.04817059
0002f0 17 e8 df 3d b3 b9 0f bd 91 6a 55 be 22 31 e2 3d
       0.109329395 -0.035089206 -0.20841433 0.110445276
000300 6d f4 57 be 8a 8e 12 3e 94 d6 ba 3d 88 cb 77 be
       -0.21089335 0.14312187 0.09122959 -0.24198735
000310 84 b8 ca 3d f9 4f 2c bd 59 c2 e0 3d b5 6c 1f be
       0.09898475 -0.042068455 0.10974569 -0.15568812
000320 5c 0d 39 be 45 29 ea 3d 0f cc a2 bd c8 b3 88 3d
       -0.18071502 0.11433653 -0.07949077 0.066749156
000330 3b 0e 0d be a2 64 73 bd 4c 47 12 3e 4b 9c 42 3e
       -0.1377496 -0.059422143 0.1428501 0.19004934
000340 f4 7e 86 3d 70 3f 36 be 89 cc 5b 3e c0 ad 39 3e
       0.06567183 -0.17797637 0.21464743 0.18132687
000350 2c 1d aa 3d 89 78 b4 3c 4b ed a3 3e 59 56 a3 3d
       0.08306345 0.022030132 0.32016978 0.07975454
000360 ac 83 e5 bc fb ea cd 3d 1e 08 ad bd 6e ce 88 be
       -0.028016888 0.100545846 -0.08448814 -0.26719993
000370 f4 b4 bb bd c8 16 16 3c 74 0d 87 3c 89 39 d8 bd
       -0.091653734 0.009160705 0.016485907 -0.10557849
000380 fc 0d fb 3c f2 79 3b 3e 49 a4 5f be 12 3c 90 bd
       0.030646317 0.18308237 -0.21840014 -0.070427075
000390 25 10 6b 3e 31 5d f9 3d 28 c6 c0 3a ed 23 6c 3e
       0.22955377 0.12175978 0.0014707493 0.2306058
0003a0 05 fa 56 3c ee b6 9b 3d 35 c2 01 3e 4a ad 65 3b
       0.013121133 0.076032504 0.1267174 0.0035045915
0003b0 88 ba cc bc b7 6a ae be d5 62 94 be ac ac d4 bd
       -0.024991289 -0.34065792 -0.28981653 -0.10384497
0003c0 37 80 f8 bd 2e 10 93 bd 22 81 e2 bc fb 15 df 3b
       -0.1213383 -0.071808204 -0.027649466 0.00680804
0003d0 7c f9 b9 3d 7c ad 2f be 95 29 a3 be 51 43 71 3d
       0.090807885 -0.17156023 -0.31867662 0.05890209
0003e0 ae 21 d9 3d 06 42 0a 3d 36 59 25 be 9e ab 00 be
       0.10602127 0.03375437 -0.16147313 -0.12565467
0003f0 63 3c 54 3d 26 d7 4b 3e 6a 35 20 bc e7 f4 24 be
       0.0518154 0.19906291 -0.00977836 -0.16109048

fc1.bias f4 [64]
000000 fe 4c d5 bd 89 bd 85 3d 03 10 1d 3f e0 49 06 3f
       -0.10415076 0.065302916 0.61352557 0.52456474
000010 14 e9 f0 3e ba 5d 05 3f 4b f1 8e be ac 25 0b 3f
       0.47052824 0.5209614 -0.27918467 0.5435436
000020 ee 16 31 be 3a 1e 19 be 58 33 f1 bd 7c 71 d5 3d
       -0.17293903 -0.14952937 -0.11777371 0.10422036
000030 65 69 8b bd 1a af f3 3e 59 5a 2b be 72 4e 34 be
       -0.06807212 0.4759453 -0.16733684 -0.1760805
000040 bc 5f c0 3e a3 35 1c be 60 9f 48 be 57 93 d9 3e
       0.3757304 -0.15254836 -0.19592047 0.42495224
000050 f4 4d 78 3e e4 4f a0 3c c5 5e 11 be 19 20 ff 3e
       0.24248487 0.019569345 -0.14196308 0.49829176
000060 bc 80 a8 3e dc 78 59 be 38 4d 6f be ad 2a 1b be
       0.32910717 -0.2123751 -0.233693 -0.15152998
000070 5e de 01 3f 48 d5 ff 3e e4 32 1a 3f a1 32 10 3f
       0.5072993 0.49967408 0.602339 0.56327254
000080 21 18 bc bd 68 af 4b be 7a 32 d6 3e 58 92 06 3f
       -0.0918429 -0.19891131 0.41835386 0.5256705
000090 0f cd 13 bd eb 71 32 3e 47 c5 83 be ee c8 46 be
       -0.03608423 0.17426269 -0.25736448 -0.19412586
0000a0 98 b9 ff 3e cb fe c4 bd 22 f8 55 be 8e ee 36 be
       0.49946284 -0.096189104 -0.20895436 -0.17864439
0000b0 87 ce 04 be 99 57 05 bd 71 89 25 3e e6 66 91 3d
       -0.12969409 -0.032554243 0.16165711 0.070997044
0000c0 65 bb 18 3f a5 9f f7 3e 62 ec f2 3e 8c dc e7 3e
       0.5966094 0.48363987 0.4744597 0.4528545
0000d0 85 d9 c4 3e 1a a4 f0 3e 91 14 b6 3e 7e 2b 38 be
       0.38447204 0.470002 0.35562566 -0.17985341
0000e0 97 04 65 be 6c 32 1d 3f 48 59 ce bd 75 46 3a be
       -0.22365032 0.6140506 -0.10075623 -0.1819094
0000f0 60 a2 3a be 0d 87 03 be 22 10 18 3f 20 66 01 3f
       -0.18226004 -0.12844487 0.59399617 0.50546455

fc2.weight f4 [1, 64]
000000 3b b5 fe bc 6a a3 75 bc a5 c5 3e 3e 01 7a 08 be
       -0.031092277 -0.014992574 0.18630083 -0.13327791
000010 44 f3 dc bd c2 a2 4b be d9 b2 89 bc 73 8e 0d 3e
       -0.10788587 -0.19886306 -0.016808914 0.13823871
000020 15 a5 b1 bc 39 01 47 bc a8 b4 80 3c 60 69 66 b9
       -0.021685163 -0.012146288 0.015711144 -0.00021973765
000030 7f fa 19 3b 7a bb 04 3e 2a ca 07 3b 98 e3 c6 bb
       0.0023495255 0.12962142 0.0020719864 -0.0060696118
000040 f3 36 17 3d 31 18 94 bc b7 71 39 3d 0c b6 2b 3d
       0.036917638 -0.018077942 0.045274463 0.04192166
000050 9b 25 e3 bc 79 1a 0a 3c 37 6a 6e 3c 47 ca fd 3d
       -0.027727893 0.008429163 0.014551691 0.12392097
000060 c8 cb 25 3c 9a 82 12 3d 40 65 39 bc b4 37 02 bd
       0.010119386 0.035769083 -0.011315644 -0.031791404
000070 cd dd 00 be f2 78 9f 3d 32 bd 4a 3e b7 52 30 3e
       -0.1258461 0.0778674 0.19798735 0.17219053
000080 48 5c ef bc d9 6d 86 bc c6 df 24 3d e4 ab 48 be
       -0.029218808 -0.016409801 0.04025247 -0.19596821
000090 68 c0 d8 bc 73 6d c5 3b d7 eb 76 bc 99 e4 6f bc
       -0.026458934 0.0060250103 -0.015070877 -0.014641904
0000a0 6d f0 cf bd d0 8f da bc c4 79 6f 3d 6a 45 8f b8
       -0.101532795 -0.026679903 0.058465734 -6.831701e-05
0000b0 66 01 98 3c b5 ba 77 bd 5f 2d 91 bc 29 6e 6e bd
       0.018555354 -0.060480792 -0.01772183 -0.058210526
0000c0 15 8f 3e 3e ff 63 09 3e d7 b8 e9 bd 85 48 e3 bd
       0.18609269 0.13417052 -0.114122085 -0.110978164
0000d0 38 63 be 3c 2f 46 d6 3d 4a cf 2f bd 1c 62 34 bc
       0.02324067 0.10462605 -0.042922296 -0.011009719
0000e0 1e 01 97 3d c5 71 ef be ed 4e 7f bc bd ce f3 3c
       0.0737326 -0.46766487 -0.015582782 0.029761666
0000f0 0f 1a e0 bc 57 09 a5 3c f5 b9 28 3e 34 48 eb bd
       -0.027356176 0.020146055 0.16477187 -0.11488381
